AEGAN/weights/discriminatorlatent 50 Epoch.pth (torch, 194876 bytes, 25 tensors)

1.weight f4 [32, 16]
00000000: 4700 a6bd 30c7 88be 4b55 0a3e 1587 d13d
00000010: a3e1 263e cc56 febd 8dc3 513e 17e3 dcbd
00000020: 4e45 bb3d 6429 a5bd f332 533d 0c26 3a3e
00000030: 8a8c 1c3e ef1f 56be d3d4 c7bd 93ef 3cbe
00000040: b7e6 81bd 3427 cebd 5a56 71be 5204 48be
00000050: b65e 1e3e 24a7 543d 46c0 083d 3d38 e83d
00000060: af54 823e 0162 1b3e 3d39 5e3d 7ba3 05be
00000070: 42d7 63be 0032 64be a44e 1c3e b7b7 e9bd
00000080: 559e 7d3d 7b1b 7d3d 4520 c5bd 3c2d 35be
00000090: 0926 ecbd e601 2f3e 6f41 473e c71f 51be
000000a0: 9d13 d7bd 350a 46be e8e7 483e 0b25 293e
000000b0: 01ee 52be f6a0 3a3d 6623 163e 5827 093e
000000c0: 881c b13d 6213 86bc 4101 a6bd 91e4 e9bd
000000d0: b594 6ebb 9dcb 243e ac9e cabb 8cf2 67bd
000000e0: daaf 0fbc d241 42be 3678 1fbe 425d a73d
000000f0: 569d 193e de23 43be e284 2e3e d4db 1e3e
00000100: c7cb 9f3d b522 1d3c c0ed d8bc f9e5 67be
00000110: 0815 c13d 0d38 2dbe 4363 153e 823e aebd
00000120: bd76 423e 07df b63d d2b1 dc3d 8696 14bc
00000130: 11c0 f1bd 7ef8 10be 13db 113e 324b a2bd
00000140: e06c 25be e65d 123d 0130 803d dff5 1dbe
00000150: a37c 773e f796 79bd 391c 563e 7f54 e13d
00000160: 7d09 ecbd 17c2 c13d ae53 b63c 2c54 073e
00000170: d391 c73d ad45 723d 928b 953d 839f f73b
00000180: b228 5dbe 2780 703d 07d9 3a3d 1981 01be
00000190: db2f 63bd bdbb 22be 9fbe 483e 8f56 383e
000001a0: 4699 0abe b493 823e 26ae d33d 0635 6bbd
000001b0: 2ebc af3d e2c2 00be 5eed 723e 68ca 1b3b
000001c0: f3ef 063e e05f 1bbe ede3 bebd 4de5 073e
000001d0: 5a56 563e 5228 cd3d 08d4 243e 2063 c63d
000001e0: 4fbe e6bd 78bb 463e bf18 6c3e ed83 99be
000001f0: 8c48 943b 1166 02be 3c5b 273e 3fe3 01be
00000200: 414f 993d c94d 1bbe f657 893d 02cd 65be
00000210: f084 a23c 0923 0ebe 4c40 58be 3b06 21be
00000220: 94b0 93be 6e9b fe3d 2f77 623e fec8 453e
00000230: 0022 333c fddb 4abe 446c 133e d959 28be
00000240: a658 53bd 1d9d 013e d0db 58be f62c 14be
00000250: cc65 f33c 0a52 ff3d 56f5 95bd 9257 8f3e
00000260: 5922 083e e1af 0e3d b03b ad3c 96fe 933d
00000270: 83d2 3e3e 92fc 97bd 2e3e 503d 36b5 4a3e
00000280: 04dc 7ebb d4ec 2f3e d8d2 3b3d 3c36 bd3d
00000290: dbf7 57bd 7b3a 0b3e 25a0 533e 36da 633e
000002a0: 3787 dbbc bc6d 3a3e 6c16 bcbd f054 ba3d
000002b0: a2cb 86be 08d6 49be 34a2 a83d 7ca1 773d
000002c0: 59d3 39be 47e7 013e 6917 ecbc 971e d73d
000002d0: 20a2 15be 5f51 8a3d 9b7d 3f3e 8bfe 3f3e
000002e0: ee9b 7e3d 4b75 49be 34f9 303e ad0c dd3d
000002f0: c440 dcbd 0afc 4bbe 8230 173e e8ec 3cbe
00000300: 0eeb 45be 2f87 913d e91e 7abe 3ff6 1e3e
00000310: 1e4a 78bc 81af 69bc a64c 35bd 3565 53bd
00000320: 586f 21bd 88b8 183e dba4 5a3e 6c6d aa3d
00000330: 0ddf 95bd f1a8 6d3d eac0 203e 82ea 893e
00000340: 1a28 5ebe d194 3e3b c7c8 ea3d 575b f9bd
00000350: b027 6ebe bb8a 2b3d 4221 993d 4c67 3d3e
00000360: ecea 353e 30b1 563d 75d0 d93c a515 b4bd
00000370: 9261 f1bc e620 e73c 3088 5b3e 7e2c 98be
00000380: aa85 3bbd 3ab3 cbbd 557e d9bd d099 643c
00000390: 2422 e03c 55be 8a3e 5abc 4fbe 8788 47be
000003a0: a030 ca3d 835e 07be f4da 343e 9fb2 d2bd
000003b0: 0caa 463e ecf0 9bbd bc80 a83d fbf3 4f3e
000003c0: f401 813e 6e66 01be 32c1 e3bc 0404 363e
000003d0: 145e 9c3c 2129 0c3e 4107 f13d 9413 6bbc
000003e0: a50f 8f3d 6167 35be edfb 22be 3ebd 383c
000003f0: 43a0 9c3d 893b 663e c6f2 90be bc12 a73d
-0.08105522 -0.26714468 0.13509099 0.10230843 0.16297011 -0.12418899 0.20484753 -0.107855015
0.09144078 -0.08064535 0.05156226 0.18178576 0.15287986 -0.20910619 -0.0975739 -0.18450765
-0.063428335 -0.10066071 -0.23568097 -0.19532898 0.15465817 0.05191721 0.03338649 0.113388516
0.25455233 0.15174104 0.054253805 -0.13050644 -0.22250083 -0.22284698 0.15264374 -0.11411994
0.061918575 0.061793786 -0.096252955 -0.17693037 -0.11530692 0.17090568 0.19458555 -0.20422278
-0.10501788 -0.19339831 0.19619715 0.16518037 -0.20598604 0.04556366 0.14661941 0.13393915
0.0864802 -0.016366664 -0.08105708 -0.11420549 -0.0036404554 0.16093297 -0.006183466 -0.056627795
-0.008769954 -0.18970421 -0.155732 0.081720844 0.15001425 -0.19056651 0.17042878 0.15513545
0.07802539 0.009590794 -0.026480556 -0.22646321 0.094278395 -0.16915913 0.14588647 -0.08508016
0.18990608 0.08929258 0.10776104 -0.009069091 -0.11804212 -0.14157292 0.14243726 -0.079244986
-0.16154814 0.03573408 0.06259156 -0.15425824 0.24168639 -0.060934987 0.20909204 0.110024445
-0.11525247 0.09460848 0.022256698 0.13215703 0.09744611 0.05914848 0.073020115 0.007556857
-0.21597555 0.058715966 0.04561713 -0.12646903 -0.05546556 -0.15891929 0.19603966 0.1800177
-0.13535032 0.25503314 0.103359506 -0.057423614 0.08580814 -0.12574342 0.23723361 0.0023771767
0.13177471 -0.15173292 -0.09320817 0.13271065 0.20931378 0.10017456 0.16096509 0.09686875
-0.11266767 0.19407451 0.23056315 -0.29983464 0.00452525 -0.12734248 0.16343397 -0.12684344
0.074858196 -0.15166391 0.0670623 -0.22441486 0.01983878 -0.13880552 -0.21118277 -0.15725033
-0.28845656 0.124319896 0.22115777 0.19314954 0.010933399 -0.19810481 0.14396769 -0.16440524
-0.051598214 0.1265759 -0.21177602 -0.14470276 0.029711626 0.124668196 -0.07322185 0.27996498
0.13294353 0.0348357 0.021146625 0.07226293 0.18634991 -0.07421221 0.05084055 0.19795689
-0.0038888464 0.17180187 0.045855373 0.0923886 -0.052726608 0.13596527 0.20666559 0.2225121
-0.026797874 0.18205923 -0.09183964 0.09098232 -0.26327235 -0.19710553 0.08234063 0.060456738
-0.18147029 0.12685882 -0.028819757 0.105038814 -0.14612627 0.067538016 0.18700258 0.18749444
0.062160425 -0.1967365 0.17282563 0.10793433 -0.107545406 -0.19920364 0.14764598 -0.18449748
-0.19327947 0.07105862 -0.24425854 0.15523623 -0.01515439 -0.014263035 -0.04426255 -0.05161019
-0.039412826 0.14914143 0.2135195 0.08321652 -0.07317934 0.058022443 0.15698591 0.26936728
-0.21694985 0.00290804 0.114640765 -0.12175625 -0.23257327 0.04188035 0.074770465 0.18496436
0.17765397 0.052415073 0.026588658 -0.08793191 -0.02946547 0.02821393 0.2143867 -0.29721445
-0.04578177 -0.09946294 -0.10619799 0.013952687 0.02736003 0.27098337 -0.20286694 -0.19485675
0.09872556 -0.13219647 0.17661649 -0.102879755 0.19400805 -0.076143116 0.08227679 0.20307915
0.25196803 -0.1263673 -0.027802084 0.1777497 0.019087829 0.13687564 0.11768962 -0.0143479295
0.06985406 -0.17715217 -0.15916415 0.011275588 0.07647755 0.22483648 -0.2831022 0.0815787

1.bias f4 [32]
00000000: 7aff b7bc 5f0d b33c 26ee a6bc 063c f0bc
00000010: dbda 0e3c 2c72 933c 127d c13a b747 52bc
00000020: 56be d3bc 7a58 e33c 77b8 fa3c d33c c53c
00000030: 9cd0 e73c faaa 01bd efe4 7cbc de9f f23c
00000040: 4d8a 47bc 49d6 ca3b 0c63 00bc ab59 b63b
00000050: 89ac b8bc 8038 f63c 1cec 09bc e492 f4bc
00000060: c076 2b3c b9f6 5c3c 4097 51bc 9d7e 4c3c
00000070: d80b 083c 0da2 a4bc 5909 0abc bffa 4e3c
-0.022460688 0.021856962 -0.02037723 -0.029325496 0.008719171 0.017998777 0.0014762005 -0.012834481
-0.025847595 0.02775215 0.030605538 0.024076855 0.028297715 -0.031657197 -0.015435441 0.029617246
-0.01217897 0.0061900956 -0.007836115 0.0055648885 -0.022543209 0.030056238 -0.008418109 -0.0298552
0.010465324 0.013486558 -0.0127924085 0.012481359 0.008303605 -0.020096803 -0.00842508 0.012633025

2.weight f4 [32]
00000000: 4153 793f e9b4 753f 8944 713f 5e05 7d3f
00000010: aeac 7c3f c8ea 7a3f 3866 843f 77ef 833f
00000020: 3a96 793f 2f4b 813f 1b92 823f dbbf 823f
00000030: 2cf9 7f3f 323f 813f 6f81 8a3f 4140 903f
00000040: a655 793f 670b 843f 0313 833f f00a 853f
00000050: 065f 843f 697d 703f 43b3 713f 53bf 803f
00000060: ffe3 773f f9b3 723f bb8f 693f 7b38 833f
00000070: 3a34 753f 17ec 7f3f c2f9 663f e9c1 7c3f
0.9739266 0.9597917 0.942452 0.98836315 0.9870099 0.980145 1.0343695 1.0307454
0.9749485 1.0101069 1.0200838 1.02148 0.9998958 1.0097411 1.082075 1.1269609
0.97396314 1.031598 1.0240177 1.0393963 1.0341499 0.9394136 0.94414157 1.0058388
0.9683227 0.94805866 0.9123494 1.0251611 0.95782816 0.9996962 0.9022485 0.98733383

2.bias f4 [32]
00000000: dfd5 6dbd 99c7 26bc 41ac f13c f297 60bd
00000010: acec e6b9 439d fe3c 2b32 923d 22bf 49bd
00000020: bd18 23ba e1d0 273d ab9c bd3c 02ce 223d
00000030: 5305 1d3d 94f9 8b3d e842 9c3d e311 673c
00000040: e808 cdbb b7be 3dbc b921 13bd a56e 3b3d
00000050: 52f9 34bd e76d aebc 68fd 45bc 2d5f a3bb
00000060: bd85 a9bc 7814 19bd 1314 9fbd 514a 383d
00000070: 4428 d03b fb8e a93c cd53 86bd 05d4 013d
-0.05806529 -0.010179424 0.029501082 -0.054832406 -0.00044045353 0.031080848 0.07138475 -0.049254544
-0.0006221643 0.040970687 0.023145994 0.039747246 0.038335156 0.068347126 0.07629949 0.014103386
-0.006257165 -0.0115811145 -0.035920832 0.045759816 -0.044183083 -0.02129264 -0.012084343 -0.004985711
-0.020693654 -0.037373036 -0.07767501 0.04499275 0.0063524563 0.020698061 -0.065589525 0.03169634

2.running_mean f4 [32]
00000000: e280 e7bc 7636 fa3c 3f0a 02bc c305 293c
00000010: 0a5d 73bb efec 603c e6b0 5e3b 2467 94bc
00000020: 5c76 47bd ce82 843d 20e4 153d 9574 eb3c
00000030: bbd9 453d 64c1 45bd ebe1 613c d3c8 2d3d
00000040: fbc5 97bc 5e4b 263d 2434 1bbc 3230 873c
00000050: 363a ecbb 484f d63c d722 2dbc 3950 67bd
00000060: 1d8e 093d 8054 073d 7927 c73a 8281 2e3d
00000070: 5409 e73b 23f8 19bd d5ce 17bc e86e 0a3c
-0.028259698 0.030543547 -0.007937013 0.010316315 -0.0037134313 0.013728364 0.0033979951 -0.018115588
-0.04869686 0.064702615 0.03659451 0.028742114 0.048303347 -0.048280135 0.013786773 0.04242785
-0.018527022 0.04059922 -0.0094728805 0.016502474 -0.0072090877 0.026160851 -0.0105673885 -0.05647299
0.033582795 0.03303957 0.0015194259 0.042603977 0.0070506725 -0.037590157 -0.009265621 0.008449294

2.running_var f4 [32]
00000000: f3b3 803e cdab 993e 2ea3 7d3e 0b14 163e
00000010: 1fe1 713e 2611 663e 4294 843e e4f0 c23e
00000020: b1e3 c13e dd95 b73e e0dc 743e c217 9c3e
00000030: 103b 733e 0fd6 5d3e 235c a03e 52f6 aa3e
00000040: 5180 a93e 4dc9 ae3e 861d a43e 775d 803e
00000050: 2ae6 353e 5545 f93e 3777 8d3e bebe e73e
00000060: 3cb2 893e 84b9 b73e 9f0c b43e 3528 aa3e
00000070: a73a 083f ce91 d13e 7d6c 723e 28e1 613e
0.2513729 0.30013886 0.2476928 0.14656083 0.23621033 0.22467479 0.25894362 0.3807441
0.37869027 0.35856524 0.23912382 0.30486876 0.23753 0.21663688 0.31320295 0.33391052
0.3310571 0.34137955 0.32053775 0.25071308 0.17763582 0.4868571 0.27630016 0.45262712
0.26893795 0.35883725 0.3516588 0.332338 0.53214496 0.40931553 0.23674197 0.22058547

4.weight f4 [64, 32]
00000000: 5da4 f7bc f363 d73d 347a 5f3d 6905 3c3e
00000010: e9f8 143e a871 bcbd 7c71 543b 51f3 2c3e
00000020: 2646 4c3e b894 77bd 3128 a0bd eca3 cdbd
00000030: 30c5 cebd 503d 37bd 30d1 98bd 5b6f ccbc
00000040: d63c f8bd 2ca0 c43d d2cb 1e3e 7b0f fa3b
00000050: e3a2 b4bd 3360 933c 5830 d0bc 32fa d73d
00000060: cf52 3c3e a6f6 b83d f6fe cf3d f824 ccbd
00000070: 4b49 cd3d 6c75 abbc 4fb5 86bd b03b 43bd
00000080: 02b3 333c c7e6 483d 9dd0 143d b23d 1abd
00000090: 6b62 2e3d efdd 1dbe f226 a03b b7f2 03be
000000a0: 0443 a83b e6d6 54bd 7f7d 343c fb26 073e
000000b0: b678 0dbe d801 9abb 4a97 04be 0cfd 5fbe
000000c0: 35c5 f83d c1d6 15bd f6b4 0ebe 59d7 c4bd
000000d0: bacb 27be 8072 083e c1cd 1f3e 923e 56bd
000000e0: fbc4 4fbd 5a1c 07be 1de7 c2bd 9f2f e6bd
000000f0: 1247 dbbd e55a 4c3c 7f2c c638 6723 0bbe
00000100: c76a 9e3c 91f4 9cbd c70d 41bb d9b8 413e
00000110: 75d5 be3d bdcb 213d 088c 843d 8737 1a3d
00000120: 57ea d7bd 8798 453e 27de 2ebe 6677 2f3d
00000130: 4ca0 bebd 2829 2abe 1c1e 3b3e 3f4d 0dbd
00000140: ca5a 1bba 2977 42bd bed4 ac3d abcf 543e
00000150: a4e6 0f3d d041 89bd 6619 8b3d db86 9e3d
00000160: 3f07 063d fd99 663e 38f1 de3d 0683 bf3d
00000170: 0566 d6bd abcf 4c3c 6817 1b3e 3ac5 f43b
00000180: 233e f23d 8c99 84bd c5a9 c4bd 26a6 2e3c
00000190: 5ebe 0fbd 3ae6 d4bd 847a bebd e692 de3d
000001a0: 3d7e 14be 29cc 23be 1cb6 fcbd fd55 cb3d
000001b0: a361 1c3e ed39 6e3d 0807 6abd 9ea2 d63d
000001c0: 1c2d e73d 9f70 3a3e daae ee3d fbfa 483b
000001d0: 9691 20bd 65cd b3bd 8889 133d 9b43 2dbe
000001e0: 1a23 aabc b7b6 cf3d 2c02 543c 8575 3e3e
000001f0: 0186 093e 194b 15be 7b23 663d c10e 8cbd
00000200: 41a7 ec3d b772 103e 05c9 7dbd 1e9e c23b
00000210: a9c1 b03d 606a 0d3d cf04 ccbd abf5 073e
00000220: 7a03 1ebe 6705 30be 0e89 9b3d 8b34 383d
00000230: 87f1 fbbd f4bd 983d 268e b03d b8ff 583c
00000240: 7a40 a4bd 4473 80bb 4455 abbc 7fb1 cabd
00000250: 11c5 d2bd 0108 3b3e bc7c ba3d 8176 813c
00000260: e858 de3d 6b95 79bd 3dc6 8dbd 477c b3ba
00000270: 6595 9abd 644b c23d 96f2 e4bd 2df4 793d
00000280: fcfe 163e 547b 0abd 760d 8e3d ef63 943c
00000290: 5a54 0cbe d597 0b3d beee 39be b3d5 f83d
000002a0: b24e bbbd 3afe 75bd 9bf3 c83c 28ea 96bd
000002b0: 3233 ddbd 7cc8 043e 8d68 4f3e dc84 a53d
000002c0: 0d0b 3a3d cd1e a03d f179 d5bd 8f50 8a3b
000002d0: 303a 47bd e01b 393e f3cc 4d3d a5b6 0ebe
000002e0: 0331 663d 9d83 f5bb 88c6 14be 90bd a43d
000002f0: b4cb 053e 7a99 dc3d a4be fe3d 7995 7cbd
00000300: 8c41 2dbd 93d4 c1bd f51c 2abe b093 003e
00000310: a638 0a3d 8c18 20be 384c 11be 1e56 cb3d
00000320: f08b 0cbe 314b 03be 9090 dbbd 485f cebd
00000330: 7e83 693d 7666 443d e315 4d3c 0227 10be
00000340: c7ab 9bbd cc03 2cbd 394c 863d 0754 f63d
00000350: cd3c 40be d3b5 513c a106 08be a35e 76bd
00000360: 2d48 753d 458c 1f3d 90b6 c2bd ae85 063e
00000370: 49d4 99bd 51e9 50bd b3af 483d 61a0 423d
00000380: 79eb bbbd 91ed 06be e49e 93bc 361a 303d
00000390: d15a 1b3e ffa3 1a3e ff00 1d3e 17f9 093e
000003a0: 8508 943d 9411 223d 43d2 b5bd f1e0 893d
000003b0: ca58 c03b 014f f53d 1fa7 8abd 8519 ef3d
000003c0: fc22 9bbd 1351 943d 820e 203d 17e4 4fbe
000003d0: a872 e2bd 69bd fa3d 7937 233e fd6a bb3c
000003e0: 0c6c 3b3e 9362 cbbc ef86 fbbd d9bb 55be
000003f0: dd1c 45bd f68c 3b3e 41d5 6c3c d355 12be
-0.030229742 0.10517111 0.0545599 0.18361439 0.14548077 -0.09201366 0.0032416275 0.16889693
0.19948635 -0.060444564 -0.07820166 -0.10041031 -0.10096204 -0.044736207 -0.07461774 -0.024955442
-0.121209785 0.09600863 0.15507439 0.00763124 -0.08820131 0.017990207 -0.025413677 0.10545768
0.18390964 0.090314195 0.10156052 -0.09967989 0.10023745 -0.020930015 -0.065775506 -0.047664344
0.010967972 0.04904821 0.03633176 -0.037656493 0.042574327 -0.15416692 0.004887455 -0.12885557
0.005134942 -0.051962756 0.011016249 0.13198464 -0.13815579 -0.004699927 -0.12948337 -0.21873873
0.12146989 -0.03658176 -0.13936219 -0.09611387 -0.1638631 0.13324928 0.15605833 -0.052305765
-0.050724965 -0.13194409 -0.095167376 -0.11239552 -0.10706915 0.012472843 9.449664e-05 -0.13587724
0.019338025 -0.07663835 -0.0029457675 0.1891817 0.093180574 0.03950094 0.06472021 0.03765061
-0.10542744 0.19296466 -0.17076932 0.042838477 -0.09307918 -0.16617262 0.18273205 -0.034497496
-0.00059263094 -0.04747692 0.08439015 0.20782344 0.035132065 -0.06702006 0.06791954 0.077405654
0.032721754 0.2251968 0.108858526 0.093511626 -0.104686774 0.012500684 0.15145648 0.0074698003
0.11828258 -0.06474599 -0.096026935 0.01065973 -0.035093658 -0.10395475 -0.09300712 0.108678624
-0.14501281 -0.1599585 -0.12339422 0.0992851 0.1527162 0.05816071 -0.05713561 0.104802355
0.11287901 0.18207024 0.11654444 0.0030667174 -0.03920134 -0.0877941 0.036019832 -0.1692032
-0.02076869 0.10142272 0.012939971 0.18599518 0.13430025 -0.14579429 0.05618618 -0.068387516
0.11555339 0.1410626 -0.061959285 0.005939259 0.08630688 0.034525275 -0.09961855 0.13277309
-0.15431014 -0.17189561 0.075945005 0.044971984 -0.12301927 0.07458106 0.08620863 0.013244562
-0.080201104 -0.0039199907 -0.020914681 -0.09897136 -0.10291494 0.18264772 0.091058224 0.015803577
0.10856801 -0.06093351 -0.069225766 -0.0013693654 -0.07548026 0.09487036 -0.11179082 0.06102388
0.14745706 -0.03380902 0.06936161 0.018114058 -0.13704053 0.034080345 -0.18157479 0.12150135
-0.09145869 -0.060056902 0.024530223 -0.073688805 -0.1080078 0.12967104 0.20254727 0.080819815
0.045420695 0.07818375 -0.10423649 0.004221029 -0.048639476 0.1807704 0.050244283 -0.13936861
0.056199085 -0.007492496 -0.14528859 0.08043969 0.13065988 0.10771461 0.124387056 -0.061665986
-0.04229884 -0.094643734 -0.16612609 0.12556338 0.03374543 -0.15634364 -0.14189231 0.09928535
-0.13725257 -0.12821652 -0.107209325 -0.10076767 0.057010166 0.047949277 0.012517425 -0.1407738
-0.07601123 -0.04199581 0.06557507 0.12027746 -0.18773194 0.012799698 -0.13283779 -0.060148846
0.059883285 0.03895213 -0.09507477 0.13136932 -0.07511193 -0.051003758 0.048995685 0.04751623
-0.09175772 -0.13176562 -0.0180201 0.042993747 0.15171362 0.15101622 0.15332411 0.13473926
0.072281875 0.039567545 -0.08877995 0.06732357 0.0058699595 0.119779594 -0.06770157 0.11674789
-0.07575032 0.07242026 0.039076336 -0.20301853 -0.11057025 0.12243158 0.1593913 0.022878164
0.18302935 -0.024827277 -0.12281596 -0.2087244 -0.04812323 0.18315491 0.014455141 -0.14290552

4.bias f4 [64]
00000000: 9364 26bb 654b 84bc 0336 c2ba 9012 1ebc
00000010: c5b6 51bc bde9 263c daba 3abc b33f c1bb
00000020: d8cf 80bc 60cd ecbb fe3a 56bc 3026 57bb
00000030: 6f90 e63b 214d 61bc 921c 8dbb 8b8b e9bb
00000040: f980 703c a263 45bc 81a0 b3ba 24ba 58bc
00000050: b1a8 e53b a0cb 89bc 1476 973b 3f76 4cbc
00000060: 165e 893c c7af 5d3c e873 963c 47e9 8b3c
00000070: 7fde de3b 9931 393c 1b61 2b3c 4db7 8abc
00000080: 451c 113b 5a54 103c 04aa 4fbc 8f91 5f3c
00000090: 2420 003c 6598 373c 73e2 913c 216d 873c
000000a0: 83fc dd3a c513 d73b 01e6 b13a 7aa9 9c3c
000000b0: d609 3cbc bced e93b 43b8 7ebc 33f9 a63c
000000c0: 2002 0e3c 64d0 923b 0f5c 4c3c 97c9 163c
000000d0: 3ebb 453b 47bd 903b d7dd faba c4a6 86bb
000000e0: 9666 783b 6a1b 8b3c cb38 21bc 414a 4a3c
000000f0: e2ab 13ba 03fe b23b 4a2f 80bc 3372 1abc
-0.0025389537 -0.016149232 -0.0014817122 -0.00964798 -0.012799923 0.0101875635 -0.011397088 -0.005897486
-0.015724108 -0.007226631 -0.013075588 -0.0032829158 0.007036261 -0.013751299 -0.0043063844 -0.0071272305
0.014679187 -0.01204768 -0.001370445 -0.013227973 0.007008635 -0.016820729 0.0046222303 -0.012479364
0.016768496 0.013530678 0.018365815 0.017079009 0.006801426 0.011303329 0.0104601635 -0.016933108
0.0022142094 0.0088091735 -0.012674812 0.013645544 0.007820163 0.011205767 0.017808175 0.016531529
0.0016936216 0.006563636 0.0013572575 0.019123781 -0.011476954 0.007138936 -0.015546861 0.0203825
0.008667499 0.0044804085 0.01247312 0.009203336 0.003017142 0.004417095 -0.00191396 -0.0041092355
0.0037902943 0.016980845 -0.009840201 0.012346805 -0.00056332175 0.0054624095 -0.01564755 -0.009426641

5.weight f4 [64]
00000000: 696a 6f3f b0b6 843f aee0 7d3f 397d 853f
00000010: f140 6d3f b399 7a3f 2751 7d3f 0e41 7f3f
00000020: d6af 7d3f 3a1c 753f 81a6 763f 74eb 763f
00000030: b087 853f 0ad1 7d3f e3b5 7e3f 9528 7b3f
00000040: 399c 823f 68e4 713f 47ca 753f 60a9 793f
00000050: 42d3 783f b53a 8a3f 1b07 7a3f 57c8 7e3f
00000060: 5f4f 753f b32d 843f 4c9f 773f ee96 8a3f
00000070: 8143 743f 38ed 843f 598a 733f 7669 803f
00000080: 329b 703f 7b10 7d3f 23c0 923f 7def 8c3f
00000090: 7869 833f f996 723f 2d52 753f 19c1 7c3f
000000a0: 50c4 783f 669b 703f 48d2 873f 7e5f 753f
000000b0: f9f7 6e3f 6925 803f cf02 953f 970b 963f
000000c0: 9ebe 773f 0ab6 6b3f ab42 6b3f 572b 703f
000000d0: 1aed 7b3f 8cc8 763f 496f 7d3f 9d0f 793f
000000e0: 58d7 753f f13e 7a3f 7c58 703f df88 7c3f
000000f0: 9088 7d3f 482e 903f 7218 663f 3cbb 6b3f
0.93521744 1.0368252 0.9917096 1.042884 0.9267722 0.97890776 0.98951954 0.9970864
0.9909643 0.95746195 0.96347815 0.9645302 1.0432034 0.99147093 0.9949629 0.981088
1.0203925 0.94489145 0.96011776 0.9752407 0.97197354 1.0799166 0.9766709 0.99524444
0.95824236 1.0326446 0.9672744 1.082731 0.954155 1.0384893 0.95132977 1.0032184
0.9398681 0.9885327 1.1464885 1.1010586 1.0266562 0.94761616 0.95828515 0.98732144
0.9717455 0.9398712 1.0611048 0.95848835 0.93347126 1.0011417 1.1641482 1.1722287
0.96775234 0.92074645 0.918986 0.9381613 0.98408663 0.9639976 0.9899793 0.9728945
0.96031713 0.9775229 0.93885016 0.9864635 0.990365 1.1264124 0.8988105 0.9208257

5.bias f4 [64]
00000000: a72c 10bd cf94 163e 8cab d83b 3775 6739
00000010: a878 55bd 768e 9fbd 791a cd3c e536 4a3d
00000020: cb1d 0f3d 5891 d9bb fa16 93bd b893 42bd
00000030: 3c4c 643c cf1b 663d 9118 0d3d 123f 80bd
00000040: 709f 66bc 6b26 b2bc c3dd 833b 29e0 afbc
00000050: 8c2c bebc 188d 513d beca 123d 60d9 163b
00000060: 6857 17bd 7227 2239 abde 59bc de2a 643d
00000070: fcbb 03bd 6ae8 633c 1311 d1bb fbf9 2fbc
00000080: da1e 97bd 2243 393c fb97 bd3d 42ee 02be
00000090: aa10 d1bc f012 fd3c 829c 0bbd 0f5d 1f3d
000000a0: 9d44 6dbd 8d53 1dbc fdca 513c 4d3c a9bd
000000b0: d6c2 56bd 3a76 a2bc a9a4 67bd 9067 013d
000000c0: 3cb6 463c c0d4 47bd 7006 20bd d35f d7bc
000000d0: 4d9d b13c 4e0c 063c 6b3a 6b3a 4606 3c3c
000000e0: 75ae 12bd 0144 153c 09bb 80bc 0e67 0cbd
000000f0: 3c1b d139 3d50 fa3d d680 8bbd 916e 33bd
-0.035198834 0.14705203 0.006612247 0.00022073543 -0.05211702 -0.07790844 0.025037037 0.049368758
0.034940522 -0.006639641 -0.07182117 -0.047504157 0.013934191 0.056178864 0.034447256 -0.0626203
-0.014076099 -0.021746835 0.004024239 -0.021469193 -0.023214601 0.051159948 0.03583788 0.002301775
-0.03694859 0.00015464218 -0.013297717 0.055704944 -0.032161698 0.013910392 -0.0063802092 -0.010740752
-0.07378931 0.01130751 0.092575036 -0.127862 -0.025520641 0.03089282 -0.034084804 0.038907107
-0.057926763 -0.00960244 0.012804744 -0.082634546 -0.052431904 -0.019831765 -0.056553517 0.031592906
0.012128409 -0.04878688 -0.03906864 -0.02629081 0.021681452 0.008181645 0.00089732435 0.011476105
-0.035810906 0.009110452 -0.015714185 -0.034277968 0.00039883878 0.122223355 -0.06811683 -0.043806616

5.running_mean f4 [64]
00000000: b734 223e 2863 e0be 57ad ab3e 1f05 453d
00000010: 8403 5c3c c85a 2b3e 959c b5be 6c7e 303e
00000020: e827 26bd fb77 493d 9831 2fbe bd80 c33d
00000030: 8247 bdbd d517 0cbf 32f5 6d3d e5bd 1ebd
00000040: 95e9 37be d68e f8bd 307b 2a3e 559d 91bd
00000050: 27bc 013c 1bf9 e13d 47e5 dbbe b6e5 f6bc
00000060: e88f 45be b7f8 8dbe b411 853d 1c21 c33e
00000070: 68a9 58bd 483d 5f3e 77f6 b53d 780c 9d3d
00000080: 9079 5dbe b7e9 863e c7a7 3b3e 4b7a 323e
00000090: 4859 72bd ea31 72bd d60b 173d 1e3b 283e
000000a0: 3ac2 053d aca5 a6bd 3784 a9be e5fb 86be
000000b0: 473a 023d 1df4 3b3e 9248 5e3e d594 03bc
000000c0: d7c5 5cbd ac91 01be eee8 29be 3174 1abe
000000d0: 516b 3fbe 8e9c 51be bc42 c83d fa73 d3bd
000000e0: 1036 003e 20d4 88be a2ba 9dbd 22d1 ca3d
000000f0: 162e 543e 4c3c 823e 625f a93e 32cc d83d
0.15840422 -0.4382565 0.33530685 0.048100587 0.013428573 0.16733849 -0.35471025 0.17235726
-0.0405654 0.049186688 -0.17108762 0.09546039 -0.09242155 -0.54723865 0.058095165 -0.038755316
-0.17960198 -0.12136619 0.16648555 -0.07110087 0.007918394 0.11033841 -0.42948362 -0.030138832
-0.19293177 -0.27728817 0.06497517 0.38111198 -0.052895933 0.2180072 0.088849 0.07668394
-0.21628404 0.26350185 0.1832572 0.17429464 -0.059167176 -0.059129633 0.036876522 0.16428801
0.032655932 -0.08137068 -0.33108684 -0.26364055 0.03179386 0.1835484 0.21707371 -0.00803109
-0.053899612 -0.12653226 -0.16592762 -0.15083386 -0.18693282 -0.20469877 0.097783536 -0.10324855
0.12520623 -0.2672434 -0.07701613 0.0990317 0.20720705 0.25436628 0.33080584 0.10585822

5.running_var f4 [64]
00000000: b3b2 b33e 9e88 6d3e 6d76 6f3e 004a 883e
00000010: bb41 153e bb08 f93d 0149 c93d dfb1 5c3e
00000020: c623 2e3e a812 223e 5da0 7d3e 73ce cc3d
00000030: 70af 2c3e 50f8 273e 4d26 373e f41a 823e
00000040: 1c07 563e 1358 153e 690f f33d 6255 9d3d
00000050: 0076 6a3e 3f97 0d3e 50fa 7d3e 7bba 7b3e
00000060: 834a af3e 29a6 853e 00b7 0f3e 5bde 7c3e
00000070: 69ac f33d 2c9d 0a3e 30c9 803e dbb1 373e
00000080: 1d2d 263e 0cd4 b93d e9f2 743e db7b 163e
00000090: 1a1d 363e aa6f 7d3e 40ab da3d 8f63 503e
000000a0: ea49 db3d f3d7 503e 24c5 a73d 05a5 043e
000000b0: c205 773e 479b a93d 1b71 6a3e a678 6f3e
000000c0: 3d91 203e e035 113e 9e00 433e 624a 033e
000000d0: fa4f 863d 45c4 223e ce31 003e 2ecb 443e
000000e0: f3a2 e13d 1d32 773e e178 1b3e 61df 973e
000000f0: 5d79 453e a74d 5f3e 7f51 f03d 4d74 223e
0.35097274 0.23196647 0.2338502 0.26618958 0.14575855 0.12159868 0.098283775 0.21552227
0.17005834 0.1582743 0.24768205 0.100003146 0.16863799 0.16403317 0.17885704 0.2541119
0.2090115 0.14584379 0.11868174 0.07682301 0.22896576 0.13827227 0.24802518 0.24582855
0.34236535 0.26103333 0.14034653 0.24694197 0.11898119 0.13536519 0.25153494 0.1793894
0.16228147 0.09073648 0.23920788 0.14695685 0.17784539 0.24749628 0.106771946 0.20350479
0.10707457 0.20394878 0.081918985 0.12953575 0.2412329 0.0828157 0.22894709 0.23385867
0.15680404 0.14180708 0.19043204 0.12821344 0.06558223 0.15895183 0.12518999 0.19218132
0.11017408 0.2414021 0.1518283 0.29662612 0.19284578 0.21806966 0.11734294 0.15864678

7.weight f4 [128, 64]
00000000: 7b29 b8bc 34da 1fbd 7b36 8bbd 4f9f 873c
00000010: ad58 353c d2e3 90bd a252 ee3d 37da 14bd
00000020: e496 adbd a6ac 0f3e 29ff c63d aa29 27bd
00000030: e338 b7bd f4e1 94bb a0f9 bfbc b4c5 573d
00000040: 35a8 f33d 715f 833d 1880 fe3c 3b80 c1bd
00000050: 8a41 57bd ab17 033d 0ea1 7c3d ffb7 853d
00000060: e21f 8c3d b202 013e 15ef 04be 20bb ae3d
00000070: 8c4f cc3d d97c 3d3d ddcd 353d dbfc e2bb
00000080: c8e0 923d 1277 6ebc 4a29 06bd b9d7 23bd
00000090: cbc4 67bc 16ba f2bb 6b37 b33d 83f7 e1bd
000000a0: ed10 5e3d ce5b c53c 8b3d 0d3d 4406 d3bd
000000b0: f39f 6fbd 3620 f5bd ac2b dfbc 3db0 043e
000000c0: 523d 93bc f822 1cbd 35c6 b3bd f422 f9bc
000000d0: 4547 593d 5026 ecbd 9849 693d 75a5 09be
000000e0: 1604 1fbd 13b6 56bc cd73 d03d a059 6f3c
000000f0: b888 9c3d e73b 25bd 6e7b aabd 87ee 08bd
00000100: 1ee9 66bd e4d1 933d 4ce0 9b3d e306 063e
00000110: 595d 5a3c 5b56 4e3d 182d 15bd 9a16 02be
00000120: 7ced 3fbd b6f1 6cbc 5dc1 373d 92aa b83d
00000130: 0462 73bc 9b8c babd 209b a3bd 61d9 6dbd
00000140: ea79 b9bd 4de8 c4bc 679a df3c 697c e1bd
00000150: 0ad9 24bc 480a 2a3d 2b24 c03d e00c 48bc
00000160: 6514 ba3d 6d5f a4bd f284 6bbd a8b9 ad3d
00000170: 25af 1bbd 890d ac3d b289 973d 7375 ba3d
00000180: edd7 0dbc ef81 133e 9357 d2bc f7ad 66bc
00000190: a8f3 d0bc c0eb 5e3d 5c51 e0bd 367d 1b3e
000001a0: 8a5e 933d ec07 efbd c769 f7bd 4b11 3abc
000001b0: 0bc6 d1bc c66b 3bbc a053 6dbd 7a2b f43d
000001c0: 709e 9c3d 6fef 123d 2c1b 35bd 8491 02bd
000001d0: 7913 0abd b950 993d 092c a1bc 3ae8 c73c
000001e0: 3b91 0f3e ba48 80bc b550 17bd 4448 063e
000001f0: 9c30 913d c3b5 e03d dedf a33c 8d98 f73c
00000200: 0419 c4bc 25a7 cfbd 6994 0bbe df92 2fbd
00000210: ca90 383c 382d 44bd 270c e0bd d6a4 69bd
00000220: a278 16be 1831 873d 5bb3 c33c c3c2 aa3c
00000230: c716 173b 3ab6 5dbd f49e d83c af4e 083e
00000240: 57bb bf3d 053d a9bd 4c77 47ba f975 c83d
00000250: 45fd 31bd 2da8 31bd 4fa7 06bd 8db6 9cbc
00000260: 843b 593d 9321 e83d 6ab9 97bd 1829 f23c
00000270: f3db eabd 7b85 ba3d d1db e9bc 3622 083d
00000280: b833 913c bf6d 5dbd 18f9 073d de8c 103c
00000290: 4b73 943d e759 0bbd 28d6 67bd 568b a23c
000002a0: eb63 083e 8a59 bdbc c26b da3b 38ab 2bbd
000002b0: a14c eb3d 62d8 f53d df07 8e3b bcab a3bd
000002c0: 43ab de3c 68b0 a1bd 16ce d83d 63cd ebbd
000002d0: 20b0 f03c 132c 07bd bc1f 8ebd e476 04bc
000002e0: ff25 003d 9358 b5bc b5d1 73bb f71c ebbd
000002f0: f66b d4bd a5a8 babd 2d69 36bd 4b84 7cbd
00000300: 8f60 8f3d 16ca fcbd cea9 20bd 5a32 393b
00000310: 0cc3 cdbd b786 493d d9ea 85bd af5a 0c3d
00000320: 83c1 dabc 106c 50bd d227 d23d 8404 373d
00000330: 2957 67bd e4c7 eebd 5f9b f3bd e086 9e3b
00000340: 8a65 373d ad01 b3bd 1553 a63d 3cab c9bd
00000350: b972 e73c 9dc4 a93c 6bb4 43bd d9f0 753d
00000360: 0a1a f6bd 334d 933d f1f0 733d 1cb5 cbbd
00000370: 31c2 8d3d 2c30 cdba 036c d4bd aba4 0abc
00000380: 3720 c53c c656 f6bd 888b a33d 2b6a b33c
00000390: 32ee 45bd 88ad 92bd 11a7 f6bc ca62 bc3d
000003a0: 0ea2 053e 5bff d1bd f4f5 fe3a c2e5 bebd
000003b0: 43dc edbd ae24 17bd 6b5d c93b 8160 323d
000003c0: 6831 81bd 6353 bb3d b354 a9bd 4dd0 5a3d
000003d0: e8f8 c4bd 0436 a93c 26e2 1abd 11b6 d13d
000003e0: f12c 09be b6ea a83d ba5b 15bb 9759 ec3b
000003f0: 6338 763d 822e f2bd 2253 b03d 93fc e5bd
-0.022480717 -0.039026454 -0.06797501 0.016555456 0.011068505 -0.07074703 0.11636855 -0.03634092
-0.08476046 0.14030704 0.09716637 -0.04081122 -0.08946397 -0.0045435373 -0.02343446 0.05267878
0.11897317 0.064146884 0.03106694 -0.09448286 -0.052552737 0.032004993 0.06167703 0.06529235
0.06842019 0.12598684 -0.12981828 0.08531785 0.0997611 0.046261642 0.04438578 -0.0069271154
0.0717178 -0.014554756 -0.03275422 -0.04000065 -0.01414604 -0.007407437 0.087508045 -0.11033537
0.05421536 0.024091627 0.03448252 -0.103039294 -0.05850215 -0.119690344 -0.027242504 0.12957855
-0.017973576 -0.038119286 -0.08778039 -0.030412175 0.053046484 -0.11530745 0.05695495 -0.13442023
-0.038822256 -0.013104933 0.10178337 0.014608771 0.076432645 -0.04034033 -0.083243236 -0.033430602
-0.05637466 0.07217768 0.076111406 0.13088565 0.01332792 0.050375324 -0.036419958 -0.12703934
-0.046857342 -0.014461925 0.04486214 0.09016909 -0.014854912 -0.091088496 -0.07988572 -0.058068637
-0.090564564 -0.02403655 0.027295304 -0.110100575 -0.010061512 0.04151371 0.093818985 -0.012210101
0.09085921 -0.080260135 -0.057499833 0.08482677 -0.038008828 0.08401019 0.0739931 0.09104433
-0.008657438 0.14405034 -0.025676524 -0.014079562 -0.02550681 0.054424047 -0.10953018 0.15184483
0.07195766 -0.11671433 -0.12080722 -0.011356662 -0.02560713 -0.011439269 -0.05794108 0.11922355
0.07647407 0.035872873 -0.044215366 -0.031877056 -0.033709977 0.074861 -0.019674318 0.024402726
0.14020245 -0.015659679 -0.036942203 0.13113505 0.0708935 0.10972168 0.02000421 0.030224109
-0.02393771 -0.10139302 -0.13630833 -0.042864677 0.011264989 -0.047894686 -0.10939818 -0.057041965
-0.14694455 0.06601161 0.023889234 0.020844823 0.0023054348 -0.054128863 0.026442982 0.13311265
0.09361904 -0.08263592 -0.0007609024 0.097881265 -0.043454427 -0.043373276 -0.0328744 -0.019130016
0.053035274 0.11334529 -0.07408412 0.02956061 -0.11467733 0.09107491 -0.0285472 0.03323575
0.017724857 -0.05405974 0.03319654 0.008822648 0.07248553 -0.034021284 -0.05660072 0.019841831
0.13319366 -0.023113985 0.0066656778 -0.041911334 0.11489225 0.12004162 0.0043344344 -0.0799174
0.027181273 -0.07894975 0.10586183 -0.11513784 0.029380858 -0.033001017 -0.069396466 -0.008084986
0.031286236 -0.022136962 -0.0037203853 -0.11480134 -0.103721544 -0.09114198 -0.044533897 -0.061649602
0.07000839 -0.12343232 -0.03922444 0.0028258772 -0.10046968 0.04920074 -0.06538934 0.03426617
-0.026703602 -0.050884306 0.10261501 0.04468204 -0.056479607 -0.1165922 -0.11894869 0.0048378557
0.04477457 -0.08740554 0.081213154 -0.098471135 0.028252946 0.020723635 -0.04777948 0.060044143
-0.12016685 0.07192459 0.05955595 -0.09946653 0.06921805 -0.0015654615 -0.10372164 -0.008462111
0.024063213 -0.120282695 0.07985598 0.02190121 -0.048322864 -0.07162005 -0.03010896 0.0919853
0.130501 -0.10253783 0.0019451962 -0.093211666 -0.11614277 -0.036900215 0.0061451695 0.043549065
-0.063082516 0.09146764 -0.08268108 0.053421307 -0.096177876 0.02065564 -0.03781333 0.102398045
-0.1339605 0.082478926 -0.002279027 0.0072128284 0.06011237 -0.11825277 0.08609606 -0.11229815

7.bias f4 [128]
00000000: e555 91bb 5016 ec3a 9369 e13b 869a afbb
00000010: 35ef 523c 5405 27bb 9f43 3a3c 53eb 0e3c
00000020: 564a 093c 48fc ee3b 076c 93bb 9338 47bc
00000030: ee80 533c e21d 0cba a251 dabb 7792 683b
00000040: d173 ef3b 9061 a9ba 93a0 05bc cf59 c83a
00000050: 3a70 3f3b 29f4 e6bb 883b 1d3c f6bf 98b9
00000060: 825e 303c 10ca 053c e27f acbb 56f7 4f3c
00000070: 9488 8f3b e252 d63b 5c26 703b ff1f 523b
00000080: 29c6 3c3c 4435 0fba 498a 14bc a8e6 e0bb
00000090: 53e7 0abc 5d39 3b3c 8401 60bb 4895 413c
000000a0: 2e43 123b 5a7a 4e3c b935 273c e9f8 65bb
000000b0: e7bc 10bc d9f1 20ba b1de fe3b 0b55 2a3c
000000c0: 07da 10bc 0081 43bc f84c 4b3c a995 e2bb
000000d0: cb4a 30bc 9328 7bba 2500 1bbc acae f3ba
000000e0: 12d2 06bc 5daf 4dba 0475 06bc d1fd 3a3c
000000f0: 23c3 80bb 1b37 1dba 21f4 403c 0dd0 3bbc
00000100: 8e6e 93ba fda8 79bb dae6 ad3a 742c 43b8
00000110: e20e 293c 7533 1b3c d0f0 883a 62c2 58bc
00000120: bfb7 bc3b ea34 a0bb f333 57bc 3e13 00bc
00000130: 3ece 553c 5fbc 143c a7d8 b6ba df9a 03bc
00000140: ad88 7d3a 9d32 1bbc 8c9e ea3b 5ef5 db3a
00000150: f556 40bc 4a2e 4b3c 4c33 3a3c 8baa 92bb
00000160: 552a 9439 1b75 5cbc e7e2 2eb9 92b7 83bb
00000170: 628b 433c c228 3c3c a1ed 273c 383b ec3b
00000180: adbb 99bb 068c 4fba ad3e 913b e41f c13b
00000190: 4ecb 48ba d4b2 c53b bf2e 0e3b 3bba 893b
000001a0: 6344 283c 0327 1fbc 0ad2 b93b ffe5 ce3a
000001b0: 7500 ccbb fa80 2cbc 1660 b33b aa82 7a3a
000001c0: 457c 3abc 5599 b0bb fe88 c53a c962 833b
000001d0: dd22 e03b c972 ad3b befb 5bbc 84af 9aba
000001e0: cae9 3a3c 6478 1a3c 511e 63ba d6c0 8a3b
000001f0: 8786 6bb8 c067 3abc 57dc 863b 2f17 a23a
-0.0044352883 0.0018012021 0.0068790405 -0.005358997 0.012874414 -0.0025485354 0.011368661 0.008723098
0.0083795395 0.007293258 -0.004498962 -0.012159484 0.012909157 -0.0005345029 -0.0066625634 0.003548769
0.0073075076 -0.0012922753 -0.00815596 0.0015285554 0.002921118 -0.007048149 0.009596713 -0.0002913472
0.01076472 0.008165851 -0.0052642683 0.012693247 0.004380295 0.006540642 0.0036643958 0.0032062528
0.011521854 -0.0005462954 -0.009066173 -0.006863434 -0.008478004 0.011427251 -0.003418059 0.011815377
0.0022317874 0.012602413 0.01020568 -0.003509099 -0.0088341 -0.0006139554 0.0077780117 0.010396252
-0.008841044 -0.011932611 0.0124084875 -0.0069148135 -0.0107600195 -0.0009580936 -0.009460484 -0.0018591485
-0.008228796 -0.00078462606 -0.00820661 0.011413054 -0.003929512 -0.0005997286 0.011776955 -0.011463177
-0.0011248158 -0.003809511 0.0013267652 -4.6533023e-05 0.01031849 0.0094727175 0.0010447744 -0.013229938
0.005759209 -0.0048891203 -0.013134944 -0.007817088 0.01304966 0.009078114 -0.0013950065 -0.00803253
0.00096715504 -0.009472516 0.0071600135 0.0016781499 -0.011739482 0.012401173 0.011364769 -0.0044758967
0.000282603 -0.0134556545 -0.00016678461 -0.004019686 0.011935087 0.011484327 0.010249526 0.007209208
-0.004691562 -0.00079172885 0.0044325204 0.0058936942 -0.0007659689 0.006033281 0.0021695343 0.0042031086
0.010270211 -0.009713891 0.0056707906 0.0015785097 -0.0062256404 -0.010528797 0.005474101 0.00095562136
-0.011382167 -0.0053893724 0.0015070734 0.004009579 0.0068400935 0.0052932245 -0.013426719 -0.0011801575
0.011408279 0.009428117 -0.000866388 0.0042344136 -5.6153654e-05 -0.011377275 0.004115622 0.0012366528

8.weight f4 [128]
00000000: 99b2 733f 31ca 863f de00 753f 62ed 6c3f
00000010: 9cfa 7c3f d412 623f 24df 713f 714f 823f
00000020: be29 713f 6904 813f b56d 723f 8ff5 753f
00000030: 2b40 7b3f 70c6 853f df27 7a3f 28b6 743f
00000040: cb7b 763f b10a 8f3f e4f5 783f 7281 773f
00000050: 78b0 7b3f 2a89 883f 8950 853f 55df 8a3f
00000060: 74c8 793f 2362 823f 4925 8d3f b2aa 6e3f
00000070: 1de4 7c3f 3ea8 7d3f dca5 893f 27a9 833f
00000080: 9a4d 7e3f a7d9 813f 198b 823f 8105 753f
00000090: 057a 6f3f 9584 6d3f 9d29 853f c144 893f
000000a0: 1aa5 893f a5dd 813f 70c7 833f 5a37 7f3f
000000b0: c057 7a3f 8d4b 773f 3352 783f 78df 733f
000000c0: e39b 783f 308d 873f 97db 853f 7c36 803f
000000d0: d45a 6d3f 3281 873f 2020 7b3f 8c6d 7e3f
000000e0: 8aec 763f 61a0 853f 5a39 733f b640 773f
000000f0: 79f8 723f 5749 823f 94a9 803f d401 713f
00000100: ab7c 753f 6732 7f3f 07a6 813f cc74 673f
00000110: ee04 803f a3b3 673f 0d01 883f c7d1 8d3f
00000120: 509f 713f ecc4 823f 169a 853f 369c 753f
00000130: d6be 703f d0ab 6e3f 27dc 7d3f 4f15 733f
00000140: e838 723f bb4b 713f 11a3 663f e79f 763f
00000150: 6f80 7b3f 9a83 6c3f 7b85 873f 644d 883f
00000160: f61e 8f3f 2de2 723f e490 6a3f e83e 6f3f
00000170: 9baa 6f3f 9b66 853f ed93 7e3f 61c6 843f
00000180: 53a0 693f db7a 913f 54bc 773f ea47 7a3f
00000190: 81e1 853f f7da 873f c113 873f 8c3d 703f
000001a0: 3b75 8c3f 0f9b 723f d908 723f 1361 733f
000001b0: f3b9 813f ebc7 853f 9b66 733f fb09 663f
000001c0: 0bca 833f c2da 793f 2470 803f a1df 823f
000001d0: f951 8a3f 2c7c 653f eb07 863f 3441 753f
000001e0: d7ce 823f 0f13 723f 36a1 7e3f 3ad7 833f
000001f0: 02c7 803f 99fb 703f c34b 803f 793f 7f3f
0.95194393 1.0530454 0.9570445 0.9254972 0.988199 0.8830998 0.9448111 1.0180494
0.9420432 1.0079471 0.9469865 0.9607782 0.9814479 1.0451183 0.9771709 0.9559045
0.96282643 1.1175138 0.972502 0.9668189 0.98316145 1.0666859 1.0415202 1.0849406
0.9757149 1.0186199 1.1027004 0.9322921 0.98785573 0.9908484 1.0753741 1.0285996
0.9933716 1.0144547 1.0198699 0.95711523 0.9354556 0.9278043 1.0403324 1.0724107
1.075351 1.0145766 1.0295238 0.99693835 0.97790146 0.96599656 0.97000426 0.9526286
0.97112864 1.0589962 1.0457639 1.0016627 0.9271672 1.0586302 0.98095894 0.99385905
0.9645468 1.0439569 0.95009387 0.96583116 0.9491039 1.0178632 1.0051751 0.94143414
0.95893353 0.9968628 1.0128793 0.9041259 1.0001504 0.9050848 1.0625321 1.1079644
0.94383717 1.0216346 1.0437648 0.95941484 0.9404119 0.93230915 0.9916405 0.9495439
0.9461808 0.9425618 0.9009257 0.9633774 0.9824285 0.9238831 1.058761 1.0648618
1.1181324 0.94876367 0.91627336 0.9345536 0.936197 1.0421938 0.99444467 1.037304
0.9126026 1.1365618 0.9677174 0.9776598 1.0459443 1.0613698 1.0552903 0.93843913
1.0973276 0.9476785 0.9454475 0.9507 1.0134872 1.0451635 0.9507844 0.8985898
1.0296034 0.9759942 1.0034223 1.0224496 1.0806266 0.89642596 1.0471166 0.9580262
1.0219373 0.9456033 0.9946474 1.0300057 1.0060732 0.9413391 1.0023121 0.99706227

8.bias f4 [128]
00000000: 2b88 97bd da0c a03b ee7d 63bc 463c c1bc
00000010: 30cd d1bb f311 b8bd e5a4 78bc 7877 aabc
00000020: fdc1 50bd 747a adbd 8c8b 47bd fd58 45bd
00000030: 7e05 a4bd 16c2 4cbd 8ec4 e3bc 9892 9fbd
00000040: 357f bf3c d455 ec3c a81b 59bd a861 6bbd
00000050: d71d 92bd 7745 8f3d 871a 943c 8f55 823d
00000060: 4114 77bd 6291 1ebd d4b2 863d 535d 61bd
00000070: a760 4fbc 88a5 95bd b80d 73be 597d f3bd
00000080: 3f67 cebd 34ee 15be 461b fdbd fc60 56bd
00000090: 89ce 63bd 4a44 15bd c578 7abe 9b56 5f3d
000000a0: dee8 29be d0af f3bd ac6d 04bd a8b6 88bd
000000b0: 5544 47bd 32e6 a4bc bc05 43bd 9b92 a9bd
000000c0: 784c 16bc b5c1 053b 01cd 9a3d 9d7f 0abd
000000d0: 8a3b 6ebd 8d4d 66be 2dcd 43bc 7862 19bd
000000e0: d3c4 79bc eb77 0ebe 8890 fabc f731 2abd
000000f0: 71f3 d5bc 2c3f e1bc 88df dc3c 0a9d 03bd
00000100: 197b 41bd 733c fc3c d24a b8bd 3d86 8ebd
00000110: 71e3 483d d6a9 a9bd 545f 01be ce32 cf3d
00000120: ab7b 0cbd b2a9 553d 3c0a a7bd 33db 22bd
00000130: b51e 07bd a972 39bd 70da 6b3c 0e1c 0ebd
00000140: 7937 92bd 791c dabc 32f8 dcbd 5a27 12bd
00000150: 0c96 6bbd d253 7abd a34a 2bbe aba2 48bd
00000160: 34ed bb3d d091 5fbc 155d 34bd 9260 a8bc
00000170: ffc1 a9bc e5e8 0fbe 528d 17bd c769 3cbe
00000180: dfcd 35bd 478b 82be 7c6b c3bd f4f5 11bc
00000190: 4641 813d 4174 fd3c 180d 8c3d 9e29 35bd
000001a0: 93fe 673d 4f05 b2bd bc25 c3bc a6e5 9dbd
000001b0: 1abc b7bd c974 ebbd ec19 2abc fc7d 96bd
000001c0: 421e ffbd b12a 03be b7de b3bd d223 24bd
000001d0: 23c7 21be eb1d 7fbd 2253 08be a4e2 6abd
000001e0: c399 30bd 4450 71bd fbdd f1bc d695 0f3d
000001f0: bb6e 5abd 0a8f 6dbd 16a6 e13c 6730 64bd
-0.07399019 0.0048843445 -0.013885004 -0.02358831 -0.006402634 -0.089877985 -0.015176033 -0.02080892
-0.05096625 -0.08470622 -0.048717067 -0.04818057 -0.0800886 -0.049989782 -0.027803686 -0.077916324
0.023376087 0.02884952 -0.05300489 -0.05746618 -0.07134598 0.06995671 0.018079055 0.06363975
-0.06032205 -0.038712867 0.065770775 -0.05502064 -0.012657321 -0.07306963 -0.23735702 -0.118891425
-0.100782864 -0.14641649 -0.123587176 -0.052338585 -0.05561689 -0.03644208 -0.24460132 0.054525953
-0.16592738 -0.11898768 -0.032331154 -0.06675464 -0.04864915 -0.020129297 -0.04761289 -0.08279916
-0.009173505 0.0020409648 0.07558633 -0.033813108 -0.05816225 -0.22490521 -0.011950773 -0.037447423
-0.01524468 -0.13912933 -0.030586496 -0.041551556 -0.026117058 -0.027495943 0.026962057 -0.032132186
-0.047236536 0.030790543 -0.08998646 -0.06959198 0.04904503 -0.08284347 -0.12634021 0.10117112
-0.034297626 0.052163787 -0.08156249 -0.039759826 -0.03298827 -0.045275364 0.014395341 -0.034694724
-0.07139487 -0.026624905 -0.10789527 -0.03568206 -0.057516143 -0.061115094 -0.1672769 -0.048983257
0.09176102 -0.013645604 -0.044034082 -0.02055386 -0.020722387 -0.14053686 -0.037000008 -0.18399726
-0.044385787 -0.25496885 -0.095419854 -0.008908737 0.06311278 0.030939223 0.06838435 -0.044229142
0.056639265 -0.08692419 -0.023821704 -0.077098176 -0.089714244 -0.114968844 -0.010382157 -0.07348248
-0.12456943 -0.12809254 -0.08782714 -0.040073223 -0.15798621 -0.06228439 -0.13312963 -0.057345048
-0.04311539 -0.058914438 -0.029524794 0.035055004 -0.053328257 -0.05799774 0.027545016 -0.055710223

8.running_mean f4 [128]
00000000: c23c a13c 68fe 713e 4b83 75be a2b9 9dbe
00000010: 50e9 7cbe a9e2 b1be ac83 973d 07ab a43d
00000020: de29 a63e 6fd3 e43e 15d0 44be 127b b6be
00000030: 8232 473e fad5 483e a03a 43be da19 e33e
00000040: b970 acbe 6553 ddbe 00d8 633e ae70 173e
00000050: 9d57 ac3c 8d89 89be eef4 c3be 3d54 f7be
00000060: b03b 7bbe 0161 06be 7263 13bf 696e d03d
00000070: 5e84 f6be e46a c73e e1e8 d23e d4bc d73d
00000080: 37e3 a03e c826 b9bb 1b7b f73e 6dc7 b73d
00000090: 911b 20be fba7 a13d abab 3e3e 7ebc e0be
000000a0: 5df5 a63d 9b88 7abd 092c 283e ed45 cc3e
000000b0: 2d47 e73e 3236 02be b607 0fbf 3635 e43d
000000c0: 42ea 06be 4b8c 573c 6782 49be a8fb d53e
000000d0: 04d7 2abd 7c6f ef3d 65a9 763d cae4 783e
000000e0: 0e09 c8bd 40c0 9a3e 5373 443d aaec f83d
000000f0: a1ca 4dbd df22 393e c05f 6abe 9f26 15be
00000100: 9503 d3bc 3d90 a7be 3872 973e 3c28 643e
00000110: bfa9 53be e96e 8f3e 522b 7b3e 9a3a fabe
00000120: 9354 2ebe 0aaf b1be 7df3 8c3e 57c9 1d3d
00000130: 5878 9cbd 505c df3d a85b b9be 512c a4bd
00000140: 1d4a ba3e aeb8 683e 9b76 233e dd2c 343d
00000150: 9e3a 5c3e 447b 3e3e 4f7f d23c 9658 70bd
00000160: 20d5 febe 381d 053e 4dc7 363e d56b cebc
00000170: ef82 fcbd f6bb 453e b3ed a43d 1c21 b03e
00000180: 06d3 76be 37de 0a3e 22f0 233e bec0 17be
00000190: 9d01 19bf 0adf 23bf 8d55 dabe 0699 40bc
000001a0: 7331 1dbf 2272 f4ba 1305 33bd e3c0 923d
000001b0: 09a2 4ebd 045c 0e3f 781c c3be 9f20 3bbe
000001c0: ff89 7e3e 19c7 063e dc3c a03d d222 6d3e
000001d0: de4d 943d 29f0 3f3d 8ce2 643d 9394 9d3e
000001e0: 93c9 1e3e c720 6abd 72be 63be 68e1 13bf
000001f0: 0ec2 e43d 74fc 8b3d afa7 09bf 92da 543e
0.019682292 0.23632205 -0.23975866 -0.3080569 -0.24698377 -0.3474324 0.07398161 0.080404334
0.32453817 0.4469256 -0.19220002 -0.3564077 0.19452861 0.19612876 -0.19065332 0.4435566
-0.3367975 -0.43227687 0.22250366 0.14789078 0.021037871 -0.26862755 -0.38272804 -0.48306456
-0.24534488 -0.13122942 -0.57573617 0.10177309 -0.48147863 0.3894874 0.41193298 0.10534063
0.3142335 -0.005650375 0.4833611 0.08973584 -0.15635516 0.07893368 0.18620174 -0.43893808
0.08152268 -0.061165433 0.16423048 0.398971 0.4517149 -0.12715986 -0.5587114 0.11142962
-0.131753 0.013156007 -0.19678651 0.4179356 -0.04170896 0.11691186 0.06022014 0.24306026
-0.09767352 0.302248 0.047961544 0.12154515 -0.05024207 0.18079709 -0.22888088 -0.14565514
-0.025758544 -0.32727233 0.2957933 0.22280973 -0.20670222 0.28014305 0.24528244 -0.48872834
-0.1702445 -0.34703857 0.27529517 0.03852209 -0.07640141 0.10906279 -0.3620274 -0.08016265
0.3638467 0.227267 0.15963213 0.043988097 0.21506736 0.1860171 0.025695471 -0.058678232
-0.49771976 0.12999427 0.17849465 -0.025197903 -0.12329661 0.19309983 0.0805315 0.3440026
-0.24103937 0.1356133 0.16009572 -0.14819619 -0.59768087 -0.64012206 -0.42643395 -0.011755234
-0.6140358 -0.0018649737 -0.04370601 0.071656965 -0.050447498 0.55609155 -0.38107657 -0.18274163
0.24857329 0.13161887 0.07824108 0.23157814 0.072414145 0.046859894 0.055880114 0.30777416
0.15506582 -0.057160165 -0.22240618 -0.5776582 0.111698255 0.06835261 -0.5377149 0.20786503

8.running_var f4 [128]
00000000: 5033 a73e 1732 963e 5038 273e b4da 973e
00000010: b254 0e3f d222 b23e 7120 9a3e 3df0 963e
00000020: b23b 1f3e b316 9a3e e935 3c3e 390a 923e
00000030: d7b6 9f3e c41b 7c3e 5775 923e 84d2 823e
00000040: 5511 253f b7ff 623f 5107 5b3e beab b63e
00000050: 3baa a53e 3ca7 113f c385 c13e dc67 0b3f
00000060: ce49 303e e4a9 663e b430 073f dd93 f13e
00000070: 7fad 743e 1cdf 1f3f 9526 913e 480b f53e
00000080: dafc 293f a175 f43e ede2 193f 77a9 873e
00000090: 4139 893e a68a 973e 61f6 e83e a973 393f
000000a0: b659 a33e c283 1e3f 8f92 823e 3751 693e
000000b0: 307f 083e 25ce 803e ef08 c83e f3e3 c03e
000000c0: 12b4 0e3e 5d9b ad3e a28f f13e 04e0 963e
000000d0: ae29 323e ca74 a93e 89a2 a13e 2eba 6b3e
000000e0: 1414 4d3e 0dd9 3b3f 2c8b 043f c0e6 ac3e
000000f0: 4296 453e 0904 983e e093 293e 2e97 943e
00000100: 9c75 1a3e 5488 173f faec e03e 3b26 7a3e
00000110: 0c2e 303f c611 af3e 4178 cf3e 1ee0 723f
00000120: 2931 553e f606 203f aa8a d83e 8093 863e
00000130: 416e c63e f085 713e 58c6 023f b92a 473e
00000140: 2ad5 303e 9144 063e dcf5 333e ed92 853e
00000150: 4ab6 7b3e 5709 c33e a073 e63e fb6c c63e
00000160: 06b7 583f 5712 4f3e f5b5 953e 1787 653e
00000170: 964a a43e d1d6 fe3e b885 6f3e c08f 133f
00000180: 7082 1f3e db0a 7e3e 1ec9 b73e e705 103f
00000190: d0d2 ed3e a1a4 3f3f 3117 523f fc4e 3b3e
000001a0: 4d45 353f 1177 893e a5ed c43e ac21 a93e
000001b0: a557 c43e aacb 773e dcaa d13e 18eb 633e
000001c0: 8569 443f 0db1 2f3f 831a dd3e c111 fd3e
000001d0: 0a71 ae3e 2540 3a3e ff20 ce3e 2b6f f13e
000001e0: c2d2 743e 7fe4 503e 8d10 0e3e 3b5a 303f
000001f0: c752 063e 3804 623e fef5 ee3e 0f22 ab3e
0.32656336 0.2933509 0.16330075 0.29659045 0.55597985 0.3479219 0.30102876 0.29480162
0.15550116 0.30095443 0.1837994 0.28523424 0.31194183 0.24619967 0.28605148 0.25551236
0.6447957 0.8867144 0.2138951 0.35677904 0.32356438 0.56895804 0.37797365 0.5445535
0.17215654 0.22525746 0.5280869 0.47183123 0.23894309 0.6244981 0.28349748 0.4786017
0.66401446 0.47745994 0.60111886 0.2649648 0.26801494 0.29597968 0.45500472 0.7244211
0.31904382 0.61919796 0.2550244 0.22784887 0.13329768 0.25157276 0.39069316 0.3767391
0.13935879 0.33907595 0.47179896 0.29467785 0.17398712 0.33096915 0.31569317 0.2302024
0.2002719 0.7337807 0.5177486 0.33769798 0.192956 0.2969058 0.16560316 0.2902159
0.15083927 0.59192395 0.439308 0.24428646 0.6882026 0.34193248 0.40521434 0.94873226
0.20819534 0.6251062 0.42293292 0.2628441 0.38755992 0.2358625 0.510839 0.19449891
0.17268816 0.13112094 0.17574257 0.26088658 0.24581257 0.38093063 0.4501009 0.3875502
0.8465427 0.2022184 0.29240385 0.22414814 0.32088155 0.49773267 0.23390853 0.5764122
0.15577102 0.24808829 0.35895628 0.56259006 0.464499 0.7486058 0.8206664 0.18291849
0.7080887 0.26848653 0.38462558 0.33033502 0.38348117 0.24198785 0.40950668 0.2225765
0.7672351 0.68629533 0.4318429 0.49427608 0.34070617 0.18188532 0.4025955 0.47155127
0.23908523 0.20399664 0.13873501 0.6888768 0.13117515 0.22071922 0.46672052 0.33424422
