AEGAN/weights/discriminatorlatent 160 Epoch.pth (torch, 194876 bytes, 25 tensors)

1.weight f4 [32, 16]
00000000: d311 0dbd 9081 6ebe b082 b03d b400 d73d
00000010: d362 5e3e 7184 14be 9cb3 7e3e 5b20 34be
00000020: 1eb0 503e f1e3 25bd 410c 743c 1fd8 3a3e
00000030: 9992 2c3e f5b7 bebd 66e4 bebd 64bc 0abe
00000040: 9d92 90bd 8d84 6fbd a9cc 9bbe b26f 18be
00000050: f10e 663d 5bbb 153d 516d 963d 8e47 913c
00000060: 0927 5e3e 4cb3 0b3e 526b ffbc aa85 16be
00000070: 79d6 7abe 03fd 53be b4d6 3c3e ae25 68be
00000080: ca9c c53d cf06 5b3d 728e 66bd 4f8f 27be
00000090: 0fe7 c1bd 2c04 1c3e 6f66 5c3e d861 26be
000000a0: 32ff 0dbe d6e5 25be 1217 163e fc52 553e
000000b0: 3f60 81be a172 9e3c c01a 103e 79a0 4f3e
000000c0: 5a78 0f3e b008 5a3d 4789 f6bd 7727 b2bd
000000d0: ddbf 9a3b 5be9 283e 5987 9abc 6a62 ccbd
000000e0: 0362 2e3d 51d8 32be ff25 3fbe b038 d0bc
000000f0: a2b4 283e 3ae6 23be bd14 283e 43dc 083e
00000100: d383 fa3d d51a 4a3d 66f5 f93d 37d4 51be
00000110: e089 cf3d 73f6 12be 6767 be3d b340 a1bc
00000120: 1196 4b3e 1e63 a93d 87be 273e 23aa ac3c
00000130: 337f 21be 892e 9bbd 3050 1d3e 1f09 c6bd
00000140: 9d50 bebd 1ec0 ff3d 890e fe3d b158 23be
00000150: f73c 713e bec0 f1bd d289 0e3e 23b4 0a3e
00000160: 406b eabd fc33 a53d a684 343e 4dce 1b3d
00000170: f521 df3d 157f f23c 5e30 f73d 9af8 033d
00000180: aee6 30be a773 b93d 9b4f d13d fc84 e8bd
00000190: 2e2d 64bc 62c5 67be 05d5 313e 371c 813e
000001a0: 5973 0bbe b03f 893e 7f7b b03d f940 5dbd
000001b0: 5126 893d 7f91 afbd 25c8 313e e592 3e3d
000001c0: ffcd 0b3e 14bc 28be d625 66bd 7613 173e
000001d0: ac11 6a3e dfbf 023e 196a f03d f2db 2d3d
000001e0: daef abbd 54e7 203e f313 603e d449 abbe
000001f0: beb9 033d 00a0 d8bd 4d42 4c3e 889a 26be
00000200: 9d00 003d db6c 14be 6bc1 73bb 7318 93be
00000210: 6c81 c43d b94f 24be eda6 c4bd 4978 9ebd
00000220: 00ce c2be b808 083e 94c2 ef3d a925 483e
00000230: a24e 67bb baf1 82be 009d 0f3d 4f03 2abe
00000240: da32 bebc 907f d63d b875 7fbe af20 14be
00000250: 5cd0 8c3d a120 b7bb 4bcd 21be 344c 263e
00000260: daf5 4a3e 71bb 803d eb5b b83c ea5f 8d3d
00000270: cae8 693e 8de8 133d 9dc1 f93d 40d3 313e
00000280: 911e 10bd bc60 2e3e e689 f43d 6221 823d
00000290: 8e9b 86bd 313b d53d 127d 473e e43c 6d3e
000002a0: bb12 4ebd 0bc3 3d3e da12 8cbc a2ba 993d
000002b0: 7b75 8ebe 57c0 46be 8e7d 143d b41e 253e
000002c0: fa42 94be 0a44 1e3e 112c 34bd ea3c d93c
000002d0: cb55 00be 06bc 563d a6d1 783e 8b5a 6e3e
000002e0: ff6f 623d 0d16 22be 4791 033e 2a80 c53d
000002f0: d4cd 22be 83a0 48be 1d0d a33d e74b b2bd
00000300: 33b5 1fbe 4e07 ddbb 9467 93be e24a 253e
00000310: e4d1 30bd 76a5 d8bc b4d3 febc 6242 19bd
00000320: 8a47 8dbd bdec df3d aaf2 6d3e dc08 183e
00000330: 89c4 a3bc 5754 893d 7024 243e 43ca 853e
00000340: de56 19be 9ac5 0c3c 2291 583e 383c b0bc
00000350: 7d63 73be 2398 2b3d d02e d93c 9a08 473e
00000360: 9809 0c3e bb53 233d 8986 403d 0d41 35bd
00000370: 6357 a8bd 2f1a 413c c3a7 863e 5818 a5be
00000380: 6319 19bd 2e59 11be 9d54 18be 9f69 c7bc
00000390: 8e19 58bd 0985 863e abab 6cbe 6c59 72be
000003a0: 9614 8c3d 0f77 28be 22fd ae3d a76c f6bd
000003b0: b87f 593e 7cd1 76bd 2edb d23d a3d8 d93d
000003c0: 2348 953e a6c2 24be 80ba 84bd b427 513e
000003d0: fc5f 263c b620 1d3e 955b 983d d179 87bd
000003e0: 0ed8 813d a77e 35be ac9f 2cbe 0181 03bb
000003f0: d2fa f23d b2a8 443e 70bb 6fbe c1fa 853d
-0.034440827 -0.23291612 0.08618677 0.10498181 0.21717386 -0.14503647 0.24873203 -0.17590468
0.20379683 -0.040500585 0.0148955 0.18246506 0.16852798 -0.09312431 -0.09320907 -0.13548428
-0.07059214 -0.05847602 -0.3042958 -0.14886358 0.056166593 0.03655563 0.07345069 0.017734315
0.21694578 0.13642615 -0.031179104 -0.14699426 -0.24495877 -0.20701985 0.18441278 -0.22670624
0.09649046 0.05347329 -0.05628819 -0.16363262 -0.09467899 0.15235966 0.2152345 -0.16248262
-0.1386688 -0.16200957 0.14657238 0.20832437 -0.25268742 0.019341769 0.14072704 0.20276059
0.14010754 0.05323094 -0.12037902 -0.086989336 0.004722579 0.16495268 -0.018863367 -0.099797085
0.04257394 -0.1746533 -0.18666838 -0.025417656 0.16475156 -0.16005793 0.16414161 0.13365273
0.12232175 0.049341995 0.12205009 -0.2049111 0.101337194 -0.14351825 0.09297066 -0.019684171
0.19881465 0.08270858 0.16381274 0.021077221 -0.15771179 -0.07577235 0.1536262 -0.096697085
-0.092927195 0.12487815 0.12405116 -0.15951802 0.23558412 -0.11804341 0.13919762 0.13545279
-0.114462376 0.08066556 0.17628726 0.03803854 0.10895149 0.029601613 0.12069772 0.032219507
-0.17275497 0.09055262 0.10220262 -0.1135349 -0.013926787 -0.2263389 0.17366417 0.2521684
-0.1361822 0.26806402 0.08617305 -0.05401704 0.066967614 -0.08572673 0.17361505 0.04652681
0.136528 -0.16477996 -0.056188427 0.14753518 0.22858304 0.12768506 0.117389865 0.042446084
-0.083953574 0.15713245 0.2188261 -0.33454764 0.03215956 -0.105773926 0.19947167 -0.16269886
0.031250585 -0.1449465 -0.0037194144 -0.2872959 0.09594998 -0.16046037 -0.09602151 -0.07737786
-0.3804779 0.13284576 0.11707035 0.19545616 -0.0035294672 -0.25575048 0.035061836 -0.16602825
-0.023217607 0.10473549 -0.2494725 -0.14465593 0.06875679 -0.0055886065 -0.1580097 0.16240007
0.19820347 0.062857516 0.022504767 0.0690306 0.22842708 0.03611045 0.12195132 0.17365742
-0.0351854 0.17029089 0.119403645 0.063540235 -0.065726385 0.104116805 0.19481304 0.23167759
-0.05031083 0.18531434 -0.017098833 0.075063005 -0.27824005 -0.1940931 0.03625255 0.16124994
-0.2895735 0.15455642 -0.043987337 0.026518304 -0.12532727 0.052425407 0.24298725 0.23276727
0.05528259 -0.15828724 0.12848388 0.09643586 -0.1589883 -0.1959248 0.079614855 -0.087058835
-0.15596466 -0.0067452556 -0.2878996 0.16141847 -0.043168917 -0.026446085 -0.031106807 -0.037416823
-0.068984106 0.10933826 0.232371 0.1484713 -0.019991176 0.0670554 0.16029525 0.26130876
-0.14974543 0.008592034 0.21149114 -0.02151309 -0.2376842 0.041893136 0.02651158 0.19436875
0.13675535 0.039874773 0.047003303 -0.04425149 -0.08219793 0.011786028 0.26299867 -0.32245135
-0.037377726 -0.14194176 -0.14876027 -0.024342356 -0.052758746 0.26273373 -0.23112361 -0.23666924
0.06839864 -0.16451667 0.08544375 -0.120324425 0.21240127 -0.060258374 0.102957115 0.10637023
0.29156598 -0.16089877 -0.064808846 0.20425302 0.01015472 0.1534451 0.07439343 -0.066150315
0.06340037 -0.17724095 -0.16857785 -0.0020065906 0.118642464 0.19204977 -0.23411345 0.06541968

1.bias f4 [32]
00000000: 99f0 b6b8 a28b 5d39 1d23 d8b8 5fc3 b3b9
00000010: e63d e7b8 ad4f 3b38 d09d a5b6 d7cd 68b9
00000020: b897 24b9 3285 6439 6bbe 203a 6393 3739
00000030: edd3 0539 086b 92b9 f3ba 53b9 72a9 103a
00000040: 865a 6c38 f007 3db9 ba8c a7b9 7808 453a
00000050: d66c 67b9 635c a338 4ef4 acb7 9d19 0aba
00000060: c39c 6f39 d1bf 8339 a2ad 25b9 ba3c da39
00000070: 3381 ac38 d680 7eb9 b490 9bb6 4623 d7b9
-8.723251e-05 0.0002112822 -0.00010306223 -0.00034287103 -0.00011026468 4.4658478e-05 -4.935755e-06 -0.00022201925
-0.00015696778 0.00021793394 0.000613189 0.00017507146 0.00012762817 -0.00027927035 -0.00020192172 0.00055184134
5.635109e-05 -0.00018027402 -0.00031957572 0.00075162156 -0.00022070421 7.789654e-05 -2.0617761e-05 -0.0005268099
0.00022851214 0.0002512918 -0.0001580031 0.00041625445 8.225664e-05 -0.00024271323 -4.6362056e-06 -0.00041034276

2.weight f4 [32]
00000000: a652 7a3f fed6 6a3f 7e6b 603f 7e4b 7c3f
00000010: 3f08 7a3f 01ff 853f a9a2 8c3f 7f9b 7e3f
00000020: 7704 753f 39ca 733f ba9b 8a3f 4c69 7d3f
00000030: e5ff 803f b76d 793f 68c0 893f 812d 8e3f
00000040: 9956 7e3f 00d9 833f f7f0 893f 400a 8a3f
00000050: f42f 873f 5ce1 793f b9a4 6e3f 7b2b 7a3f
00000060: 2c07 753f 3059 603f f135 633f 2c3c 863f
00000070: f12d 743f ea25 793f 81f3 633f 10ec 803f
0.9778236 0.917343 0.8766402 0.9855269 0.9766883 1.0468446 1.098714 0.9945602
0.9570994 0.9523044 1.0828774 0.98988795 1.0078093 0.97433037 1.0761843 1.1107637
0.9935089 1.0300598 1.0776662 1.0784378 1.0561509 0.97609496 0.93220097 0.97722596
0.9571407 0.8763609 0.88754183 1.0487113 0.953826 0.9732348 0.8904343 1.007204

2.bias f4 [32]
00000000: 5f25 6e3b 12ec 29bd 4350 c23c 4ba8 1abe
00000010: 6b71 a43b 3953 0c3e ffb4 353e 03eb dbbd
00000020: a96f 40bd 94e7 9fbc 51b0 053e d1f3 fc3c
00000030: a85d af3d 565c c0bb 22f0 f83d 66bd 753d
00000040: fda5 d13c e51e ff3a 014b 883d bc5f a63d
00000050: 8342 0abd f09b f0bd 712f 6fbd d4ab c73b
00000060: 5548 c1bc 973e e9bd b2da 3cbd 4d98 a63d
00000070: 2f18 ba3d bb94 f8bd d394 86bd 5a0a a5bd
0.0036338193 -0.0414849 0.023719912 -0.15103261 0.0050184033 0.13703622 0.17744826 -0.10738184
-0.046981487 -0.019519605 0.1305554 0.03087798 0.085627854 -0.0058703823 0.12155177 0.059995078
0.025591845 0.0019464163 0.06654931 0.08123729 -0.033754837 -0.11748493 -0.058394853 0.0060934816
-0.02359406 -0.11388891 -0.046107 0.08134518 0.09086644 -0.12137743 -0.06571355 -0.08058615

2.running_mean f4 [32]
00000000: 18ad e6bc 61cb da3c 7c30 09bb 996b b83c
00000010: e8ed f3bc a09c 0cbd e535 6138 d589 693c
00000020: 8cf0 d9bc bf69 f939 1177 bb3b f139 8cbb
00000030: d712 cd3c ff97 1ebd d139 a93a b345 b53c
00000040: ba7d 19bc 1f1e 0d3d 980c 373b 84ee d63c
00000050: 9ecf 5d3c cbd6 c1bc ed6b 053d af2a 34bc
00000060: cf50 c63b 50f1 ddbb 161e abbc fc3c f53c
00000070: 4b6f 443d 3d03 ce3c fd8e c0bc f49b ad3c
-0.02815871 0.026708307 -0.002093344 0.022512244 -0.029776528 -0.034329057 5.3694373e-05 0.014254053
-0.02660396 0.00047571768 0.005720981 -0.004279368 0.025033398 -0.038719174 0.0012910907 0.022127962
-0.009368354 0.034452554 0.002793109 0.02623678 0.013538269 -0.023661992 0.03257363 -0.010996505
0.0060521136 -0.0067731515 -0.02088837 0.029936306 0.0479577 0.025148029 -0.023505682 0.021192528

2.running_var f4 [32]
00000000: f79f 923e 1f07 9d3e ff39 a53e 3e8c 473e
00000010: fe87 9e3e a165 933e d9ce 883e c2e2 f93e
00000020: 1d4c e83e 43f2 943e 74eb 8a3e 888c af3e
00000030: f613 9b3e 8924 993e df79 973e 449c b43e
00000040: 9a0a 8d3e f942 a23e 1527 ba3e e20b a43e
00000050: 84c0 833e 8954 733e 95a0 8e3e 50bc 813e
00000060: 4ad0 833e 12b9 903e c199 153f efb4 be3e
00000070: 0127 943e d142 d83e 2a79 813e 35c0 5b3e
0.28637668 0.30669495 0.3227081 0.19487092 0.3096313 0.28788474 0.26720312 0.48805815
0.4537057 0.2909108 0.2713276 0.34286904 0.30288666 0.29910687 0.29585168 0.3527547
0.2754715 0.3169172 0.36357942 0.32040316 0.25732815 0.23762716 0.2785689 0.25338984
0.2574485 0.28266197 0.58437735 0.37247416 0.28936008 0.42238477 0.25287753 0.2146004

4.weight f4 [64, 32]
00000000: c8bb ffbc 5703 d63d e140 aa3d 4464 483e
00000010: da8a f13d 3fe6 97bd 3721 08bc fd90 663e
00000020: 2c6e 283e 4975 4ebd f56e eabd fe48 d3bd
00000030: a1cc 9dbd ada7 eabc 5eea 04bd bde7 3a3d
00000040: 326b dbbd 4d27 dc3d 3323 373e 1308 823d
00000050: 399f 68bb 56c3 96bc 8900 8cbc af32 083e
00000060: 4178 4f3e 4964 1e3e 7f61 d53d b5dc 97bd
00000070: b6f8 9b3d fe34 75bc 4c7b b4bd 8913 77bc
00000080: f208 45bd a435 883d 67cc b43d 7835 a7bd
00000090: e0c7 933d 30a9 31be 9fed 123c ad79 adbd
000000a0: a5df d7bc 9121 8bbd 58ae 173d bcb4 283e
000000b0: f311 05be f126 5d3c a294 2dbe 8d07 2fbe
000000c0: 79a7 ae3d 584b d6bd dcc1 23be ed94 9dbd
000000d0: 7228 1fbe 25b7 123e a1de 2d3e 3f85 19bd
000000e0: ddcc b7bd ef8e 00be 8d39 b2bd a514 ffbd
000000f0: a732 febd 0dd7 383c 795c 09bd 6784 f0bd
00000100: d6b9 733d 5ca8 9bbd 8c01 84bc 857a 2d3e
00000110: b695 5e3d 358f 56bc e661 323d d604 6b3d
00000120: 7f6b 66bd fece 093e 1dd0 82be 21e9 993c
00000130: 59c2 d6bd 8dc5 1cbe 7f76 3e3e 451d dfbc
00000140: ea85 873d c5d3 03bc f1ed 073e db68 8e3e
00000150: a1ee 8f3d 9c6c 1ebe 1320 b53d 1f98 173d
00000160: 9475 993d e33a 2a3e b4a6 d93d 2317 d43d
00000170: 540f 38bd ad13 143d 954c ce3d eb97 4d3d
00000180: a614 c83d 10fd 36bd 0c11 0cbd dbce 923c
00000190: d6b1 01bd f05d 2abe 954c 22be 8b91 ba3d
000001a0: a9d1 e5bd 453a 31be 0e26 31be 0285 053e
000001b0: b76c 1f3e 46b2 ae3d ee82 313c 7f78 b13d
000001c0: 85ec fc3d e83b 2a3e 7211 373e da63 7d3d
000001d0: d0fb 7d3b 5dee 1bbe b1ae 5b3d 7490 08be
000001e0: f70a a9bb 4cef a63d c3d4 c73b c059 423e
000001f0: 1162 063e 977d d6bd 2103 253c 8f7f b6bc
00000200: 0d63 e13d ef94 d33d a915 f43b d1dd bc3c
00000210: 201c b73d 980d 9a3d 046e b5bd d026 823d
00000220: 6c01 00be 50bc 41be 1d43 e23d 849b 8e3d
00000230: 0f62 fcbd 5cfd bf3d a1fe 143d d968 dabc
00000240: 6e8e e2bd f684 63bc e10b b1bc 6635 f9bd
00000250: f3a6 dcbd e082 363e 0dd8 e83d fd4e ba3d
00000260: 30d2 d03d bc4b ccbd f18c 9bbd 7152 91ba
00000270: ce10 63bd 8bed 493e 2cbf cebd 5776 643c
00000280: c543 fb3d 6baa d93b bae7 e33d 0fb3 8c3d
00000290: 6e88 d5bd b84f 03bd 332b 6dbe 7243 c53d
000002a0: 38da 10bd 1ff1 75bd 6cc6 b83c ab75 78bd
000002b0: 70ff dbbd 7095 1c3e 2393 5b3e 2280 ab3d
000002c0: 6654 453d cb6c 103e 3b1b 47bd 73ac 393d
000002d0: c21a 3abc af0b 043e de8c 383d bb13 04be
000002e0: c511 b63d 2276 f6bc f1bf febd 4782 243d
000002f0: 4fed 3e3e de2d 373e 9248 c53d 2394 71bd
00000300: 2544 dabc 2bd1 b3bd 43a4 16be d89b 2a3e
00000310: e732 4c3c f3a5 44be 31fc 3ebe c2c9 e53d
00000320: 7343 99bd e60c 19be d265 29be 21b3 c1bd
00000330: 548d 4b3d 6d08 453d 9e4a 0cbd 72de 13be
00000340: 62ff b0bd 31b6 66bd ad88 e63d b9aa 363e
00000350: 9a2a 94bd 2d5f 46bd b0be ccbd c1db 9abc
00000360: bf08 d23d 2151 983c d49f ccbd 37d3 c13d
00000370: 135c 693c ee50 663d 8200 8d3b 312d 093d
00000380: 9f8a b2bd e699 b1bd 1b7b 61bc 3b0a 923d
00000390: 3aa9 2c3e 32b4 213e 3936 513e f4b9 2f3e
000003a0: 5f1a a83d 0129 81bb f091 2cbd f260 5b3d
000003b0: 4739 c4bc 1496 de3d a227 62bd 4b31 d63d
000003c0: d5a4 9fbd 5a4d 973d 249b 953d c3da 3cbe
000003d0: 7d1b cfbd 92cf d13d 583d 463e 8089 f93b
000003e0: b3b7 583e 89c8 1c3c f4aa fabd 9691 71be
000003f0: fbca 1fbd 9a71 083e d945 f0bb 9ec6 17be
-0.03121747 0.10449856 0.08313156 0.19569498 0.11794062 -0.07416963 -0.0083087 0.22516246
0.16448277 -0.05040482 -0.114469446 -0.103166565 -0.077050455 -0.028644407 -0.032450072 0.04563116
-0.10713805 0.107496835 0.17884521 0.06349196 -0.0035495295 -0.01840369 -0.017090099 0.13300584
0.20260717 0.15467943 0.104189865 -0.074151434 0.07615797 -0.014966248 -0.088125795 -0.015080341
-0.048104234 0.06650856 0.08828049 -0.08164495 0.072158575 -0.17349696 0.008967786 -0.084704734
-0.02635176 -0.06793512 0.0370315 0.16475195 -0.12995128 0.013498054 -0.1695123 -0.17092724
0.085280366 -0.104635894 -0.1599192 -0.07694421 -0.15542772 0.14327677 0.16979457 -0.03748059
-0.089746214 -0.12554525 -0.08702383 -0.124551095 -0.12412005 0.011281741 -0.033535454 -0.11744004
0.0595034 -0.076004714 -0.016114019 0.16941269 0.054341994 -0.013095667 0.043550394 0.05737766
-0.05625486 0.13457868 -0.25549403 0.018787922 -0.104862876 -0.15309735 0.1859989 -0.027235636
0.06617339 -0.008046095 0.13274361 0.27814373 0.07027937 -0.15471119 0.08844008 0.03701031
0.074931294 0.16624026 0.10627499 0.103559755 -0.044936493 0.036151577 0.100732006 0.05019371
0.097695634 -0.044674933 -0.034195945 0.017920902 -0.03166374 -0.16637397 -0.15849526 0.09109791
-0.1122163 -0.17307384 -0.17299673 0.1303902 0.15568815 0.08530097 0.010834439 0.08665561
0.123498 0.16624415 0.17877749 0.061862804 0.0038754828 -0.15227647 0.053633396 -0.13336354
-0.005158778 0.08151111 0.006098361 0.1897955 0.13123347 -0.10473173 0.010071547 -0.022277622
0.110052206 0.10331141 0.007448871 0.023054989 0.08940911 0.07522124 -0.088588744 0.06355059
-0.12500542 -0.18919492 0.11047957 0.06963256 -0.12323391 0.09374496 0.036375646 -0.026661323
-0.110623226 -0.013886681 -0.02161211 -0.12168388 -0.107740305 0.17823362 0.113693334 0.09097097
0.1019634 -0.09975383 -0.07595242 -0.0011087192 -0.055435948 0.19719522 -0.10095057 0.01394423
0.122687854 0.00664263 0.11128183 0.0687009 -0.104264125 -0.032058448 -0.2316101 0.09632005
-0.03536436 -0.060044404 0.022555552 -0.060659092 -0.1074208 0.15291381 0.21442847 0.08374049
0.04817619 0.14104001 -0.048609953 0.045330476 -0.011358919 0.12895082 0.045056216 -0.12898152
0.08890108 -0.030085627 -0.12438954 0.040163305 0.18645214 0.1788859 0.09632982 -0.058979165
-0.026643822 -0.0878013 -0.14711098 0.16661012 0.012463308 -0.1920393 -0.18650891 0.11220123
-0.07483568 -0.14946327 -0.16542748 -0.09457994 0.049695328 0.04810374 -0.034250848 -0.14440325
-0.086424604 -0.056326095 0.112565376 0.17838563 -0.07234688 -0.04843061 -0.09997308 -0.018903615
0.102555744 0.018593373 -0.09991422 0.09464114 0.014243144 0.056229524 0.004303039 0.033490364
-0.08717846 -0.08671932 -0.013762261 0.071308576 0.1686143 0.15791395 0.2043084 0.17160779
0.08208155 -0.0039416556 -0.042131364 0.05355925 -0.023953093 0.10868469 -0.055213578 0.10458621
-0.07795111 0.073878005 0.07304981 -0.18442826 -0.10112665 0.10244669 0.19359338 0.007615268
0.21163826 0.009569296 -0.12239638 -0.23590693 -0.039011937 0.13324586 -0.0073325452 -0.1482186

4.bias f4 [64]
00000000: 54bf 9637 d091 96b7 e92e cab8 f5d9 39b9
00000010: 8704 afb8 876b 1039 0427 54b9 b95a 30b7
00000020: 3b01 cdb8 1252 80b8 93c0 65b8 a7bf cd38
00000030: ce70 2839 2737 1db8 dedf 7339 6827 d1b5
00000040: 38d3 a738 42e7 eb38 db26 0d39 2e87 99b8
00000050: d7b9 8338 2670 0739 ca01 98b7 3fae f3b8
00000060: a2be 0b39 f27c 0f39 1e7b 7139 93a4 ec38
00000070: ce11 0438 45e3 b639 f917 d638 4273 c4b8
00000080: 058f a4b5 2f4d 0639 b621 0eb9 0f3d 1cb7
00000090: 5f0c d4b6 9984 0837 3082 6139 0035 3339
000000a0: 1beb 89b9 31a0 3a38 e728 7039 968e 1939
000000b0: 3b4d c5b8 9bef 36b8 341c f2b8 3591 d1b8
000000c0: fe5e 2838 a5da f8b7 9a49 2c39 6426 5138
000000d0: 8460 ecb9 7c63 3fb6 973d 7238 e620 4cb8
000000e0: a3e7 9cb7 6d5f bb38 60c6 ccb8 3f32 f138
000000f0: 1fcb 3c36 c56b 96b6 30f3 04b8 9ed9 26b5
1.7970488e-05 -1.7949293e-05 -9.640848e-05 -0.0001772417 -8.3454936e-05 0.00013772967 -0.0002023243 -1.05115405e-05
-9.775391e-05 -6.1188024e-05 -5.4777203e-05 9.81086e-05 0.00016063752 -3.748308e-05 0.00023257683 -1.5583182e-06
8.002523e-05 0.00011248748 0.00013461283 -7.320788e-05 6.281182e-05 0.00012916382 -1.8120645e-05 -0.00011619599
0.00013327089 0.00013684088 0.00023029416 0.00011284011 3.1487834e-05 0.00034883074 0.000102087804 -9.367477e-05
-1.2260576e-06 0.00012807989 -0.00013554734 -9.312541e-06 -6.3195325e-06 8.1371045e-06 0.00021506171 0.00017090514
-0.00026305843 4.4495046e-05 0.00022903421 0.00014644334 -9.408077e-05 -4.361533e-05 -0.000115447125 -9.9929435e-05
4.014279e-05 -2.9665718e-05 0.00016430617 4.9865237e-05 -0.00045085337 -2.8519125e-06 5.7754656e-05 -4.866803e-05
-1.8704513e-05 8.934629e-05 -9.764428e-05 0.000115011346 2.8132415e-06 -4.4828944e-06 -3.169774e-05 -6.2156494e-07

5.weight f4 [64]
00000000: 9501 5b3f 8817 7a3f 83f7 703f 2f58 8e3f
00000010: 38fb 583f f0b6 783f 5325 7b3f ca47 833f
00000020: 0952 723f 12bd 683f b7f3 683f 123d 683f
00000030: 1703 833f 1f93 753f d4e5 7b3f f440 803f
00000040: 9efd 723f 2718 763f f604 683f 90de 773f
00000050: 2b2b 6e3f 4d72 9d3f 5045 803f 547d 7c3f
00000060: 2a30 623f 2342 8e3f 6bd8 713f 6267 8c3f
00000070: c054 623f 1e91 883f 7fee 6b3f a5e1 743f
00000080: b64e 6b3f 9671 7c3f 6ff3 9b3f 7d07 923f
00000090: ffe7 8d3f 5796 7d3f ff2b 683f 4ecc 7b3f
000000a0: 971c 7f3f 871f 703f 359e 8f3f d1fe 5c3f
000000b0: 7716 543f 7ba6 773f ec4d 923f 8ab1 923f
000000c0: 10fa 623f 3aee 663f 738d 713f 7ee2 773f
000000d0: 4dab 8a3f daf3 743f b2c3 813f 9de0 6d3f
000000e0: fee1 6a3f a996 673f 28cb 5c3f 5d6b 713f
000000f0: 0f31 703f 7955 933f 3f8d 573f 3653 633f
0.8554929 0.97692156 0.9412767 1.1120661 0.8475833 0.9715414 0.9810383 1.0256283
0.94656426 0.909135 0.9099688 0.90718186 1.0235318 0.95927614 0.98397565 1.0019822
0.9491824 0.96130604 0.9063257 0.9682398 0.9303462 1.2300507 1.0021152 0.98628736
0.8835474 1.1113933 0.9447085 1.096905 0.8841057 1.0669286 0.9216079 0.95656806
0.9191698 0.9861082 1.2183665 1.1408535 1.1086425 0.99057525 0.9069213 0.9835862
0.99653 0.93798107 1.1220156 0.8632632 0.8284678 0.96738404 1.143003 1.1460431
0.88662815 0.90207255 0.9435646 0.96829975 1.0833527 0.9568459 1.0137846 0.9292086
0.91751087 0.90464264 0.8624749 0.9430445 0.9382486 1.1510459 0.841999 0.88798845

5.bias f4 [64]
00000000: 15fa 05be ba80 7f3e 9337 063c 8c4d 693d
00000010: 0a66 10be d5e1 f3bd 089e 6ebb 65bb 3f3d
00000020: b262 4abd d13b c1bd 1ca9 92bc 50a6 85bd
00000030: 8f74 b3bc b15f a53d 7526 dbbd 4deb 3e3b
00000040: dfc7 45bd 044e 41be 7cf5 70be 0033 59bd
00000050: 3eb4 a4bd c6d9 303e affe 963d 7668 3bba
00000060: caaf d4bd 6867 2c3d 4b45 05bd 9ff3 f03d
00000070: 8044 eabd 8319 413d 82f4 88bb bede 44bd
00000080: 8a71 e0bd e057 e13c 3f0a 3f3e 1ad0 d9be
00000090: ce8f 9cbd 9daf 84ba 604a 4cbd b30e 51bd
000000a0: 4e49 9bbd 764f 34bd 7799 13be 88b7 bbbd
000000b0: 23cf b5bd 64b5 6abd 6351 59bd a3cd 59bc
000000c0: 0075 283c 0abe 32bd 1746 b8bc 9aaa fabd
000000d0: d2f7 0abd 0aa0 f6ba d22c b8bd b5e1 68bd
000000e0: 9ddc 9dbd a57f 58bd a4e2 94bd 0870 a1bd
000000f0: 233d 32bd a3fa 123e bfab 08be 87e3 bcbd
-0.1308368 0.24951449 0.008191961 0.05695872 -0.14101425 -0.119083084 -0.0036410112 0.046809573
-0.04941053 -0.09435237 -0.017902903 -0.06525862 -0.021906165 0.08074892 -0.107006945 0.002913195
-0.048286315 -0.18877417 -0.23531145 -0.053027153 -0.08042191 0.17270574 0.07372796 -0.000714905
-0.103850916 0.042090803 -0.032536786 0.11765217 -0.114388466 0.04714347 -0.004179538 -0.048063986
-0.10959156 0.027507722 0.18656252 -0.4254158 -0.07644616 -0.0010123138 -0.049875617 -0.05103941
-0.07582341 -0.044021092 -0.14414011 -0.09165865 -0.08877399 -0.057301894 -0.053056132 -0.0132936565
0.010281801 -0.043638267 -0.022494359 -0.12239571 -0.033927746 -0.0018816006 -0.08992924 -0.056855876
-0.07708094 -0.052856106 -0.07269791 -0.078826964 -0.043515336 0.14353423 -0.13346766 -0.09223085

5.running_mean f4 [64]
00000000: a474 8e3e db79 f8be 7daf b23e 46d7 fe3d
00000010: 78d2 013d 440e 6a3e 0104 9bbe 839c 523e
00000020: 5c4c f5bd 3cda d7ba 6d32 91be 2002 2a3e
00000030: dba6 b1bd 9406 0ebf 746a 9f3e 463a 423d
00000040: 0b2e 1abe a8d6 683e 1a10 923e 76ea dabc
00000050: 5f70 bfbd 6991 89bb 7112 12bf e9d7 173d
00000060: 0997 87be e225 c9be 659e d03d a5f6 b63e
00000070: 94ac 503c 25f5 903e 8797 823c 52e3 983d
00000080: 7e40 79be 581d 783e 209a 083e 947c 683e
00000090: 428f b539 1ab4 72be b081 29bd 4584 383d
000000a0: f76c 463e 9a40 0fbe 9f92 e0be ca4d d0be
000000b0: b970 0c3c b502 163d 6424 5c3e 62f6 5c3e
000000c0: 0120 07be 1bf0 0ebb 3275 6ebe 74a7 e9bd
000000d0: 6b14 68be f3e5 70be 53fd a03e c91c 08be
000000e0: bf88 a03d 60cb b2be 5b9a bd3d 67e4 093e
000000f0: c905 3f3e c474 bd3e 7a54 b73e e55c b23d
0.27823365 -0.48530468 0.34899512 0.12443404 0.03169486 0.22857004 -0.30276492 0.20567517
-0.11977455 -0.0016468237 -0.28358784 0.16602373 -0.08674403 -0.5547879 0.31135905 0.047418855
-0.15056626 0.22738135 0.2852791 -0.026723128 -0.09347605 -0.0041982424 -0.5705939 0.037071142
-0.26482418 -0.39286715 0.10186461 0.3573505 0.012736458 0.2831203 0.015941394 0.07465233
-0.24341008 0.24229944 0.13340044 0.22703773 0.00034629746 -0.23701516 -0.041383445 0.045048017
0.19377504 -0.13989487 -0.43861863 -0.40684348 0.008571797 0.036623675 0.21498257 0.21578363
-0.13195802 -0.0021810594 -0.23286894 -0.11408892 -0.22664039 -0.23525219 0.3144327 -0.1329223
0.07838582 -0.34920788 0.092579566 0.13466035 0.1865455 0.37003148 0.35806638 0.087091245

5.running_var f4 [64]
00000000: bdd4 e43e 92a0 c23e 31ad b13e d792 d23e
00000010: 494a 4c3e d670 1a3e c56e 353e c088 ca3e
00000020: cdf8 9a3e f0ae 703e b7b6 913e 9ae5 6b3e
00000030: 2dae b53e 87f3 713e c9dd 5d3e a69c b23e
00000040: 3038 9a3e 6b8b 293e 46e4 203e 4880 6a3e
00000050: cb17 d43e f9bd ae3e ea89 9f3e 6d1c c13e
00000060: 0a86 c03e 7b0d d73e 57ad f13d b3e5 d53e
00000070: f088 703e 9ba5 8c3e 3100 863e 5170 823e
00000080: 21e5 723e a882 6d3e 5c44 d23e 5046 643e
00000090: 032f 783e d6be b33e 8b74 493e ddfa 893e
000000a0: a6a9 113e 6833 7a3e 2f16 083e 6f7a c33d
000000b0: 69b6 163e 43a6 4e3e 6f3d c03e cc3a 923e
000000c0: f5ad a83e caaa 433e a151 9b3e f2ca 9b3e
000000d0: b61e 553e 0d50 9d3e 7359 363e 171d 7b3e
000000e0: e997 5f3e a102 353e 7164 6d3e cce0 b73e
000000f0: bf61 6b3e f2b6 943e 90ef 173e 6c4c 163e
0.44693556 0.3801313 0.34702447 0.41127655 0.19950213 0.15082106 0.17718036 0.39557457
0.30267945 0.23504233 0.28459713 0.23036805 0.35484448 0.23628055 0.21666636 0.34885138
0.30120993 0.1655709 0.1571208 0.22900498 0.41424403 0.34129313 0.31159908 0.37717
0.37602264 0.42002472 0.1180064 0.4177681 0.23489738 0.27470097 0.2617202 0.25476316
0.23720218 0.23194373 0.4106778 0.22292447 0.24236684 0.35106534 0.19673364 0.26949206
0.14224872 0.24433672 0.13289712 0.09544837 0.14718021 0.20180611 0.3754687 0.28560483
0.3294522 0.1910812 0.30335715 0.30428272 0.20812497 0.30725136 0.1780756 0.24522816
0.21835293 0.17676784 0.23182847 0.35913694 0.22986506 0.29045826 0.1483748 0.1467759

7.weight f4 [128, 64]
00000000: 3753 903b c920 eabc 2882 85bd 792e 1abc
00000010: e3ca 6abc 9786 fdbd 6f0c 0c3e 7388 2dbc
00000020: f9ab 12bd 473e bf3d 645b fc3d c047 b4bd
00000030: 7e6e a7bd 8eac 39bd f85f 85bd 1248 c43d
00000040: c7e1 d03d 1b18 893d b442 2fbc d723 8dbd
00000050: 14c3 2ebd 133a bc3d 0dbe df3c 63bc a43d
00000060: 9a2b 9c3d de33 293e 1130 0cbe 330a b63d
00000070: 7452 193e 5993 ac3b 23fc d83c 6ea7 22bc
00000080: 68bc cb3b 688b 4cbc 4b3f a0bb 2b63 8ebd
00000090: b222 993b 3a90 c4bc e0b3 093e 64f0 d0bd
000000a0: 9c60 623d 0574 b93c 82ee ec3c 8859 cbbd
000000b0: b957 cebd 08fd f6bd 7612 aebd 994f eb3d
000000c0: 74ad b7bd 6f20 7bbc b9d7 09be be27 afbd
000000d0: 5d71 ba3d 9043 11be 1ff7 a23d 8895 5cbd
000000e0: c8d8 0ebd fa17 b1bb cdb1 e53c 1f59 04bd
000000f0: 6e95 d33d 9a35 02bd 5083 88bd 5b12 59bd
00000100: 7d94 77bd 507e 5c3d 6823 693d d1ef 1e3e
00000110: 8e05 52bb 0872 b93d a413 e5bc e86e 29be
00000120: e71c 60bc 46fb 713c 28a5 873d 7b6d 7d3d
00000130: 20a5 09bd bc86 89bd eadc c0bd 641d a1bd
00000140: 7f22 b9bd fb7d 0bbe d0f2 223d 20bc f8bc
00000150: 419b 053c 3d44 c53d 9550 303d a735 893b
00000160: f212 ef3d 48c3 05bd 722a 30bd 8212 b53d
00000170: 2681 d0bc a507 0a3e 568d b33d 3f0b df3d
00000180: 31a8 60bc a77c 1d3e d0cc 9f3c 165b 52bd
00000190: e3bc b8bd 6b5d e63c 53aa d7bd 0a1a 1d3e
000001a0: 64c7 8a3d ff6e 92bd c161 13be c3b0 863c
000001b0: dacc 2cba 3d19 01bc 56bf b03b 0468 8d3d
000001c0: 22ce 853d 04d3 383d 88e6 c5bc 6773 5abc
000001d0: e391 b4bd 3378 da3d 1e59 983c a477 4f3c
000001e0: 8405 073e 15aa 17bd bc6d 1abd 940c 163e
000001f0: 5238 703d a865 0b3e d45e ba3b 6f9a a73d
00000200: 0d2b 84bb 858d f3bd ef0f cebd eeeb 96bd
00000210: fc20 373d e404 d8bc fdae a6bd ee07 9bbd
00000220: 8b2e 13be dcf1 ba3d 5a49 f03c 9d6e 1f3d
00000230: cc1f 0d3d ec96 b9bd 1467 2a3d 05b4 383e
00000240: f85d d43d 0462 cabb 8cf6 113d 6bcb 073e
00000250: bfd8 49bc 2ab8 b2bd 1e57 88bc 221c 2c3b
00000260: 1023 4a3d 82ce 753d 39cf e3bd f583 6e3c
00000270: b995 bcbd 88b6 363d be76 8fbd da80 933c
00000280: b156 d53c 2e2d e5bd b518 b73c 2814 4c3d
00000290: 0e4f 053e 6080 de3c f672 aabd a556 643c
000002a0: 475c 363e 7927 62bc 9a69 003d cb81 5bbd
000002b0: 259e e93d 68bf 023e 5da3 3dbc 8edd 6bbc
000002c0: 7dac 1e3d 601a 5fbd 36a2 9d3d 3cc9 e0bd
000002d0: 3bc2 8b3d 92f9 3fbd 7737 d6bd 61ec c4bc
000002e0: 322b ef3c 91f5 61bc c42c 81bc 6256 cebd
000002f0: 1eb1 c7bd ebbe cdbd 246a 78bd 6fac b5bd
00000300: d597 ae3d 9aec dfbd 7324 06bd 67f2 1238
00000310: 33f9 16be abb5 763d ee88 57bd ddf2 30bc
00000320: 9410 a7bc f4d1 babc 074c f03d e36e 4b3d
00000330: 1be9 94bd abc8 0cbe c40e 19be 306a ef3b
00000340: 5e09 443d 201e c6bd 05f9 423d aadf c9bd
00000350: 6045 e2ba ac62 2b3c cec4 a1bd d975 8f3d
00000360: 42eb 12be 4caf c53d 7e62 363d 0760 07be
00000370: efa4 043e a4d6 b0bc 2cf1 b4bd 6f84 cdbc
00000380: c184 87bb 91e7 16be 47d1 a93d 7de7 edbc
00000390: 43d5 dabc 02b7 8ebd 2f97 99bc 1c70 8c3d
000003a0: 7cc4 d23d b56b c0bd e0d4 ec3a 7694 64bd
000003b0: ebe2 dcbd 516f cabd 6b17 1dbd 3b1d 023d
000003c0: ea9a 93bd f2fa 9a3d 292a fdbd 306e 003d
000003d0: 97af bdbd 02d5 e6bb 3a9c bbbd e0c7 b53d
000003e0: 341d e1bd 8d76 db3d feee 5fbd c494 ac3c
000003f0: 8369 3e3d ba85 19be 2136 b53d 1f8e 04be
0.004404451 -0.028580086 -0.06518966 -0.009410494 -0.0143305985 -0.123791866 0.13676618 -0.010591614
-0.035808537 0.0933805 0.12322119 -0.08802748 -0.081753716 -0.045330577 -0.06512445 0.09584059
0.101993136 0.06694051 -0.010697056 -0.068916015 -0.04266651 0.09190764 0.027312303 0.080437444
0.07625504 0.16523692 -0.13690211 0.08888664 0.1497286 0.0052665886 0.026487416 -0.009927614
0.006217528 -0.012484409 -0.0048903576 -0.069525085 0.0046733255 -0.023994554 0.13447523 -0.10202101
0.055267915 0.02263833 0.028922323 -0.09929186 -0.100753255 -0.12059981 -0.08499615 0.114897914
-0.089686304 -0.015327557 -0.13461198 -0.08552502 0.091036536 -0.1418593 0.07957291 -0.05385354
-0.034874707 -0.0054044696 0.028038884 -0.032311555 0.10331236 -0.0317894 -0.06665671 -0.05299602
-0.060444344 0.0538314 0.05691853 0.1552117 -0.0032046768 0.09054953 -0.027963467 -0.16546214
-0.013678766 0.014769381 0.06623298 0.061871987 -0.03360474 -0.06715152 -0.09417136 -0.07866934
-0.09039783 -0.13622276 0.039782345 -0.030363142 0.008154691 0.09632156 0.0430456 0.004187304
0.116735354 -0.032656938 -0.04300923 0.08841421 -0.025452208 0.13479479 0.08767192 0.10890817
-0.013711975 0.15379582 0.019506842 -0.051356398 -0.09020402 0.028120717 -0.10530534 0.15341964
0.06776312 -0.07150077 -0.14392759 0.016441708 -0.00065918046 -0.007879552 0.005393903 0.06904605
0.06533457 0.045123115 -0.024157777 -0.013333178 -0.08816888 0.106674574 0.018597182 0.012662802
0.13185698 -0.037027437 -0.037702307 0.14653236 0.05864746 0.13612998 0.005687574 0.08183753
-0.0040334524 -0.11892227 -0.10061633 -0.07369219 0.04470919 -0.02636952 -0.08138845 -0.07569872
-0.14373223 0.09128162 0.029331852 0.03892385 0.034454152 -0.09061989 0.04160221 0.18037422
0.103694856 -0.006176235 0.035635516 0.13261192 -0.012319743 -0.08726533 -0.016643103 0.0026261886
0.049349844 0.060011394 -0.11123509 0.014557828 -0.09208245 0.04460767 -0.0700507 0.018005777
0.026042314 -0.11190258 0.022350648 0.04982391 0.13018438 0.027160823 -0.08322708 0.013936673
0.17808639 -0.013803356 0.03135071 -0.053590577 0.11407117 0.12768328 -0.011574593 -0.0143960845
0.038738716 -0.054468513 0.07696955 -0.109758824 0.06824156 -0.04686887 -0.10459798 -0.024038495
0.029195402 -0.013791458 -0.015768416 -0.1007507 -0.09750579 -0.1004618 -0.0606481 -0.0887078
0.085250534 -0.109338 -0.032749604 3.5034867e-05 -0.147435 0.060231846 -0.05262082 -0.010800091
-0.020393647 -0.022805192 0.11733251 0.049666297 -0.07271024 -0.13748424 -0.14947039 0.0073063597
0.047860496 -0.09673715 0.047600765 -0.09857114 -0.0017263107 0.010460537 -0.07898866 0.070048995
-0.14347556 0.09652576 0.044527523 -0.13220225 0.12953542 -0.021586724 -0.088350624 -0.025087563
-0.0041356985 -0.14736773 0.082918696 -0.029041046 -0.02671302 -0.069685 -0.018748848 0.06857321
0.10291383 -0.093955435 0.0018068813 -0.055805646 -0.10785469 -0.09884513 -0.03835241 0.031766158
-0.07207282 0.07567395 -0.12361557 0.031355083 -0.09262007 -0.0070444355 -0.09160657 0.08876014
-0.10991898 0.10715971 -0.05467128 0.02106703 0.046487343 -0.14992419 0.08848215 -0.1294484

7.bias f4 [128]
00000000: f702 05b8 c779 63b7 747e 6f38 0f4e b8b7
00000010: 5400 9338 4f78 26b7 6a5a 9338 808d 5d38
00000020: 8e7a 7238 074d 0238 99cb 09b8 e899 b6b8
00000030: c85d 0c39 e0a0 5eb6 f5df d6b7 3fac f537
00000040: 45a6 2b38 7a19 63b8 08f3 6cb8 6404 ed37
00000050: d7b6 0eb7 7b66 b5b8 e37b ce36 7f85 fdb6
00000060: 1359 6038 943a 0038 18cc 46b8 d929 a438
00000070: 5f7a f937 2783 1d38 f5c5 7b38 5574 e837
00000080: a161 9238 962f 0b35 d931 5bb8 4a1c 51b8
00000090: a3ca 75b8 34f3 9e38 12d4 8fb8 e119 01b7
000000a0: 2716 38b8 3441 7738 f286 bd38 2481 eab7
000000b0: 7f84 a1b8 bef6 00b7 86c8 1b38 676a 7a38
000000c0: 1b24 3fb8 4680 85b8 55f1 6438 af98 53b8
000000d0: 6489 96b8 e3b4 81b8 ef53 88b8 0b66 45b7
000000e0: 74c1 33b8 25f0 c136 9f1b 50b8 9715 d838
000000f0: f505 b5b7 af1f 06b7 3d0a 6b39 652c a8b8
00000100: 7c9f 4c37 f27e 7db8 3c6a c135 6b2d 1ab5
00000110: 9ad2 1b38 5961 8038 39bc 2e37 c911 0eb9
00000120: be90 1338 7813 b6b6 62f1 e7b8 1710 27b8
00000130: 57f4 ab38 a6c3 9138 636d acb6 99ec 3ab8
00000140: 8c56 afb4 88b9 5bb8 b05a 0738 b19c 8637
00000150: 3528 8cb8 3228 9a38 a24c 9ab7 af54 ccb7
00000160: 1a2e 15b6 b455 e6b8 a5a3 13b6 5964 a0b7
00000170: 7e49 9e38 88c1 5e38 d877 9e38 15fb 6b38
00000180: 2651 01b8 0426 0437 8e4b d337 4607 f237
00000190: e932 d3b7 3716 10b7 8a12 ba37 bc78 c237
000001a0: 0eb4 9338 a34e 8eb8 c16c 5638 ae29 8136
000001b0: e5b2 afb7 99cb 3cb6 0dd9 f837 acc8 93b6
000001c0: 9e31 96b8 1983 93b7 8118 1c37 a7e3 1c37
000001d0: 54d8 2538 2c90 de37 9c91 b1b8 2631 f3b6
000001e0: ced8 5838 b4bf 9638 cf88 d837 de55 3538
000001f0: 48cd 77b7 14d8 d7b8 77d2 2f38 ef1f 80b7
-3.1712432e-05 -1.3558608e-05 5.709981e-05 -2.1970858e-05 7.009567e-05 -9.922383e-06 7.026347e-05 5.2822288e-05
5.7811434e-05 3.1066153e-05 -3.285296e-05 -8.7071036e-05 0.00013386377 -3.317422e-06 -2.5615076e-05 2.9286484e-05
4.0924428e-05 -5.4144744e-05 -5.6493125e-05 2.8254646e-05 -8.50643e-06 -8.649841e-05 6.1537007e-06 -7.5555286e-06
5.348872e-05 3.0572133e-05 -4.7396956e-05 7.827924e-05 2.9740097e-05 3.7553862e-05 6.0027425e-05 2.7710726e-05
6.980007e-05 5.185078e-07 -5.2260093e-05 -4.985583e-05 -5.8601272e-05 7.579327e-05 -6.8582725e-05 -7.695025e-06
-4.388965e-05 5.8950114e-05 9.037358e-05 -2.795511e-05 -7.7017576e-05 -7.686844e-06 3.714163e-05 5.970374e-05
-4.5571574e-05 -6.365827e-05 5.4584194e-05 -5.0448518e-05 -7.1781484e-05 -6.184892e-05 -6.500619e-05 -1.1765874e-05
-4.2857093e-05 5.7798047e-06 -4.961679e-05 0.00010303704 -2.1579655e-05 -7.994399e-06 0.0002241516 -8.0191334e-05
1.219648e-05 -6.0438128e-05 1.4410539e-06 -5.743556e-07 3.7151018e-05 6.121648e-05 1.0415032e-05 -0.00013548801
3.5182333e-05 -5.426289e-06 -0.000110598994 -3.9830888e-05 8.199427e-05 6.950581e-05 -5.1387337e-06 -4.4566204e-05
-3.265926e-07 -5.238646e-05 3.2270967e-05 1.604701e-05 -6.683209e-05 7.350779e-05 -1.8393916e-05 -2.4358129e-05
-2.2229565e-06 -0.00010983218 -2.199996e-06 -1.9120214e-05 7.547716e-05 5.3109165e-05 7.55635e-05 5.6262204e-05
-3.0831572e-05 7.876664e-06 2.5188343e-05 2.8852035e-05 -2.5176867e-05 -8.588241e-06 2.218156e-05 2.3182823e-05
7.043044e-05 -6.785735e-05 5.112286e-05 3.8493517e-06 -2.094493e-05 -2.8132692e-06 2.9664976e-05 -4.4043027e-06
-7.161799e-05 -1.7584813e-05 9.30403e-06 9.351329e-06 3.9540537e-05 2.6531598e-05 -8.4671396e-05 -7.247686e-06
5.170033e-05 7.188265e-05 2.5812913e-05 4.3233733e-05 -1.4770143e-05 -0.000102922466 4.1919262e-05 -1.527366e-05

8.weight f4 [128]
00000000: 1752 5a3f 0c9a 873f fa88 533f c823 553f
00000010: b628 7c3f 5a7e 473f 75f7 643f e0d8 833f
00000020: 2738 513f e717 723f 4aca 6c3f 66c4 7c3f
00000030: d3b5 633f 87b3 833f c10e 703f 6c8b 573f
00000040: 2d16 763f 0dbe 963f 2421 733f 0724 6c3f
00000050: 0d9f 803f 1baa 8e3f 5724 8a3f 7819 953f
00000060: f396 7b3f 185b 803f 0725 993f d16e 503f
00000070: 29b9 683f 23f1 793f f85e 873f a35f 823f
00000080: 0ccf 6b3f bae7 7e3f d0be 7b3f 67fc 613f
00000090: b965 583f 81d9 733f edb6 873f c0e5 933f
000000a0: a8df 883f 501b 7e3f 69d4 833f 7951 803f
000000b0: dedf 753f c42f 5c3f 43cf 813f 3559 5c3f
000000c0: 30db 663f 59fd 863f f3df 893f 059e 783f
000000d0: 83a8 5b3f 8c6f 8c3f 6be2 673f c14c 6c3f
000000e0: 71a1 603f 7f61 7b3f 43f8 513f df5e 643f
000000f0: 9716 623f 85d2 823f 9366 863f 21c4 813f
00000100: 582d 623f d28c 813f f0ce 773f 92c0 433f
00000110: d18f 813f 58df 663f 4264 883f 9c76 953f
00000120: 4058 603f 7058 873f 71b0 833f 744d 613f
00000130: d199 583f a4b8 523f ee25 7a3f 41b2 6f3f
00000140: 6d58 643f 4be2 563f 1147 5a3f 0d03 5d3f
00000150: 947e 6b3f 5f6b 3a3f ee54 883f 0266 893f
00000160: 1fe4 963f c257 5e3f d435 483f a5e2 4f3f
00000170: cb18 603f 5a3b 843f a601 663f e63c 863f
00000180: 04b4 643f 5956 913f ea61 6c3f 5617 683f
00000190: 8eba 8d3f 5ab8 8e3f 5570 8a3f 37af 6a3f
000001a0: 3c0e 963f 45f3 683f c2da 543f 0a04 563f
000001b0: 891d 803f 2cdb 7d3f d5ba 6f3f c146 453f
000001c0: 2e89 813f 3e5f 6d3f 9c49 7a3f 8d47 823f
000001d0: 4b6a 813f bf95 393f cb59 7f3f 01d4 763f
000001e0: f13b 813f 5d06 653f e8bb 673f 7343 893f
000001f0: 80ed 773f 18f9 693f fdf2 7b3f 9c9f 733f
0.8528151 1.0593886 0.82630885 0.8325772 0.9849962 0.7792717 0.8944009 1.030056
0.81726307 0.9456772 0.9249617 0.9873718 0.88949317 1.0289162 0.9377251 0.84197116
0.9612759 1.1776749 0.94972444 0.92242473 1.0048538 1.1145662 1.079234 1.1648397
0.98277205 1.00278 1.1964425 0.8141909 0.9090753 0.9763357 1.0575857 1.0185436
0.92112803 0.99572337 0.9833803 0.8827576 0.84530216 0.9525376 1.06027 1.1554489
1.0693254 0.99260426 1.0299197 1.0024863 0.9604472 0.86010385 1.0141376 0.8607362
0.90178204 1.0546066 1.0771469 0.9711612 0.85804003 1.0971541 0.9057986 0.9230462
0.8774634 0.9819564 0.8201944 0.8920726 0.8831572 1.0220495 1.0500053 1.0137979
0.8835044 1.01211 0.96800137 0.76465714 1.0122014 0.90184546 1.0655596 1.1676822
0.8763466 1.0573864 1.0288221 0.8800881 0.84609705 0.8231299 0.97714126 0.9363137
0.8919743 0.83939046 0.8526469 0.8633278 0.9199002 0.72820085 1.0650918 1.0734255
1.1788367 0.8685266 0.78207135 0.8120521 0.8753783 1.0330613 0.89846265 1.0487335
0.8933718 1.1354476 0.92336905 0.9066061 1.1072557 1.115001 1.0815531 0.91673607
1.1723094 0.909962 0.831463 0.83599913 1.0009013 0.99162555 0.9364446 0.77061087
1.0119989 0.92723453 0.9776857 1.0178086 1.0110563 0.7249412 0.9974639 0.9641724
1.0096418 0.89462835 0.905211 1.0723709 0.9684677 0.9139571 0.98417646 0.9516542

8.bias f4 [128]
00000000: f635 34be c26c 25be 2a13 11be 381d 5cbd
00000010: 5305 a33b b6a0 5bbe 3fdd 8abc e8e4 eebd
00000020: 7d47 eabd 9801 5ebe 69e2 82bd 7343 fe3c
00000030: 7206 80be 3b9e d0bd 0cb5 94bc a215 95be
00000040: cf4f 943d 3843 8dba 97a6 afbd 1e04 53bd
00000050: 30ae 09be 5ca1 f03c 1618 833d d646 093d
00000060: 7efc 433a f448 33be c93d ba3c 6ac2 e7bd
00000070: 7e41 2dbd 61bf 73be fe03 21bf ea65 84be
00000080: 8543 62be 8779 f8be 0980 96be e1d0 8abd
00000090: 7134 0ebe 4672 dfbd f63b 27bf e4d2 943d
000000a0: dd3f 06bf 4b13 9dbe 3a0e 3cbe 97d6 08be
000000b0: b79b 24be 84c1 86bd 5ad8 b3bd 8f72 34be
000000c0: 878e e6bc 1095 fbbd f2bc 0f3d faba 3ebe
000000d0: dbbb 3cbe 8f05 33bf d070 23be 7da9 e9bd
000000e0: 973c 21bd 5459 c4be a8c5 9abd bb3d 9fbd
000000f0: df3e 19be 0b05 ecbd 8ce9 1b3e 0504 eb3c
00000100: 1e37 c5bc 535a 4a3d 03e9 b0be 6e5c 1abe
00000110: 2e1b c83d 439c 45be 65eb 40be e46c a53d
00000120: 9f54 393c 4430 ef3c 5516 4abe ba40 9cbd
00000130: 8b26 463d afe5 41be 20fb a63c c662 ebbc
00000140: 8397 7abe f79d 3cbe 7a6b eabd 72b1 72be
00000150: 2dcb 1abe 4ae7 5fbe fee3 05bf ca17 62be
00000160: 0b6b 1e3d 1f61 fdbd ca4f 49be 2b4b 53be
00000170: d607 703d 54d9 01bf 6b55 14be 0109 06bf
00000180: 3e90 abbd ad8d 39bf 79af 5cbe 7636 e93b
00000190: dd67 7e3d 4741 e83b 3f0e 983d bd5a d7bd
000001a0: 1b5c 3abb ecb1 a8be dabb 87bb 5cbc 16be
000001b0: 01b2 99be 6228 a4be 2313 d63b b1ef 18be
000001c0: e962 68be dcb2 8fbe 14d1 a6be 7634 2ebe
000001d0: b8a5 f4be c6bc 50be d6fa debe 0958 97bd
000001e0: c30e e2bd 3248 26be 16ab 39bd 3bec b9bb
000001f0: 9dbe 2bbe 6f8f eebd 922f 1f3d c80a 40be
-0.1759871 -0.16154769 -0.14167467 -0.053738803 0.004975 -0.21448025 -0.016951201 -0.11664754
-0.114394166 -0.21680295 -0.063908406 0.031038022 -0.25004917 -0.1018643 -0.018152736 -0.29118067
0.07241785 -0.0010777479 -0.08576696 -0.0515176 -0.13445354 0.029373817 0.064010784 0.03351482
0.0007476284 -0.17508298 0.02273454 -0.113163784 -0.042298786 -0.23803474 -0.62896717 -0.25859004
-0.22096069 -0.48530218 -0.29394558 -0.06778122 -0.13887192 -0.10910468 -0.6532587 0.07266787
-0.524412 -0.30678782 -0.18364802 -0.1336311 -0.16075025 -0.06579879 -0.087815 -0.17621826
-0.028144134 -0.12284291 0.0350923 -0.18626013 -0.18431036 -0.69930357 -0.15961003 -0.114092804
-0.039364424 -0.38349402 -0.07557231 -0.07775446 -0.1496539 -0.11524399 0.1522581 0.02868844
-0.024074133 0.049402546 -0.34552774 -0.15074322 0.09770809 -0.1929789 -0.18839796 0.0807741
0.011311679 0.02919782 -0.19735081 -0.07629533 0.0483766 -0.18935274 0.020383418 -0.028733622
-0.2447186 -0.18419634 -0.11446281 -0.23700503 -0.15116568 -0.21865574 -0.52301013 -0.22079387
0.038676303 -0.1237204 -0.19659343 -0.20634143 0.058601223 -0.5072224 -0.1448571 -0.5235749
-0.083771214 -0.72481805 -0.21551313 0.007117088 0.06211077 0.00708786 0.07424592 -0.10515354
-0.0028436247 -0.32948244 -0.0041422667 -0.14720291 -0.3001862 -0.3206206 0.006533043 -0.14935185
-0.22693981 -0.28066146 -0.3258139 -0.170122 -0.47782683 -0.20384511 -0.43550748 -0.07389838
-0.11037972 -0.16238478 -0.045329176 -0.005673913 -0.16771932 -0.116484515 0.038863726 -0.18754113

8.running_mean f4 [128]
00000000: ba21 e6bb cc90 be3e 8fc9 2bbe db0c ebbe
00000010: 885d 5dbf 22db 28bf d87f 16be d0a6 343e
00000020: 2d9c d73e c2cb c43e 0edd 3cbe d754 0fbf
00000030: d051 243e b7d0 fc3d b04c 55be aab6 d83e
00000040: 9e9d 4bbf 270e 39bf 61c5 4f3e a6f0 c5bc
00000050: a35e 133d 109c 33bf 73ce 36bf 2f76 3dbf
00000060: 3936 babe 9436 92be b941 4ebf 7e6d 973c
00000070: 3b30 9fbe 7e1b 213e e311 543e bdcf 8a3d
00000080: 540e 263e 8103 d0bd 3a55 833e 8ef9 9cbd
00000090: 9837 64be 0ced 4a3e 2a83 32be 9146 31bf
000000a0: 179b efbc 53f2 8cbd 4d6b d73d a4b3 c93e
000000b0: 1461 073f 06df babd ec2d 65bf 6b5a e93c
000000c0: 7571 aebe ebab 093e 5658 2abf ee21 183f
000000d0: fa18 97bd 2099 44be 9a19 9c3d bfb8 37bc
000000e0: d012 edbc 24bd 823e 67c7 babd 8236 37be
000000f0: 0cd5 b2bd 8509 903e 9f6b f2be 971f 37be
00000100: f1d8 6dbe 8728 4dbf ec9d 113e cd35 683e
00000110: 7e37 33bf 2c9c da3e 0be8 ef3d 675b 58bf
00000120: cd26 e3be 6b51 46bf 25b9 ea3e 071d aebd
00000130: a3f8 f5be 2793 1b3d ea89 51bf 4fb3 a8be
00000140: b918 f33e db87 b93e 350d 423e 88f9 963e
00000150: b22a 023e 0cf6 383e a14c 60be 0ce5 643e
00000160: 387f 55bf 616b d5bd 531d a33e 315d ba3e
00000170: 38d5 06bf da2b 64bc b25e f03d e6a1 aabb
00000180: 954e 7abe da37 02be 8bed d13d 8870 25bf
00000190: ea6e 6fbf ddb4 83bf db38 43bf dcb7 26bc
000001a0: f7cf 5dbf b785 92be 7a50 2abf ff25 fc3c
000001b0: 991b afbd 0f4a 223f 9c7b 2cbf 7a4e b1be
000001c0: a0fc ab3d 6111 b53d 2fae 1b3e 4a3b 903e
000001d0: de71 a3bd 50a5 5ebd 4db1 95bd 2add 203e
000001e0: 1b35 e23d 174d 833e b16c d6be 1dd5 62bf
000001f0: 26fe 8a3e eba7 97bd 25fa 5bbf a25e 973e
-0.0070230635 0.37219846 -0.16776107 -0.45908245 -0.8647084 -0.6595937 -0.14697206 0.17641759
0.4211134 0.38436705 -0.184437 -0.5598883 0.16046834 0.12344497 -0.20830035 0.42326862
-0.7953738 -0.7228722 0.20290138 -0.024162602 0.035978924 -0.7016001 -0.71408767 -0.7400846
-0.36369494 -0.28557265 -0.80569035 0.018484827 -0.31091484 0.15733144 0.20709948 0.06777904
0.16216403 -0.10156918 0.2565096 -0.07664786 -0.22286832 0.19816989 -0.17432848 -0.692483
-0.029248757 -0.06882157 0.10518513 0.39394867 0.52882504 -0.091245696 -0.89523196 0.028485497
-0.34070936 0.13444488 -0.6654104 0.5942677 -0.07377811 -0.19199038 0.076220706 -0.0112134805
-0.028939635 0.25534928 -0.09120064 -0.17891887 -0.08732042 0.28132263 -0.47347733 -0.17883144
-0.23227288 -0.80139965 0.14220399 0.22676773 -0.7000655 0.42697275 0.117141806 -0.8451447
-0.4436554 -0.77467984 0.4584438 -0.0850163 -0.48041257 0.037982132 -0.81851065 -0.32949302
0.474798 0.36236462 0.1895035 0.29487252 0.127116 0.1806261 -0.21904232 0.22353
-0.83397245 -0.104208715 0.3185831 0.36399224 -0.52669096 -0.013926471 0.11736812 -0.005207288
-0.24444039 -0.12716618 0.10250386 -0.64624834 -0.93528616 -1.028957 -0.7625863 -0.010175671
-0.86645454 -0.2861764 -0.6652905 0.030779837 -0.08550186 0.63394254 -0.6737611 -0.34630185
0.08397794 0.088412054 0.15203165 0.28170234 -0.07980703 -0.054356873 -0.07309208 0.15709367
0.11045285 0.25644752 -0.418798 -0.88606435 0.27147025 -0.07405075 -0.85928565 0.29564387

8.running_var f4 [128]
00000000: 923b 233f 4ea3 793f 7945 2a3e 53a1 f63e
00000010: 5cd1 923f 1fd6 a73f 2af5 823f 328b 773f
00000020: b017 483e 66aa d63e f35c 023f e5e2 ff3e
00000030: 4e37 673e d3ba 013f beec 283f e9df 983e
00000040: 2a3f 4f3f 108e a03f f285 e23e 0b5d f23e
00000050: bc1c 123f 6b9f 9e3f 027e d13e 4434 843f
00000060: 2793 f23e 7fc8 e53e 67af 503f 2eba 4b3f
00000070: 1139 4d3f 89b7 453f 6733 c03e f704 e23e
00000080: 4107 ab3f 7187 ce3e fd68 1a3f 02b6 323f
00000090: d38d e73e fd6c 823e 6827 9d3e 546c 543f
000000a0: af4d 9c3e 8650 343f 7018 2a3f 984f 883f
000000b0: 2e63 753f 68b8 0d3f f594 373f c964 d73e
000000c0: 4ad1 503f 3ca5 7e3f 6601 953f b23b 733f
000000d0: ea18 4d3f 3bc7 983e ea2b 773f 205e 2b3f
000000e0: f66f 053f f4f8 203f 367e 653f 7ba6 173f
000000f0: ddeb 953e 4c48 c83f 6004 ab3e 8c1f 993e
00000100: 0fb7 3d3f 0b12 a33f 94ec ca3e 5645 e03e
00000110: d67d 9b3f fa33 493f e988 393f 4843 f03f
00000120: 42a9 9e3f 713b 9a3f 24da 433f 6adb 113f
00000130: ab59 503f 6796 623e 81a1 6c3f 4d01 4f3f
00000140: 1bfb dc3e 3c36 263e 6f26 bb3e 33b5 ff3e
00000150: e692 483f 7a21 603f fe5b a13e 6b1f 3e3f
00000160: 7d08 9f3f 9f1d a23e e63f a33e 99d6 683f
00000170: ffe2 373f 3dc7 973e 7635 8f3e 3998 be3e
00000180: 622b cb3e eefa 843e 23a8 643f 320d a83f
00000190: c334 293f 1d77 933f 7bc4 a13f 1fdb a83e
000001a0: f1cf 6c3f df74 ba3e 237b 993f 5604 ef3e
000001b0: b57c 123f 8e61 c13e bb0f 0e3f c30c 053f
000001c0: 087a 7d3f aeab 1e3f 8b70 e33e ec47 dc3f
000001d0: 9a49 0a3f 9d74 2d3f 50ff aa3e b1be b63e
000001e0: de6e 7a3f 3d72 233f de07 8f3e 3727 b63f
000001f0: 84be 8a3e e38a eb3e 0a1e 8a3f f0e3 fa3e
0.6376277 0.9751481 0.16628064 0.48169956 1.1470141 1.311222 1.0231068 0.9669677
0.19540286 0.4192688 0.5092308 0.49977794 0.22579691 0.50675696 0.6598624 0.2985833
0.80955756 1.2543354 0.44242817 0.4733661 0.57075095 1.23924 0.4091645 1.032845
0.47377893 0.4487953 0.8151764 0.7958096 0.801652 0.7723318 0.37539217 0.44144413
1.3361589 0.4033771 0.6031645 0.6980897 0.4522539 0.25473776 0.30694127 0.82977796
0.30528018 0.7043537 0.6644354 1.064929 0.9585446 0.55359507 0.71711665 0.4206908
0.8156935 0.9947088 1.1641052 0.9501296 0.8011614 0.298395 0.9655138 0.669405
0.52123964 0.6287987 0.8964571 0.59238404 0.29281512 1.5647063 0.33401775 0.2990688
0.7410745 1.2739881 0.3963362 0.438029 1.2147777 0.78594935 0.72474533 1.8770533
1.2395403 1.204939 0.7650473 0.56975424 0.8138682 0.22127686 0.92433935 0.8086136
0.43160328 0.16231626 0.3655276 0.49942932 0.7834915 0.8755108 0.31515497 0.7426669
1.2424465 0.31663224 0.31884688 0.9095245 0.71830744 0.29644194 0.27970475 0.37225512
0.39681536 0.25972694 0.89319056 1.3129027 0.66096133 1.1520725 1.2638086 0.32979676
0.92504793 0.3641729 1.1990703 0.46682996 0.5722154 0.3776974 0.5549275 0.519726
0.9901433 0.6198071 0.444218 1.7209449 0.5401856 0.6775606 0.33397913 0.3569236
0.9782542 0.6384619 0.2793569 1.4230717 0.27098477 0.460044 1.0790417 0.49002028
