AEGAN/weights/discriminatorlatent 100 Epoch.pth (torch, 194876 bytes, 25 tensors)

1.weight f4 [32, 16]
-0.07255817 -0.22222807 0.085035875 0.117578775 0.16939601 -0.14386415 0.2338156 -0.10701632
0.1398731 -0.10404904 0.034355894 0.190232 0.1666341 -0.19816211 -0.13322765 -0.13852377
-0.06448737 -0.08837804 -0.24901937 -0.15796645 0.12020415 0.03938067 0.03539779 0.04301732
0.25552392 0.13155863 0.03185378 -0.16601843 -0.23697145 -0.23453762 0.17735504 -0.17423026
0.13768941 0.042956155 -0.06627467 -0.16881664 -0.12953648 0.16504024 0.22396357 -0.16648367
-0.14031295 -0.14941461 0.1446004 0.19059879 -0.25123593 0.019372698 0.12468415 0.16403419
0.08959695 0.030544085 -0.098238274 -0.0812025 0.015451273 0.15201925 -0.041936252 -0.070300676
0.0577852 -0.17714238 -0.16502085 -0.008073148 0.1480956 -0.1903609 0.17314222 0.18112741
0.103565596 0.017280703 0.012183501 -0.23660861 0.05521452 -0.1736343 0.1552707 -0.06776189
0.18075609 0.14394143 0.08739124 -0.01273753 -0.14529803 -0.13541096 0.11625861 -0.072889395
-0.16328421 0.053135388 0.07502181 -0.17176063 0.21559161 -0.058794655 0.21598427 0.13454427
-0.14595532 0.093662955 0.078834794 0.092408106 0.112052515 0.04151579 0.06246333 0.015684417
-0.18798248 0.07228672 0.079632744 -0.123427935 -0.04630285 -0.16266038 0.19169225 0.24467053
-0.15156767 0.26617703 0.07087818 -0.07268146 0.0784655 -0.121600874 0.17186774 -0.009066817
0.12091235 -0.16133755 -0.067483746 0.12405929 0.24673833 0.138584 0.1379211 0.09369959
-0.055421144 0.15694919 0.24434143 -0.29041624 -0.009867404 -0.14629316 0.18842691 -0.10817213
0.06520598 -0.15209626 0.07546903 -0.2542527 0.06454274 -0.13743986 -0.1719242 -0.10999594
-0.32403728 0.112970226 0.20265971 0.22446765 0.00010211244 -0.21206693 0.09005354 -0.17227827
-0.06867802 0.11955706 -0.25099003 -0.13819952 0.06756447 0.071146905 -0.14524248 0.22532843
0.15851784 0.016825294 0.0036780084 0.09135472 0.21025261 -0.009928557 0.093273014 0.1466869
-0.012911414 0.1528565 0.089720145 0.049877916 -0.08141824 0.1327579 0.21723841 0.22285864
-0.045378815 0.20263362 -0.032565698 0.08821521 -0.2715741 -0.20251928 0.046218175 0.0834192
-0.21805955 0.13038394 -0.023356527 0.04863351 -0.15553175 0.08240596 0.20089787 0.19954953
0.008895121 -0.17846853 0.17639783 0.12500763 -0.13041145 -0.19235742 0.12941237 -0.17452729
-0.15648538 0.029948551 -0.2759386 0.16256319 -0.0072420067 -0.024821939 -0.042510767 -0.050048977
-0.072043955 0.14130786 0.19173731 0.13173896 -0.07131751 0.061132096 0.1586845 0.27982846
-0.20659754 -0.028824879 0.13040657 -0.11434285 -0.21643795 0.027179338 0.044447538 0.18806356
0.16392916 0.06760545 0.037713863 -0.081479564 -0.04771141 -0.0034353894 0.25254613 -0.30456904
-0.044593867 -0.12280227 -0.11762623 0.0008413861 -0.010527038 0.25425386 -0.2344074 -0.21370237
0.101791844 -0.16794145 0.14385495 -0.116856344 0.19115251 -0.044321828 0.085876204 0.16137803
0.25632602 -0.1281457 -0.075773545 0.19274916 0.04419795 0.14193365 0.07554917 -0.027797304
0.1063776 -0.18921381 -0.15969522 0.0015049147 0.08765997 0.21303372 -0.2525781 0.10418322
00000000: 6199 94bd c18f 63be 4a27 ae3d 24cd f03d
00000010: 2676 2d3e 2051 13be 5b6d 6f3e 5f2b dbbd
00000020: e53a 0f3e aa17 d5bd c4b8 0c3d 2dcc 423e
00000030: 21a2 2a3e 02eb 4abe d46c 08be 2dd9 0dbe
00000040: f411 84bd 8cff b4bd effe 7ebe f5c1 21be
00000050: 982d f63d a04d 213d 46fd 103d ee32 303d
00000060: 08d4 823e 4eb7 063e 1c79 023d bc00 2abe
00000070: a5a8 72be a12a 70be 8f9c 353e 6b69 32be
00000080: 74fe 0c3e cbf2 2f3d 04bb 87bd 45de 2cbe
00000090: 36a5 04be 4f00 293e b556 653e b27a 2abe
000000a0: 33ae 0fbe 2500 19be 2112 143e 542c 433e
000000b0: ffa1 80be 7eb3 9e3c 675a ff3d 94f8 273e
000000c0: 9b7e b73d 9737 fa3c 2631 c9bd 7f4d a6bd
000000d0: 5627 7d3c efaa 1b3e 59c5 2bbd cdf9 8fbd
000000e0: 2db0 6c3d d064 35be 3afb 28be 3d45 04bc
000000f0: 5fa6 173e f8ed 42be 324c 313e 7779 393e
00000100: 331a d43d 4390 8d3c 4f9d 473c 8749 72be
00000110: 9f28 623d 31cd 31be 48ff 1e3e bfc6 8abd
00000120: 2018 393e 6265 133e 2efa b23d 13b1 50bc
00000130: 02c9 14be 2ca9 0abe fe18 ee3d 0947 95bd
00000140: fa33 27be 7ea4 593d 09a5 993d 05e2 2fbe
00000150: 0cc4 5c3e aad2 70bd fb2a 5d3e f9c5 093e
00000160: 5075 15be 5dd2 bf3d 2374 a13d 7640 bd3d
00000170: ca7b e53d 760c 2a3d 8cd9 7f3d 9b7c 803c
00000180: 7b7e 40be 0f0b 943d 7e16 a33d c9c7 fcbd
00000190: 0fa8 3dbd 7190 26be f94a 443e e98a 7a3e
000001a0: 8e34 1bbe 5b48 883e 9428 913d 04da 94bd
000001b0: 85b2 a03d e109 f9bd 19fe 2f3e fd8c 14bc
000001c0: e5a0 f73d ac35 25be eb34 8abd cc12 fe3d
000001d0: f9a8 7c3e f7e8 0d3e 303b 0d3e 92e5 bf3d
000001e0: 4801 63bd 4ab7 203e a434 7a3e 70b1 94be
000001f0: e4aa 21bc e0cd 15be fcf2 403e 5a89 ddbd
00000200: b68a 853d 1fbf 1bbe 828f 9a3d 692d 82be
00000210: fc2e 843d 09bd 0cbe e60c 30be 8d45 e1bd
00000220: 37e8 a5be ef5c e73d 0786 4f3e d9da 653e
00000230: 3325 d638 1328 59be fe6d b83d b769 30be
00000240: 10a7 8cbd 55da f43d c481 80be 2d84 0dbe
00000250: 3e5f 8a3d 78b5 913d 72ba 14be 7fbc 663e
00000260: 8052 223e 33d5 893c be0a 713b 2f18 bb3d
00000270: 764c 573e 63ab 22bc ec05 bf3d 1735 163e
00000280: 658a 53bc 6a86 1c3e 32bf b73d c94c 4c3d
00000290: 9bbe a6bd b0f1 073e bf73 5e3e 0e35 643e
000002a0: 23df 39bd 307f 4f3e 9c63 05bd 2daa b43d
000002b0: c30b 8bbe 3761 4fbe 454f 3d3d afd7 aa3d
000002c0: 014b 5fbe 5e83 053e 3056 bfbc ee33 473d
000002d0: b743 1fbe 75c4 a83d 2cb8 4d3e b656 4c3e
000002e0: d7bc 113c 74c0 36be a2a1 343e 0002 003e
000002f0: 948a 05be 58f9 44be ad84 043e 48b7 32be
00000300: b43d 20be aa56 f53c d347 8dbe f776 263e
00000310: 5b4e edbb 6157 cbbc c51f 2ebd 2800 4dbd
00000320: c88b 93bd 02b3 103e c956 443e 94e6 063e
00000330: ea0e 92bd a665 7a3d 317e 223e ad45 8f3e
00000340: 4e8e 53be 2722 ecbc 4d89 053e 962c eabd
00000350: e9a1 5dbe 34a7 de3c 9f0e 363d bc93 403e
00000360: 0cdd 273e ba74 8a3d da79 1a3d c2de a6bd
00000370: 0a6d 43bd 4524 61bb ba4d 813e 79f0 9bbe
00000380: 0fa8 36bd c27f fbbd 05e6 f0bd 7790 5c3a
00000390: 9979 2cbc 902d 823e 7e08 70be cbd4 5abe
000003a0: 3e78 d03d d8f8 2bbe b64e 133e 6152 efbd
000003b0: 7cbd 433e ce8a 35bd dddf af3d 4840 253e
000003c0: 2a3d 833e a038 03be 292f 9bbd 0960 453e
000003d0: e908 353d 0e57 113e 86b9 9a3d 2cb7 e3bc
000003e0: 80dc d93d 44c1 41be 2587 23be 8f40 c53a
000003f0: 1287 b33d 8325 5a3e eb51 81be 035e d53d

1.bias f4 [32]
-0.0022890535 0.002282873 -0.0018417999 -0.0029985122 0.0006663766 0.0022271525 0.00010774275 -0.0014446223
-0.0025857657 0.0027956024 0.0029733863 0.0025196169 0.0028531367 -0.003242544 -0.0012129688 0.0028443018
-0.0012147493 0.00054202665 -0.0006821263 0.0004772248 -0.0025713963 0.0032738305 -0.0008839941 -0.0030311528
0.0010796222 0.0016493262 -0.0015329303 0.002411037 0.0005594684 -0.002052607 -0.0009905627 0.0011287448
00000000: f203 16bb 419c 153b 8d68 f1ba b082 44bb
00000010: c7af 2e3a 6bf5 113b f3f3 e138 7b59 bdba
00000020: f375 29bb 6d36 373b 25dd 423b 2820 253b
00000030: b1fb 3a3b dc80 54bb 7bfc 9eba 7767 3a3b
00000040: 3938 9fba cb16 0e3a b9d0 32ba 0734 fa39
00000050: df84 28bb c38d 563b d7bb 67ba 4ea6 46bb
00000060: 1c82 8d3a 342e d83a 9bec c8ba 7d02 1e3b
00000070: 4aa9 123a 0885 06bb c5d5 81ba 64f2 933a

2.weight f4 [32]
0.9594437 0.9028343 0.92363465 1.0230618 0.9648031 1.0013855 1.0675342 0.98501384
0.97354925 0.9538004 1.0838938 0.985836 1.0054338 0.9921774 1.1179562 1.1096653
0.99455786 1.0498786 1.0570705 1.0579778 1.0258462 0.9529198 0.94446445 0.983085
0.95790267 0.9223067 0.88608015 1.0476713 0.9605614 0.95906854 0.88435405 0.9910642
00000000: 1a9e 753f 2620 673f 5273 6c3f b0f3 823f
00000010: 56fd 763f 662d 803f f6a4 883f de29 7c3f
00000020: 863a 793f 432c 743f 08bd 8a3f c05f 7c3f
00000030: 0eb2 803f 57ff 7d3f 3019 8f3f 8309 8e3f
00000040: 589b 7e3f 6c62 863f 164e 873f d16b 873f
00000050: ee4e 833f 8df2 733f 6cc8 713f 75ab 7b3f
00000060: 1c39 753f 4b1c 6c3f 26d6 623f 181a 863f
00000070: 5ae7 753f 8485 753f 0765 623f 62b6 7d3f

2.bias f4 [32]
-0.12453193 -0.054381017 0.028815627 -0.11582086 -0.027294837 0.06352815 0.12382467 -0.07789243
0.011801645 -0.056357786 0.11754032 0.061399106 0.050531056 0.05307875 0.11594627 0.030646347
0.077880114 -0.012888953 0.004212846 0.08465829 -0.036882762 -0.14889586 -0.02286955 -0.0044381716
-0.043215137 -0.0576884 -0.08041512 0.03161802 0.055604186 0.009330499 -0.1257361 0.016154626
00000000: 990a ffbd a1be 5ebd c00e ec3c 7d33 edbd
00000010: 6c99 dfbc 0c1b 823d ca97 fd3d 1186 9fbd
00000020: b05b 413c 6cd7 66bd fbb8 f03d a17d 7b3d
00000030: a7f9 4e3d 1a69 593d 3d75 ed3d 0c0e fb3c
00000040: 9c7f 9f3d 302c 53bc ea0b 8a3b 5361 ad3d
00000050: 6112 17bd 2878 18be ec58 bbbc 156e 91bb
00000060: 5b02 31bd ac4a 6cbd afb0 a4bd e681 013d
00000070: 37c1 633d f3de 183c f7c0 00be b556 843c

2.running_mean f4 [32]
-0.01112193 -0.013294287 -0.03147973 0.013644833 -0.024740761 0.00060311536 0.0052574347 0.0009242892
-0.054821454 0.026356274 -0.032054335 -0.022756396 0.020846274 -0.028809287 0.021901483 0.029786602
0.031405076 0.03180658 -0.0017960133 -0.0019111768 -0.002262813 0.0068567954 0.01456969 -0.014946968
-0.012884357 -0.011527875 -0.01756399 0.028259655 0.02643271 -0.020229273 -0.0011664014 0.0138361715
00000000: c138 36bc 48d0 59bc e4f0 00bd 948e 5f3c
00000010: 23ad cabc 631a 1e3a 8f46 ac3b 004c 723a
00000020: 768c 60bd 1de9 d73c 684b 03bd 9f6b babc
00000030: cec5 aa3c 7401 ecbc bd6a b33c 0803 f43c
00000040: 9ca2 003d 9e47 023d 3568 ebba 7480 faba
00000050: b44b 14bb f8ae e03b b6b5 6e3c 21e4 74bc
00000060: e918 53bc 6adf 3cbc 5be2 8fbc cb80 e73c
00000070: 6989 d83c dcb7 a5bc f0e1 98ba 1cb1 623c

2.running_var f4 [32]
0.22262238 0.43074661 0.22599757 0.1704632 0.25554952 0.15216628 0.22262347 0.56450045
0.39925513 0.22495456 0.320246 0.25603244 0.27026024 0.3206826 0.24581793 0.30549335
0.32412115 0.25656492 0.3041369 0.31873685 0.17623535 0.20914467 0.20547432 0.30525663
0.28338635 0.27011886 0.49595562 0.32672876 0.32455885 0.29763153 0.19914769 0.20072055
00000000: 1ff7 633e d28a dc3e e86b 673e e88d 2e3e
00000010: 63d7 823e 7ad1 1b3e 68f7 633e 1a83 103f
00000020: 2b6b cc3e 7d5a 663e 49f7 a33e af16 833e
00000030: 8d5f 8a3e 8230 a43e b2b7 7b3e a069 9c3e
00000040: 35f3 a53e 7a5c 833e d5b7 9b3e 7a31 a33e
00000050: 0a77 343e 052a 563e dc67 523e 994a 9c3e
00000060: 0418 913e 054d 8a3e e5ed fd3e fe48 a73e
00000070: 942c a63e 2963 983e 5fed 4b3e b089 4d3e

4.weight f4 [64, 32]
-0.029879382 0.10880402 0.062023275 0.19957677 0.13528317 -0.05140998 0.005738541 0.19448087
0.17297255 -0.054144792 -0.089182444 -0.097855285 -0.09133359 -0.038459826 -0.053926945 -6.390387e-05
-0.12502648 0.09619043 0.16407046 0.009926033 -0.057245303 -0.0130106425 0.019206135 0.10383734
0.20952354 0.12272747 0.12282875 -0.071835555 0.11064046 -0.043096334 -0.07049289 -0.044484552
-0.0010369712 0.06695248 0.058585014 -0.060409654 0.054109983 -0.1688283 0.005774116 -0.113239564
-0.010404901 -0.039143354 0.02711208 0.1336848 -0.11578184 -0.016932301 -0.13361442 -0.18297267
0.10418353 -0.060901374 -0.15432188 -0.09334157 -0.17094219 0.15703103 0.16680494 -0.057207465
-0.086495966 -0.12016797 -0.10079938 -0.10109339 -0.12766232 -0.009794477 -0.0010550284 -0.13206324
0.033285294 -0.08708943 -0.04450612 0.1672809 0.067111835 0.015372694 0.05022236 0.033690352
-0.08294102 0.16146195 -0.24372378 0.00704865 -0.07477695 -0.15088287 0.23920994 -0.059846923
0.065819286 -0.016297167 0.10622647 0.23684113 0.022786668 -0.09758455 0.05966988 0.046209298
0.05746388 0.18966724 0.10213227 0.08326705 -0.051687274 0.023600036 0.14669015 0.040606655
0.102777384 -0.065187626 -0.0608573 0.030493133 -0.034138087 -0.11313567 -0.11802873 0.08124012
-0.13633643 -0.14809068 -0.16129795 0.118097015 0.1711285 0.062927976 0.0048448085 0.0711184
0.12578408 0.18034999 0.15584646 0.020667113 -0.014172845 -0.104284465 0.05487281 -0.13732134
0.00020484414 0.107327744 0.016652273 0.19152272 0.14630604 -0.13538164 0.063519605 -0.05555539
0.0941053 0.14047062 -0.027206752 0.05030146 0.12483876 0.063196465 -0.061435007 0.101684906
-0.09585936 -0.16492148 0.10796668 0.043178223 -0.10742351 0.076681405 0.09161646 -0.03364484
-0.10003522 0.012433422 -0.029111352 -0.10468178 -0.12647252 0.19011046 0.133573 0.040986437
0.15011641 -0.07622895 -0.07689429 -0.00554474 -0.038310844 0.12403866 -0.10636162 0.009772343
0.12735191 0.012534541 0.06302433 0.052903876 -0.0846881 0.016235285 -0.1999737 0.10040442
-0.05914569 -0.022198793 -0.0017396699 -0.07142373 -0.10563548 0.14371268 0.24165924 0.07355105
0.070303924 0.12039693 -0.076087736 0.01345869 -0.049517035 0.1609107 0.062762395 -0.13489373
0.067513265 0.009676804 -0.11367945 0.07967084 0.17814496 0.11005461 0.1317669 -0.06947113
-0.025997544 -0.076774515 -0.17362837 0.1905767 0.03943028 -0.14089522 -0.15632343 0.09143439
-0.11617629 -0.095945306 -0.15529667 -0.09993399 0.08880845 0.0233794 0.013736927 -0.14481275
-0.05447614 -0.021944538 0.10364921 0.12714148 -0.14043415 0.01639377 -0.10062005 -0.06432171
0.079743415 0.033801947 -0.10880361 0.13265935 -0.011079422 -0.019873818 0.05289772 0.013505563
-0.08582727 -0.123256706 -0.014720777 0.063063286 0.12927382 0.18159401 0.17585394 0.11398015
0.045660585 0.0528508 -0.06602652 0.024283813 0.0007024763 0.0861302 -0.085263886 0.13471559
-0.05990508 0.11488442 0.021896595 -0.22315751 -0.122384444 0.09482059 0.18017788 -0.04472261
0.19838622 -0.021250984 -0.11575205 -0.1974742 -0.04240183 0.08850677 0.021043777 -0.2043566
00000000: 9bc5 f4bc a4d4 de3d 1e0c 7e3d da5d 4c3e
00000010: ac87 0a3e 4593 52bd 5f0a bc3b fe25 473e
00000020: b71f 313e eec6 5dbd 49a5 b6bd 5a68 c8bd
00000030: 1b0d bbbd 0d88 1dbd 80e2 5cbd 2104 86b8
00000040: f106 00be 7dff c43d 1602 283e cda0 223c
00000050: 0d7a 6abd 972a 55bc 2f56 9d3c aca8 d43d
00000060: 578d 563e 8a58 fb3d a48d fb3d 851e 93bd
00000070: 7797 e23d c885 30bd 945e 90bd 6f35 36bd
00000080: fbea 87ba 621e 893d d7f6 6f3d 1d70 77bd
00000090: 6ea2 5d3d 53e1 2cbe cc34 bd3b 25ea e7bd
000000a0: 5179 2abc c854 20bd 271a de3c abe4 083e
000000b0: 081f edbd 9cb5 8abc 38d2 08be 305d 3bbe
000000c0: 2d5e d53d b873 79bd 8e06 1ebe dd29 bfbd
000000d0: 780b 2fbe becc 203e eace 2a3e 6052 6abd
000000e0: cc24 b1bd a01a f6bd e86f cebd 0d0a cfbd
000000f0: e9b9 02be 0479 20bc e148 8aba 963b 07be
00000100: 2956 083d f15b b2bd 0d4c 36bd af4b 2b3e
00000110: ee71 893d c0dd 7b3c f6b5 4d3d e5fe 093d
00000120: fbdc a9bd 4856 253e ba92 79be 5df8 e63b
00000130: a824 99bd 0a81 1abe 73f3 743e 0c22 75bd
00000140: 43cc 863d a381 85bc 438d d93d 7b86 723e
00000150: 1bab ba3c 69da c7bd 6768 743d f645 3d3d
00000160: 3f5f 6b3d 2138 423e b92a d13d ea87 aa3d
00000170: 09b6 53bd dd54 c13c f135 163e 2a53 263d
00000180: f37c d23d 1781 85bd 8145 79bd bccc f93c
00000190: 61d4 0bbd adb3 e7bd 0cb9 f1bd 3861 a63d
000001a0: c79b 0bbe 15a5 17be 4a2b 25be d9dc f13d
000001b0: 4f3c 2f3e 62e0 803d 33c1 9e3b 86a6 913d
000001c0: 8bcd 003e abad 383e 3796 1f3e 144e a93c
000001d0: 3835 68bc 1893 d5bd 50c2 603d f79d 0cbe
000001e0: 6ecb 5639 a6ce db3d 596a 883c 881e 443e
000001f0: 40d1 153e 7ca1 0abe 9116 823d 0c8e 63bd
00000200: 48ba c03d 88d7 0f3e b2e0 debc e708 4e3d
00000210: 77ab ff3d 266d 813d 46a3 7bbd 2d40 d03d
00000220: ea51 c4bd 2de1 28be a21d dd3d a6db 303d
00000230: db00 dcbd 240b 9d3d 69a1 bb3d 2ccf 09bd
00000240: 44df ccbd 8db5 4b3c ee7a eebc 6763 d6bd
00000250: 0382 01be 51ac 423e 5cc7 083e 65e1 273d
00000260: 1eb8 193e ec1d 9cbd c17a 9dbd a6b0 b5bb
00000270: d5eb 1cbd fb07 fe3d 1fd4 d9bd 2d1c 203c
00000280: 8a68 023e ad5d 4d3c e612 813d bcb1 583d
00000290: f470 adbd dcff 843c e8c5 4cbe d5a0 cd3d
000002a0: c042 72bd 3eda b5bc a305 e4ba 9b46 92bd
000002b0: 6a57 d8bd 6b29 133e 8575 773e efa1 963d
000002c0: 81fb 8f3d aa92 f63d e3d3 9bbd d681 5c3c
000002d0: 60d2 4abd c6c5 243e 9289 803d 9521 0abe
000002e0: 6544 8a3d 758b 1e3c c5d0 e8bd 772a a33d
000002f0: a26b 363e 5064 e13d e7ed 063e e146 8ebd
00000300: cdf8 d4bc f53b 9dbd a3cb 31be 8a26 433e
00000310: a581 213d d646 10be 4013 20be f441 bb3d
00000320: d6ed edbd f97e c4bd 1706 1fbe 31aa ccbd
00000330: 34e1 b53d 2886 bf3c d910 613c cb49 14be
00000340: 5f22 5fbd 08c5 b3bc 0946 d43d 6031 023e
00000350: f8cd 0fbe 3a4c 863c e311 cebd 1abb 83bd
00000360: 8450 a33d e973 0a3d 6dd4 debd dad7 073e
00000370: 7786 35bc 6bce a2bc 48ab 583d 7046 5d3c
00000380: 35c6 afbd 036e fcbd 6a2f 71bc 5327 813d
00000390: 5b60 043e c8f3 393e 0e13 343e 6d6e e93d
000003a0: 9806 3b3d 157a 583d ea38 87bd d9ee c63c
000003b0: 6326 383a 0865 b03d d59e aebd e2f2 093e
000003c0: 075f 75bd 8648 eb3d 7d60 b33c 6783 64be
000003d0: b2a4 fabd 4c31 c23d 8d80 383e 0e2f 37bd
000003e0: c225 4b3e 8b16 aebc 690f edbd ad36 4abe
000003f0: 8bad 2dbd 0a43 b53d 0064 ac3c db42 51be

4.bias f4 [64]
-0.00026732264 -0.0015766885 -9.691418e-05 -0.0011435306 -0.0012901352 0.001005135 -0.0011845144 -0.0006125323
-0.0016249 -0.0008089368 -0.0013122471 -0.00037211648 0.00074890495 -0.0013501318 -0.0004956645 -0.00069196825
0.0015367138 -0.0012314133 -6.318054e-05 -0.0013526322 0.00068050233 -0.0021070545 0.00035759088 -0.001129316
0.0016780051 0.0012368616 0.0019267851 0.0017468501 0.0006888169 0.0010708624 0.0009711422 -0.0017291957
0.0003046099 0.00089119724 -0.00119889 0.0015422524 0.0006207029 0.0011155971 0.0017698599 0.0017231335
0.00015894609 0.00061048707 -7.119407e-05 0.0019456708 -0.0011642561 0.00071630854 -0.00150693 0.0021490133
0.00087978086 0.00037953875 0.0012161963 0.0009396842 0.00011143667 0.00037999396 -0.0003319913 -0.00049602735
0.00037784645 0.0017101868 -0.0009944786 0.001464172 1.3248039e-06 0.00061036006 -0.0016008341 -0.00089183653
00000000: 7027 8cb9 e3a8 ceba 673e cbb8 85e2 95ba
00000010: c119 a9ba bcbe 833a b541 9bba 5992 20ba
00000020: 99fa d4ba d40e 54ba b5ff abba a118 c3b9
00000030: 2952 443a e8f6 b0ba 7bef 01ba 3465 35ba
00000040: 8f6b c93a 6067 a1ba cb7f 84b8 ce4a b1ba
00000050: bd63 323a 8216 0abb 097b bb39 8f05 94ba
00000060: 82f0 db3a 301e a23a 2e8c fc3a 90f6 e43a
00000070: b891 343a 2e5c 8c3a 4094 7e3a 2ea6 e2ba
00000080: 0cb4 9f39 3c9f 693a 1324 9dba 6725 ca3a
00000090: abb6 223a 3a39 923a a5fa e73a c4da e13a
000000a0: c4aa 2639 1809 203a 064e 95b8 e105 ff3a
000000b0: f499 98ba a7c6 3b3a 2e84 c5ba 76d6 0c3b
000000c0: 18a1 663a d4fc c639 c768 9f3a 2455 763a
000000d0: 1bb3 e938 ed39 c739 1e0f aeb9 d507 02ba
000000e0: b119 c639 5928 e03a 2a59 82ba 76e9 bf3a
000000f0: eacf b135 9200 203a 14d3 d1ba 23ca 69ba

5.weight f4 [64]
0.8747342 0.98557365 0.9680564 1.1099689 0.8863083 0.9921968 1.0045534 1.0174826
0.94709575 0.9607864 0.9263172 0.9284684 1.022752 0.97491574 0.9496708 0.981972
1.0062209 0.9805284 0.9146737 0.9856468 0.9457774 1.1850401 0.9712901 1.0080665
0.933249 1.0791082 0.9710904 1.0918562 0.91780084 1.0586433 0.94844884 1.0086424
0.94897306 0.9742963 1.1947227 1.1476297 1.060441 0.9706247 0.9379613 0.9827394
0.97969675 0.9389192 1.1118085 0.9019811 0.8606165 0.96083415 1.1461368 1.1560626
0.9378334 0.93458486 0.93574977 0.9358949 0.9859458 0.93468124 1.0259982 0.9551225
0.9520192 0.94459146 0.8824912 0.9902659 0.99223495 1.1375529 0.86250234 0.8716695
00000000: 95ee 5f3f 8e4e 7c3f 8bd2 773f 7613 8e3f
00000010: 1ae5 623f 9c00 7e3f 3595 803f df3c 823f
00000020: de74 723f 19f6 753f 2023 6d3f 1bb0 6d3f
00000030: 8ae9 823f 1494 793f a01d 733f 8462 7b3f
00000040: d9cb 803f e903 7b3f 0e28 6a3f 5953 7c3f
00000050: 781e 723f 65af 973f 78a6 783f 5308 813f
00000060: 68e9 6e3f 3820 8a3f 6199 783f f2c1 8b3f
00000070: fff4 6a3f a081 873f 8bcd 723f 321b 813f
00000080: e6ef 723f 7b6b 793f acec 983f 88e5 923f
00000090: 88bc 873f dc7a 783f 3b1e 703f cf94 7b3f
000000a0: 68cd 7a3f 025d 703f be4f 8e3f 3ce8 663f
000000b0: 5d51 5c3f 3af9 753f 9cb4 923f dcf9 933f
000000c0: da15 703f f440 6f3f 4c8d 6f3f cf96 6f3f
000000d0: f266 7c3f 4547 6f3f e953 833f e882 743f
000000e0: 88b7 733f bfd0 713f f1ea 613f 1182 7d3f
000000f0: 1c03 7e3f 559b 913f f4cc 5c3f bb25 5f3f

5.bias f4 [64]
-0.123564675 0.18575928 0.0066873613 0.035380673 -0.10548481 -0.09337925 0.0058925957 0.070297584
-0.030661637 -0.07033476 -0.08018383 -0.07255378 0.0029531233 0.062413596 -0.011220686 -0.049486265
-0.061433885 -0.07525063 -0.063770935 -0.013175103 -0.041082736 0.096923664 0.07021325 0.004969935
-0.0193024 0.026334804 -0.0214791 0.07885942 -0.064603046 0.034539964 -0.005209563 -0.0033311655
-0.05709466 0.017622037 0.14372122 -0.20108452 -0.059751764 0.0027134486 -0.049431168 0.00085192
-0.07986253 -0.02898229 -0.0064244 -0.09309666 -0.07518199 -0.049849685 -0.07581673 -0.013481245
0.0052295183 -0.040381435 -0.00992578 -0.08682003 0.020162562 0.021340597 -0.015103584 -0.03759292
-0.055290494 -0.052030735 -0.06303842 -0.04561848 -0.015105427 0.11525798 -0.113546535 -0.07377599
00000000: 7a0f fdbd ae37 3e3e a721 db3b 53eb 103d
00000010: 6c08 d8bd 9f3d bfbd ad16 c13b 2ef8 8f3d
00000020: 1d2e fbbc ac0b 90bd 6b37 a4bd 1497 94bd
00000030: 3089 413b 66a5 7f3d f8d6 37bc 1cb2 4abd
00000040: 19a2 7bbd 011d 9abd 569a 82bd 63dc 57bc
00000050: 5f46 28bd ea7f c63d f7cb 8f3d d6da a23b
00000060: 1120 9ebc 16bc d73c f0f4 afbc 0c81 a13d
00000070: 9a4e 84bd c779 0d3d fbb4 aabb af4f 5abb
00000080: 17dc 69bd 175c 903c a82b 133e 1ae9 4dbe
00000090: 44be 74bd 1dd4 313b 5678 4abd 6253 5f3a
000000a0: f78e a3bd 446c edbc c683 d2bb 76a9 bebd
000000b0: 04f9 99bd 2f2f 4cbd cd45 9bbd 71e0 5cbc
000000c0: 615c ab3b 0167 25bd bd9f 22bc b3ce b1bd
000000d0: f52b a53c 7ad2 ae3c 0675 77bc 09fb 19bd
000000e0: 4978 62bd 2e1e 55bd 4a1a 81bd 71da 3abd
000000f0: c17c 77bc 600c ec3d 168b e8bd de17 97bd

5.running_mean f4 [64]
0.2241399 -0.44893903 0.31708446 0.14623469 0.09441964 0.25540257 -0.24430227 0.08445119
-0.032328006 0.06115956 -0.12086252 0.13413222 -0.13734277 -0.537179 0.17861705 0.07364179
-0.070220195 0.10575534 0.1822225 -0.07319691 -0.094724365 0.04018697 -0.5444993 0.05246448
-0.28113523 -0.28097332 0.09198361 0.34940493 0.02362784 0.32407048 0.014051771 0.09676228
-0.20978977 0.24534546 0.14454897 0.24414493 -0.0013698281 -0.12920967 -0.033920012 0.12257887
0.17695798 -0.14158066 -0.41292125 -0.34468648 0.029647354 0.084290765 0.2502406 0.19845271
-0.046935108 -0.06882967 -0.23068456 -0.11433115 -0.27794966 -0.23081113 0.13969804 -0.111780815
0.12530646 -0.26869196 -0.0006295893 0.1601011 0.21413606 0.3742534 0.4222401 0.10978514
00000000: ee84 653e 56db e5be e558 a23e 8cbe 153e
00000010: 165f c13d 20c4 823e 602a 7abe bff4 ac3d
00000020: 5f6a 04bd 7282 7a3d c586 f7bd f559 093e
00000030: 95a3 0cbe 9084 09bf 63e7 363e 82d1 963d
00000040: 9bcf 8fbd 4196 d83d 8998 3a3e 43e8 95bd
00000050: d9fe c1bd 189b 243d 4e64 0bbf ffe4 563d
00000060: f5f0 8fbe bcdb 8fbe e761 bc3d 34e5 b23e
00000070: 2c8f c13c 91ec a53e 6639 663c 4d2b c63d
00000080: 21d3 56be d73b 7b3e a504 143e 2101 7a3e
00000090: ce8b b3ba 8a4f 04be b6ef 0abd a10a fb3d
000000a0: 7934 353e 85fa 10be 6a6a d3be bf7a b0be
000000b0: 02df f23c a3a0 ac3d 891f 803e 3037 4b3e
000000c0: 073f 40bd 92f6 8cbd 9338 6cbe 7326 eabd
000000d0: 6b4f 8ebe c159 6cbe 010d 0f3e 57ed e4bd
000000e0: 5650 003e fe91 89be 060b 25ba 8bf1 233e
000000f0: 7c46 5b3e 249e bf3e db2f d83e 08d7 e03d

5.running_var f4 [64]
0.3437325 0.26552895 0.27153745 0.29484344 0.16995804 0.14314672 0.13005641 0.25294328
0.14359072 0.23894833 0.2512736 0.15599386 0.27454025 0.24841017 0.19552322 0.25798324
0.3285443 0.1372897 0.13465878 0.11922697 0.33431628 0.21850067 0.17384359 0.24367942
0.24869922 0.36119857 0.086911134 0.3164266 0.13546175 0.20353168 0.2275781 0.28250688
0.29280746 0.14808924 0.31929147 0.20251183 0.21026479 0.3550796 0.11572849 0.20158239
0.17881341 0.25579646 0.09620925 0.10083898 0.14744453 0.1543876 0.36301443 0.23390725
0.28708 0.14892782 0.27907908 0.22746967 0.08299161 0.28055295 0.12397069 0.14197682
0.15607928 0.22888772 0.16137691 0.2699326 0.21726686 0.19955856 0.1416054 0.12503216
00000000: b5fd af3e 69f3 873e f506 8b3e b8f5 963e
00000010: 7b09 2e3e 0e95 123e 822d 053e c881 813e
00000020: 7209 133e dfae 743e efa6 803e dbbc 1f3e
00000030: 8a90 8c3e 3c5f 7e3e 3d37 483e 6116 843e
00000040: f536 a83e ac95 0c3e fee3 093e 452d f43d
00000050: 812b ab3e a4be 5f3e 0e04 323e 1987 793e
00000060: 02ab 7e3e 05ef b83e 77fe b13d ab02 a23e
00000070: 7cb6 0a3e 9c6a 503e 3c0a 693e bea4 903e
00000080: dcea 953e b5a4 173e 2c7a a33e 435f 4f3e
00000090: a74f 573e fecc b53e 0f03 ed3d 9d6b 4e3e
000000a0: dd1a 373e c1f7 823e 5b09 c53d ab84 ce3d
000000b0: b3fb 163e c817 1e3e 07dd b93e 6285 6f3e
000000c0: 26fc 923e 8980 183e 74e3 8e3e cfed 683e
000000d0: 81f7 a93d a3a4 8f3e 58e4 fd3d 5f62 113e
000000e0: 3fd3 1f3e 8b61 6a3e fd3f 253e 9b34 8a3e
000000f0: 347b 5e3e 1459 4c3e 0201 113e 6e08 003e

7.weight f4 [128, 64]
0.0030772407 -0.03487405 -0.055534728 0.0062126815 -0.0064959144 -0.089237936 0.1034193 -0.03100205
-0.07859627 0.11961624 0.1150331 -0.0607194 -0.061497316 -0.042767238 -0.036909714 0.11600692
0.10957565 0.05085177 0.034932796 -0.079763934 -0.050536215 0.058906075 0.03719878 0.069917396
0.05492419 0.13882498 -0.16285948 0.10155093 0.11870145 0.021250062 0.05041709 0.022243073
0.0063436884 -0.026699854 -0.0022058839 -0.060442436 -0.007005548 -0.021632044 0.09882425 -0.10968025
0.09293181 0.016706431 0.04055935 -0.06960662 -0.0631422 -0.15236975 -0.026623182 0.12060313
-0.07646844 -0.029727196 -0.12842037 -0.03819723 0.08901535 -0.1382658 0.052482612 -0.06380474
-0.055154733 -0.032556035 0.054372974 -0.0011266792 0.08766966 -0.059546474 -0.06445613 -0.052082494
-0.03778573 0.04796769 0.07505819 0.15098938 0.012818913 0.048340164 -0.020859102 -0.13904367
-0.030142605 -0.022451445 0.0490555 0.0563285 -0.030663254 -0.082894705 -0.1295858 -0.046775844
-0.08128779 -0.12281029 0.06053574 -0.064903945 -0.0030993596 0.077015065 0.061663564 -0.03916614
0.10554874 -0.055563737 -0.037987445 0.10256917 -0.0009801657 0.12407784 0.08461089 0.09581276
-0.0382333 0.13918285 0.049661268 -0.039247327 -0.06626532 0.04205409 -0.07786664 0.15576811
0.062425945 -0.100275196 -0.10823106 0.030540803 -0.008611757 -0.018991282 -0.030215496 0.087493725
0.062213562 0.060027663 -0.03553847 -0.047228146 -0.060900822 0.078382425 0.008834934 0.048590977
0.13982736 -0.04412782 -0.047370825 0.115815714 0.07244254 0.1379469 0.034592904 0.060399298
-0.0090206005 -0.1262619 -0.12832777 -0.05630423 0.031622093 -0.03184411 -0.09054419 -0.04928582
-0.15338154 0.0880575 0.03844486 0.024235303 0.04806153 -0.07791803 0.03337919 0.15658903
0.113556966 -0.025614178 0.009661703 0.13365854 -0.041245636 -0.075964 -0.041548103 -0.0040978887
0.02159894 0.092243366 -0.10820363 0.02092124 -0.0999053 0.06348188 -0.037415843 0.01865487
0.02383646 -0.07856423 0.020555798 0.040844504 0.10082969 -0.012697989 -0.08553329 0.0038679854
0.17545773 -0.018177828 0.027782978 -0.022929981 0.102836065 0.115148336 -0.0033098932 -0.020514179
0.011134948 -0.063002735 0.09757974 -0.09525707 0.058174763 -0.022134913 -0.11758206 -0.0068331426
0.024674121 -0.015651373 0.0080861775 -0.08517557 -0.100698724 -0.093898304 -0.04043321 -0.075520545
0.06809153 -0.102876656 -0.023492284 0.020283602 -0.121896304 0.06761035 -0.0438347 0.010510264
-0.02383476 -0.016328208 0.114379354 0.05485663 -0.06052572 -0.12864843 -0.11693936 0.00803211
0.064910576 -0.080781646 0.090551585 -0.092520885 0.032862555 0.02115135 -0.04468781 0.07230302
-0.1149699 0.09786396 0.0321409 -0.12486254 0.11729749 -0.00094355096 -0.08441797 -0.0070278873
0.024120571 -0.15047164 0.09897424 0.022883885 -0.023156641 -0.03438092 -0.03854968 0.06249591
0.13312717 -0.08165079 -0.008528654 -0.06900038 -0.09658924 -0.0830022 -0.0045987973 0.03975182
-0.061733954 0.07804521 -0.10489987 0.04204294 -0.112586506 0.0008933452 -0.06941065 0.08271635
-0.100304104 0.11067318 0.0025939133 0.044898193 0.08089388 -0.14165322 0.070115864 -0.111019015
00000000: 88ab 493b 18d8 0ebd 6278 63bd c093 cb3b
00000010: aedb d4bb 61c2 b6bd 7fcd d33d 03f8 fdbc
00000020: 15f7 a0bd 5cf9 f43d 7996 eb3d e8b4 78bd
00000030: 9ce4 7bbd b32c 2fbd a42e 17bd 0995 ed3d
00000040: 3369 e03d f249 503d b115 0f3d 465b a3bd
00000050: 10ff 4ebd 7f47 713d bf5d 183d da30 8f3d
00000060: 30f8 603d 2328 0e3e a3c4 26be eff9 cf3d
00000070: bf19 f33d 9c14 ae3c 2782 4e3d 1b37 b63c
00000080: b7de cf3b a7b9 dabc 9790 10bb 7d92 77bd
00000090: cc8e e5bb af35 b1bc 5e64 ca3d 0aa0 e0bd
000000a0: 0853 be3d eddb 883c 9021 263d ea8d 8ebd
000000b0: b350 81bd d106 1cbe dc18 dabc c6fe f63d
000000c0: 7c9b 9cbd 7386 f3bc a180 03be b374 1cbd
000000d0: ae4d b63d 8d95 0dbe 02f8 563d 0fac 82bd
000000e0: eee9 61bd 7a59 05bd 32b6 5e3d 15ad 93ba
000000f0: 278c b33d 01e7 73bd 9301 84bd 7454 55bd
00000100: 36c5 1abd c579 443d 1cb8 993d f69c 1a3e
00000110: 6b06 523c 5600 463d b5e0 aabc 7761 0ebe
00000120: a0ed f6bc 18ec b7bc 6cee 483d b7b8 663d
00000130: 8131 fbbc b3c4 a9bd 24b2 04be 0798 3fbd
00000140: 367a a6bd f683 fbbd 53f4 773d 5cec 84bd
00000150: a01e 4bbb 13ba 9d3d ef92 7c3d ad6c 20bd
00000160: f029 d83d cd96 63bd b998 1bbd c90f d23d
00000170: e778 80ba 861c fe3d 7948 ad3d 7b39 c43d
00000180: 859a 1cbd f385 0e3e 9d69 4b3d cec1 20bd
00000190: 1db6 87bd e940 2c3d 8c78 9fbd ad81 1f3e
000001a0: 59b2 7f3d 155d cdbd 3fa8 ddbd b530 fa3c
000001b0: 5418 0dbc 9b93 9bbc 7d86 f7bc e92f b33d
000001c0: a6d3 7e3d 91df 753d c990 11bd 4d72 41bd
000001d0: 2473 79bd f786 a03d 66c0 103c 5507 473d
000001e0: e72e 0f3e 5fbf 34bd e907 42bd ca30 ed3d
000001f0: c15c 943d f441 0d3e 4ab1 0d3d 4165 773d
00000200: 24cb 13bc cd4a 01be 5b68 03be 449f 66bd
00000210: 2b86 013d f86e 02bd 3b6f b9bd eedf 49bd
00000220: 0d10 1dbe 7e57 b43d 5c78 1d3d 1d89 c63c
00000230: 2bdc 443d 7d93 9fbd 9eb8 083d e058 203e
00000240: 8e90 e83d d3d4 d1bc 1f4c 1e3c c9dd 083e
00000250: 2ff1 28bd 0393 9bbd 582e 2abd 9547 86bb
00000260: 43f0 b03c 17ea bc3d dd99 ddbd 0563 ab3c
00000270: 269b ccbd ca02 823d 5b41 19bd 19d2 983c
00000280: ae44 c33c 48e6 a0bd a264 a83c 914c 273d
00000290: cc7f ce3d 3a0b 50bc 142c afbd 077e 7d3b
000002a0: 31ab 333e abe9 94bc 2199 e33c a8d7 bbbc
000002b0: b79b d23d e4d2 eb3d cbea 58bb 5a0d a8bc
000002c0: 5b6f 363c 9407 81bd e3d7 c73d 2416 c3bd
000002d0: a948 6e3d 4754 b5bc ddce f0bd 8ee8 dfbb
000002e0: 6221 ca3c 4f37 80bc e37b 043c 8770 aebd
000002f0: 223b cebd c14d c0bd 4b9d 25bd 84aa 9abd
00000300: 9273 8b3d ffb0 d2bd e472 c0bc cc29 a63c
00000310: c5a4 f9bd 4c77 8a3d 048c 33bd 3e33 2c3c
00000320: 1d41 c3bc bcc2 85bc b93f ea3d 58b1 603d
00000330: d1e9 77bd 6abc 03be e77d efbd 1c99 033c
00000340: d6ef 843d d970 a5bd 1c73 b93d 977b bdbd
00000350: e39a 063d 9945 ad3c 910a 37bd 9b13 943d
00000360: 5775 ebbd e66c c83d 2da6 033d eeb7 ffbd
00000370: ab39 f03d a258 77ba 54e3 acbd 314a e6bb
00000380: 8198 c53c 3d15 1abe 02b3 ca3d fc76 bb3c
00000390: ffb2 bdbc 02d3 0cbd 45e6 1dbd b6fb 7f3d
000003a0: 7d52 083e 8838 a7bd c5bb 0bbc 1250 8dbd
000003b0: 94d0 c5bd 0ffd a9bd 82b1 96bb ced2 223d
000003c0: bedc 7cbd 2bd6 9f3d bed5 d6bd 3835 2c3d
000003d0: c193 e6bd 622f 6a3a 2c27 8ebd 3167 a93d
000003e0: 3d6c cdbd 9fa8 e23d a5fe 293b 2be7 373d
000003f0: b1ab a53d 8b0d 11be e898 8f3d f05d e3bd

7.bias f4 [128]
-0.00043624404 0.00017546744 0.0007249112 -0.0005425135 0.0012931018 -0.00026200828 0.0011297681 0.0008721605
0.00082191546 0.0006899732 -0.0004479748 -0.0011988627 0.0013375707 -4.8911115e-05 -0.0006559886 0.0003633759
0.0007471509 -8.5809144e-05 -0.0008046218 0.00015148689 0.000280689 -0.00070089736 0.00093899714 3.930718e-05
0.0011817183 0.0007981077 -0.00053900015 0.0012853454 0.0004261279 0.00065544544 0.00037781076 0.00033482336
0.0011577203 -5.706825e-05 -0.0009113405 -0.00070144754 -0.0008337967 0.0011541669 -0.00034340605 0.0012697895
0.00020300978 0.0012720664 0.0010379237 -0.00035116955 -0.00091683486 -6.408888e-05 0.0007811148 0.0010366392
-0.00086547295 -0.0011916315 0.0012323008 -0.00072240573 -0.0010962846 -6.064999e-05 -0.0009571669 -0.00019041596
-0.0008391282 -6.884158e-05 -0.00081233436 0.0011658198 -0.0003830124 -4.5867968e-05 0.0011639685 -0.0011469747
-9.9849116e-05 -0.00037946732 0.00014298418 -1.7011696e-05 0.0010386074 0.00095092 0.00010540153 -0.001431227
0.00057603704 -0.00049707905 -0.0013285181 -0.000766458 0.0013067883 0.0009128616 -0.000100605415 -0.0007834739
5.8040976e-05 -0.0009702226 0.0007409097 0.00015548518 -0.0011803696 0.0012489106 0.0011592826 -0.00039241367
5.7422836e-05 -0.0013501114 -3.845258e-05 -0.000378785 0.0011989846 0.0011478241 0.0010174487 0.0007395948
-0.00045581578 -6.958354e-05 0.00043444955 0.000601582 -8.134911e-05 0.00068732793 0.00018653236 0.00043393412
0.0009933711 -0.0009877054 0.00057240884 0.00017278946 -0.00060071814 -0.0010595418 0.00054641714 0.00011387652
-0.0011513865 -0.0005331098 0.00015280138 0.0004049747 0.00066552043 0.0005281091 -0.0013510312 -0.00013705017
0.0011363439 0.0009275672 -5.1294846e-05 0.00038641313 -6.284039e-07 -0.0011371317 0.00042454037 0.00013478244
00000000: afb7 e4b9 affd 3739 f807 3e3a 7737 0eba
00000010: 4c7d a93a 285e 89b9 ba14 943a b3a1 643a
00000020: d075 573a 51df 343a 29de eab9 2823 9dba
00000030: 6d51 af3a e925 4db8 a6f6 2bba 7d83 be39
00000040: 73dc 433a 6ff4 b3b8 41ed 52ba 74d8 1e39
00000050: 7129 9339 6dbc 37ba 0827 763a c3dd 2438
00000060: e3e3 9a3a 1a38 513a b04b 0dba 0979 a83a
00000070: eb69 df39 33d2 2b3a e714 c639 3b8b af39
00000080: a6be 973a 915c 6fb8 07e7 6eba 59e1 37ba
00000090: 2693 5aba 6a47 973a 2e0b b4b9 116f a63a
000000a0: 06df 5439 77bb a63a f10a 883a 2e1d b8b9
000000b0: bf57 70ba 7567 86b8 bac3 4c3a d7df 873a
000000c0: e8e0 62ba 8530 9cba 2785 a13a d45f 3dba
000000d0: 35b1 8fba 6e62 7eb8 62ea 7aba 65aa 47b9
000000e0: f1f8 5bba 0b5f 90b8 d6f2 54ba 6cce 983a
000000f0: 0ecf c8b9 5b62 40b8 4d90 983a 1656 96ba
00000100: 1666 d1b8 3ef3 c6b9 06ee 1539 57b4 8eb7
00000110: e221 883a 2947 793a 040b dd38 0298 bbba
00000120: 3101 173a 694e 02ba ac21 aeba 20ec 48ba
00000130: 8a48 ab3a 1b4d 6f3a 1ffc d2b8 0b62 4dba
00000140: 0671 7338 8956 7eba 9c39 423a bc09 2339
00000150: a2b6 9aba 7cb2 a33a 12f3 973a dfbc cdb9
00000160: 4dd9 7038 39f6 b0ba 2548 21b8 a997 c6b9
00000170: 3f27 9d3a 9672 963a ea5b 853a 5ee1 413a
00000180: 8ffa eeb9 61ed 91b8 d5c6 e339 7cb3 1d3a
00000190: f999 aab8 cc2d 343a e697 4339 a781 e339
000001a0: 0134 823a e575 81ba b50d 163a d12e 3539
000001b0: 8379 1dba 53e0 8aba 6f3d 0f3a fed0 ee38
000001c0: 1fea 96ba 65c0 0bba 4f39 2039 c952 d439
000001d0: 5276 2e3a cd70 0a3a 1615 b1ba 20b5 0fb9
000001e0: 60f1 943a fb27 733a 6c25 57b8 7e97 ca39
000001f0: 96af 28b5 cf0b 95ba d894 de39 6354 0d39

8.weight f4 [128]
0.9054902 1.0790238 0.87474895 0.877842 0.9730952 0.8262965 0.9104649 1.0285745
0.8721111 0.9942816 0.92554855 0.9913177 0.9344953 1.0268743 0.95198303 0.8990929
0.9584536 1.1458834 0.95913875 0.93730307 1.0053556 1.0869609 1.0630732 1.1282957
0.98279476 1.0257816 1.1599752 0.87337536 0.9581886 0.98740375 1.07887 1.0291282
0.96301246 1.0119289 1.0073335 0.9160501 0.8874949 0.9433627 1.0606102 1.1200676
1.0815214 1.0016558 1.040543 1.0109047 0.9788818 0.9237993 0.9882507 0.91890734
0.9268133 1.0523238 1.0645386 0.9923898 0.90272933 1.0910484 0.94606894 0.96433526
0.92966086 1.0164994 0.8870065 0.9135433 0.8858857 1.0345954 1.0454334 0.95700824
0.9317836 1.0049353 0.9922581 0.82458276 0.99759275 0.92691356 1.0643216 1.133123
0.9045652 1.0305151 1.0412406 0.9208014 0.87497395 0.8702668 0.9770333 0.9365694
0.9176456 0.86759466 0.8584591 0.92677516 0.95696133 0.81363285 1.0660924 1.0760013
1.1557707 0.9116503 0.84855723 0.8567278 0.88499707 1.0373566 0.94303256 1.0646223
0.9047269 1.1352003 0.9505023 0.9404064 1.0842767 1.1004596 1.0632668 0.9361205
1.138924 0.92601174 0.87624454 0.8986433 1.0268536 1.0204382 0.9535377 0.83372927
1.0291657 0.96685684 0.99647605 1.0347264 1.0244935 0.80613583 1.0230925 0.9711824
1.0140325 0.9198504 0.94255525 1.0636134 0.96875036 0.9012679 0.98359174 0.98533815
00000000: 35ce 673f 741d 8a3f 8cef 5f3f 41ba 603f
00000010: c41c 793f 2b88 533f 3a14 693f 54a8 833f
00000020: ac42 5f3f 3d89 7e3f c0f0 6c3f ffc6 7d3f
00000030: 153b 6f3f 9e70 833f 29b5 733f f42a 663f
00000040: 375d 753f 4fac 923f 1e8a 753f 18f3 6f3f
00000050: 7eaf 803f 8921 8b3f c812 883f fe6b 903f
00000060: 7098 7b3f d04c 833f 117a 943f 8795 5f3f
00000070: d94b 753f 7ec6 7c3f 6a18 8a3f 79ba 833f
00000080: fc87 763f e386 813f 4ef0 803f 4282 6a3f
00000090: de32 633f 3880 713f 13c2 873f 605e 8f3f
000000a0: 4b6f 8a3f 4236 803f 8330 853f 5365 813f
000000b0: ff97 7a3f 1c7e 6c3f fffd 7c3f 833d 6b3f
000000c0: a343 6d3f 8cb2 863f cd42 883f 420d 7e3f
000000d0: 4519 673f 79a7 8b3f 9331 723f adde 763f
000000e0: 41fe 6d3f a71c 823f dc12 633f f9dd 693f
000000f0: 68c9 623f 9f6d 843f c3d0 853f 7efe 743f
00000100: 5f89 6e3f b8a1 803f a004 7e3f db17 533f
00000110: 3d62 7f3f 354a 6d3f b13b 883f 2d0a 913f
00000120: 9691 673f ebe7 833f 5f47 853f a4b9 6b3f
00000130: 4bfe 5f3f cec9 5e3f db1e 7a3f 03c3 6f3f
00000140: d2ea 6a3f af1a 5e3f fac3 5b3f 2341 6d3f
00000150: 6bfb 743f 3e4a 503f b775 883f 69ba 893f
00000160: 4bf0 933f ea61 693f 0c3b 593f 8352 5b3f
00000170: 2b8f 623f 1ac8 843f 956a 713f 8b45 883f
00000180: 2f9c 673f 3e4e 913f 1e54 733f 79be 703f
00000190: 94c9 8a3f dcdb 8c3f 2019 883f 98a5 6f3f
000001a0: 43c8 913f 1b0f 6d3f 9051 603f 7d0d 663f
000001b0: f06f 833f b89d 823f 0c1b 743f 486f 553f
000001c0: b4bb 833f ee83 773f 0e19 7f3f ea71 843f
000001d0: 9a22 833f eb5e 4e3f b2f4 823f 699f 783f
000001e0: d1cb 813f 517b 6b3f 4d4b 713f 7c24 883f
000001f0: 0600 783f 7eb9 663f abcc 7b3f 1f3f 7c3f

8.bias f4 [128]
-0.12665735 -0.06910887 -0.09622105 -0.054116428 0.04590576 -0.1478794 -0.028990796 -0.07590323
-0.06616999 -0.14785954 -0.07271818 0.0034363149 -0.17298093 -0.10650014 -0.035183143 -0.16313475
0.10546759 0.051342204 -0.04787327 -0.061958756 -0.07216811 0.092203215 0.06593459 0.08896064
-0.03216593 -0.112843014 0.082377955 -0.08465861 -0.03756477 -0.19969721 -0.45606914 -0.21957836
-0.18234886 -0.33099 -0.18319866 -0.047561187 -0.10155549 -0.06359589 -0.44850942 0.099329636
-0.37712926 -0.25414976 -0.10632466 -0.10058693 -0.10540719 -0.04462542 -0.041212913 -0.11111882
-0.017404992 -0.09142143 0.087454446 -0.1343979 -0.104474895 -0.4748875 -0.08979018 -0.05791655
-0.010658479 -0.26709715 -0.0332728 -0.049341507 -0.09874786 -0.08523649 0.102685034 0.02553531
-0.04571213 0.06950416 -0.2243461 -0.1167688 0.13203828 -0.11605661 -0.18048406 0.11471876
-0.041810874 0.08414821 -0.13237855 -0.03621271 -0.044100843 -0.09137051 0.04902808 -0.042169772
-0.13810697 -0.10199885 -0.11312146 -0.092007905 -0.09000609 -0.12821169 -0.32603785 -0.1670186
0.10253325 -0.060732752 -0.11299305 -0.11744285 -0.0054205293 -0.32606348 -0.10808009 -0.3864766
-0.06128894 -0.50348425 -0.16113004 -0.0009611655 0.08851447 0.050141722 0.110288635 -0.07418882
0.057074226 -0.21194586 -0.005619254 -0.11997601 -0.18219277 -0.22169918 0.023528146 -0.10636399
-0.19576298 -0.22350645 -0.23199508 -0.1396241 -0.31815442 -0.13965958 -0.2859656 -0.08460997
-0.088925414 -0.12980607 -0.063995935 0.050061952 -0.10498984 -0.09933371 0.05183397 -0.11721963
00000000: 77b2 01be f488 8dbd 8b0f c5bd 30a9 5dbd
00000010: ae07 3c3d b36d 17be 1b7e edbc 2773 9bbd
00000020: 2284 87bd 7e68 17be 45ed 94bd cc33 613b
00000030: ea21 31be bf1c dabd 331c 10bd cc0c 27be
00000040: 64ff d73d 344c 523d c316 44bd 77c8 7dbd
00000050: e0cc 93bd 0ad5 bc3d b708 873d ff30 b63d
00000060: 6cc0 03bd 3d1a e7bd c6b5 a83d 7e61 adbd
00000070: 84dd 19bd 6d7d 4cbe e581 e9be 26d9 60be
00000080: a9b9 3abe 8577 a9be 6e98 3bbe 85cf 42bd
00000090: 53fc cfbd 903e 82bd 07a3 e5be 566d cb3d
000000a0: 1617 c1be eb1f 82be bec0 d9bd 8500 cebd
000000b0: badf d7bd 25c9 36bd dfce 28bd 4492 e3bd
000000c0: ea94 8ebc 293b bbbd 511b b33d 9a9f 09be
000000d0: eff6 d5bd 7424 f3be eae3 b7bd e839 6dbd
000000e0: e7a0 2ebc f5c0 88be 0f49 08bd 521a 4abd
000000f0: 513c cabd 7890 aebd 884c d23d 6d2f d13c
00000100: a43c 3bbd 3258 8e3d fcba 65be 7b24 efbd
00000110: 0b35 073e 17af edbd d0d0 38be abf1 ea3d
00000120: e141 2bbd e655 ac3d 3e8e 07be c753 14bd
00000130: 16a3 34bd 7620 bbbd abd1 483d 36ba 2cbd
00000140: ea6b 0dbe c6e4 d0bd 39ac e7bd a46e bcbd
00000150: 1d55 b8bd ed49 03be 6fee a6be ed06 2bbe
00000160: f4fc d13d e8c2 78bd e668 e7bd e085 f0bd
00000170: b29e b1bb cbf1 a6be 1859 ddbd 43e0 c5be
00000180: 1d0a 7bbd 58e4 00bf 46ff 24be baf6 7bba
00000190: 1347 b53d 6861 4d3d 02df e13d 4ff0 97bd
000001a0: aac6 693d 5608 59be b821 b8bb fbb5 f5bd
000001b0: be90 3abe 1c05 63be 19be c03c 5dd5 d9bd
000001c0: 1776 48be e0de 64be 1e90 6dbe 9ff9 0ebe
000001d0: 23e5 a2be ec02 0fbe 156a 92be fe47 adbd
000001e0: 871e b6bd e2eb 04be 4d10 83bd c30d 4d3d
000001f0: ea04 d7bd 796f cbbd db4f 543d d810 f0bd

8.running_mean f4 [128]
0.010852645 0.31652167 -0.16395712 -0.25595114 -0.64647263 -0.51829225 0.006748874 0.18868566
0.41219714 0.46662208 -0.18276145 -0.5230157 0.2097954 0.18605447 -0.1958027 0.49513158
-0.6217996 -0.6566289 0.21730138 -0.07556028 -0.061851498 -0.568224 -0.6140202 -0.6880153
-0.2988057 -0.27819043 -0.70132923 0.071414165 -0.24534747 0.32848537 0.28409347 0.1124484
0.32418072 0.012303608 0.30749348 -0.03514502 -0.17916234 0.17378703 0.014767993 -0.615962
0.020314883 -0.01336612 0.1252183 0.4481488 0.47533455 -0.10427934 -0.77698195 -0.0495103
-0.28181502 0.11308682 -0.5019952 0.531837 -0.007499855 -0.08489332 0.072003774 0.07107979
-0.031930666 0.28435424 0.0052662175 0.013615795 -0.084057815 0.3287671 -0.44760785 -0.32306162
-0.10995756 -0.6366816 0.20910765 0.23002484 -0.55570656 0.47045064 0.22512916 -0.73884326
-0.36987513 -0.6535348 0.35390538 -0.042462528 -0.32054555 0.08737357 -0.6753344 -0.22625361
0.3995389 0.36251855 0.346516 0.116975494 0.18536843 0.21447198 -0.120887846 0.10774369
-0.7399101 0.013954857 0.30921426 0.2050298 -0.44989 0.102422446 0.1746221 0.11648644
-0.28285542 0.011242835 0.08276188 -0.32205433 -0.81293315 -0.8623167 -0.66198605 0.03175598
-0.8240197 -0.1152965 -0.39049953 0.13381624 -0.05425071 0.61629415 -0.5364524 -0.1580493
0.16452232 0.06370537 0.14329965 0.2999309 0.11879109 0.043657575 -0.059528075 0.27114272
0.14672238 0.14357781 -0.23743115 -0.75651526 0.25944713 -0.03399723 -0.7751721 0.21347924
00000000: 4bcf 313c 210f a23e 60e4 27be 070c 83be
00000010: 3b7f 25bf cdae 04bf a925 dd3b d036 413e
00000020: 810b d33e 17e9 ee3e d125 3bbe 5be4 05bf
00000030: 9bd4 563e 1085 3e3e 8180 48be e381 fd3e
00000040: 422e 1fbf d518 28bf 4184 5e3e 59bf 9abd
00000050: ff57 7dbd 2177 11bf 6e30 1dbf c521 30bf
00000060: 10fd 98be fa6e 8ebe 508a 33bf 9741 923d
00000070: 5e3c 7bbe 3c2f a83e b374 913e 594b e63d
00000080: 04fb a53e 1295 493c c96f 9d3e 39f4 0fbd
00000090: 5576 37be 3af5 313e 74f5 713c b0af 1dbf
000000a0: 666b a63c 92fd 5abc 3a39 003e c273 e53e
000000b0: 0d5f f33e 6890 d5bd 4ae8 46bf 50cb 4abd
000000c0: 0f4a 90be 109a e73d c282 00bf 7826 083f
000000d0: 58c1 f5bb 8ddc adbd b776 933d 4892 913d
000000e0: bbc9 02bd e196 913e 3c90 ac3b c914 5f3c
000000f0: 8126 acbd 2954 a83e db2c e5be 5568 a5be
00000100: 6e31 e1bd 91fd 22bf 5120 563e a28b 6b3e
00000110: c942 0ebf e8de f03e 4288 663e d524 3dbf
00000120: 4660 bdbe 0f4e 27bf 1633 b53e 30ed 2dbd
00000130: 8c1e a4be eaf0 b23d b7e2 2cbf 07af 67be
00000140: 5d90 cc3e 089c b93e 8c6a b13e d990 ef3d
00000150: 39d1 3d3e 8b9e 5b3e 0c94 f7bd b9a8 dc3d
00000160: c06a 3dbf eaa2 643c 5551 9e3e 55f3 513e
00000170: fb57 e6be dcc2 d13d 23d0 323e 7190 ee3d
00000180: 6dd2 90be de33 383c 0f7f a93d 4ee4 a4be
00000190: 631c 50bf cac0 5cbf eb77 29bf 8f12 023d
000001a0: f4f2 52bf 9220 ecbd 8eef c7be 2007 093e
000001b0: fe35 5ebd 74c5 1d3f f254 09bf add7 21be
000001c0: 8a78 283e f677 823d 25bd 123e 8b90 993e
000001d0: be48 f33d 49d2 323d b6d3 73bd 38d3 8a3e
000001e0: 643e 163e 1006 133e 2721 73be fcaa 41bf
000001f0: 41d6 843e ae40 0bbd ae71 46bf 4d9a 5a3e

8.running_var f4 [128]
0.552112 0.7039205 0.10899863 0.5010996 0.8644249 0.8143813 0.7697611 0.79214585
0.34771606 0.20488858 0.39793497 0.2671677 0.20455879 0.2857179 0.4871467 0.2968159
0.72658813 1.123146 0.39245266 0.36782068 0.537484 0.7924825 0.31943375 0.7582173
0.42925683 0.3573617 0.5668803 0.7611279 0.65962756 0.9461001 0.5025403 0.7238678
1.1248599 0.5193234 0.39503184 0.5609138 0.36857265 0.28290617 0.504667 0.7086794
0.5114221 0.9158926 0.5374249 0.59480625 0.5618405 0.57860976 0.4893038 0.34587866
0.44824764 0.85026383 0.8701592 0.48092976 0.5505259 0.44028318 0.5730581 0.6132097
0.38272914 1.0238283 0.67938083 0.48981097 0.27731916 0.8500519 0.32720658 0.4123334
0.4456688 1.1967932 0.6373122 0.5073295 1.0437222 0.6062579 0.98563313 1.3585949
0.5795855 0.99103314 0.6196136 0.5926691 0.4891627 0.40740508 0.7478083 0.40969232
0.2775863 0.087899566 0.31325695 0.3242801 0.5618407 0.5429941 0.3871343 0.72729695
0.94433624 0.2903919 0.39144725 0.5131443 0.58156824 0.44134787 0.26568326 0.53676677
0.3358195 0.36853242 0.54631287 0.59795135 0.61093545 0.7573536 1.1418073 0.49623916
0.76198995 0.4085567 0.81856775 0.45084578 0.5338693 0.35295853 0.4980329 0.29135588
0.95058006 1.0075445 0.5257049 1.0942906 0.7224276 0.38647875 0.393537 0.48687547
0.73059684 0.4318759 0.31463304 0.91611 0.2722334 0.33136916 0.85398 0.38326806
00000000: 3657 0d3f 2234 343f ac3a df3d 1048 003f
00000010: f34a 5d3f 4b7b 503f 100f 453f 12ca 4a3f
00000020: d707 b23e 50ce 513e 22be cb3e 34ca 883e
00000030: dc77 513e 9e49 923e 4b6b f93e 41f8 973e
00000040: ae01 3a3f 40c3 8f3f 8eef c83e fe52 bc3e
00000050: 8d98 093f 22e0 4a3f d28c a33e 871a 423f
00000060: 8dc7 db3e 1df8 b63e 111f 113f 47d9 423f
00000070: 5add 283f 9e33 723f 7ba6 003f 664f 393f
00000080: 69fb 8f3f 61f2 043f 9d41 ca3e 0c98 0f3f
00000090: 8eb5 bc3e 14d9 903e db31 013f 036c 353f
000000a0: 8fec 023f f077 6a3f ae94 093f 3945 183f
000000b0: c7d4 0f3f c51f 143f 0786 fa3e 0217 b13e
000000c0: b780 e53e e4aa 593f c1c2 5e3f 6d3c f63e
000000d0: 44ef 0c3f cc6c e13e f0b3 123f 50fb 1c3f
000000e0: 13f5 c33e ce0c 833f e7eb 2d3f 81c8 fa3e
000000f0: c7fc 8d3e 009d 593f 9f87 a73e 5d1d d33e
00000100: b32e e43e 8530 993f e426 233f 59e0 013f
00000110: b098 853f b833 1b3f 7452 7c3f 70e6 ad3f
00000120: b75f 143f 59b4 7d3f ff9e 1e3f 2ab9 173f
00000130: 8973 fa3e 6697 d03e 5d70 3f3f 31c3 d13e
00000140: cb1f 8e3e b004 b43d 3763 a03e 0b08 a63e
00000150: cbd4 0f3f a901 0b3f 7836 c63e 2230 3a3f
00000160: 05c0 713f 3fae 943e c66b c83e 6d5d 033f
00000170: a8e1 143f 59f8 e13e a307 883e 8c69 093f
00000180: 89f0 ab3e 48b0 bc3e 29db 0b3f 5713 193f
00000190: 4466 1c3f ede1 413f be26 923f 0f13 fe3e
000001a0: c611 433f 582e d13e a88d 513f 42d5 e63e
000001b0: a9ab 083f fbb6 b43e 2bfe fe3e 992c 953e
000001c0: 3759 733f 38f7 803f 9994 063f b711 8c3f
000001d0: 04f1 383f 8be0 c53e af7d c93e be47 f93e
000001e0: 6508 3b3f d71e dd3e 9517 a13e 2f86 6a3f
000001f0: 2d62 8b3e 38a9 a93e 6f9e 5a3f b63b c43e
