AEGAN/weights/discriminatorlatent 150 Epoch.pth (torch, 194876 bytes, 25 tensors)

1.weight f4 [32, 16]
-0.037347738 -0.23545772 0.101876244 0.10714059 0.21143751 -0.13239469 0.24215943 -0.1652789
0.19156903 -0.046671476 0.022547428 0.19521722 0.17125143 -0.08690567 -0.08086934 -0.14932673
-0.07503479 -0.06974572 -0.30168578 -0.14841184 0.064073116 0.026326213 0.07075837 0.017846324
0.2222655 0.13858281 -0.020736162 -0.1597447 -0.24090746 -0.1983289 0.19546063 -0.21018745
0.09120947 0.050936922 -0.06412365 -0.16197394 -0.07966306 0.15713774 0.2255741 -0.16777161
-0.13765742 -0.14732033 0.1398846 0.21076478 -0.24933043 0.010527012 0.13899553 0.2115544
0.12667428 0.041842464 -0.119807914 -0.085206494 0.015506729 0.15962116 -0.014026034 -0.102282055
0.053329192 -0.18526651 -0.1826203 -0.009825148 0.16386995 -0.15283199 0.17198344 0.13988937
0.118002586 0.06354212 0.10256453 -0.21181944 0.08776619 -0.14477026 0.106713004 -0.021536315
0.20053963 0.079983816 0.15197945 0.017061641 -0.16007285 -0.09966099 0.13899976 -0.107070416
-0.10493728 0.13482684 0.10581249 -0.16325259 0.23477735 -0.10324683 0.1484036 0.13325153
-0.1282971 0.09068689 0.16715866 0.038777858 0.11080282 0.0103079965 0.10435638 0.028963607
-0.1872352 0.09558322 0.10056079 -0.124707066 -0.011101942 -0.19831759 0.17531893 0.25942138
-0.14116554 0.25886852 0.09844357 -0.053953562 0.07653008 -0.095549606 0.16177273 0.040259536
0.13552397 -0.18702127 -0.04356832 0.13072109 0.22787297 0.123707145 0.1137982 0.05102007
-0.08101982 0.14345115 0.2371493 -0.31196147 0.03931925 -0.10622425 0.21120006 -0.17016765
0.05053632 -0.14864133 0.0062797884 -0.2745916 0.090922154 -0.16070315 -0.10406615 -0.08139517
-0.3736298 0.12870154 0.13775215 0.20109825 -0.012987311 -0.25047407 0.030927448 -0.17034775
-0.010361077 0.1147631 -0.2202738 -0.14294446 0.0802889 0.008876389 -0.16978765 0.16483724
0.20595925 0.05485742 0.04000045 0.063263655 0.22273023 0.04594739 0.14137393 0.17402636
-0.028780889 0.17727692 0.109200835 0.06359567 -0.060151387 0.11351817 0.19911323 0.2237262
-0.058966283 0.19130097 -0.017180536 0.06678006 -0.27968472 -0.20164706 0.03736128 0.13930197
-0.28179288 0.15850724 -0.043443426 0.02525252 -0.1367099 0.057709463 0.23944643 0.22771454
0.047387756 -0.16493492 0.1348489 0.09089539 -0.15704931 -0.1917454 0.07641274 -0.0977418
-0.15209264 0.0027790482 -0.27608246 0.16344619 -0.03519414 -0.009645523 -0.030688021 -0.042318806
-0.06583671 0.108971834 0.2294525 0.13908407 -0.032474313 0.080417976 0.17629129 0.26505288
-0.15871823 0.016750434 0.20596771 -0.028017648 -0.24646279 0.046202138 0.023729835 0.2022845
0.13910256 0.023003556 0.057055887 -0.05158106 -0.08341556 0.031148445 0.24039537 -0.3199226
-0.04539746 -0.15557465 -0.1462044 -0.024892421 -0.0484829 0.25869885 -0.23214072 -0.23029749
0.08489461 -0.1641346 0.09806744 -0.11118518 0.19783042 -0.04162042 0.11266353 0.11879237
0.28740206 -0.16706564 -0.05823929 0.19922175 0.004736937 0.15009345 0.06439852 -0.056259282
0.0675975 -0.18458442 -0.1617008 0.016100176 0.12722476 0.20227529 -0.22629996 0.0752255
00000000: f1f9 18bd d41b 71be 7ea4 d03d 876c db3d
00000010: 1383 583e 7992 07be a4f8 773e df3e 29be
00000020: ac2a 443e 972a 3fbd 62b5 b83c 06e7 473e
00000030: 895c 2f3e 9afb b1bd d39e a5bd 1be9 18be
00000040: d7ab 99bd d8d6 8ebd 8f76 9abe 46f9 17be
00000050: c438 833d 12aa d73c c4e9 903d 7432 923c
00000060: 9199 633e a7e8 0d3e e2de a9bc 1d94 23be
00000070: 72b0 76be bb16 4bbe d526 483e 613b 57be
00000080: 08cc ba3d 3ca3 503d 4353 83bd 7fdc 25be
00000090: 6326 a3bd b7e8 203e e6fc 663e 52cc 2bbe
000000a0: 11f6 0cbe 24db 16be e93d 0f3e b9d2 573e
000000b0: 7a50 7fbe 7d79 2c3c d854 0e3e b7a1 583e
000000c0: e7b6 013e 0163 2b3d da5d f5bd be80 aebd
000000d0: ef0f 7e3c bb73 233e 73cd 65bc 4179 d1bd
000000e0: b66f 5a3d 81b6 3dbe d100 3bbe a8f9 20bc
000000f0: 86cd 273e fd7f 1cbe 6d1c 303e 293f 0f3e
00000100: 57ab f13d 5f22 823d 5a0d d23d 32e7 58be
00000110: c3be b33d a83e 14be 598c da3d ed6c b0bc
00000120: 435a 4d3e 8ece a33d 80a0 1b3e dbc4 8b3c
00000130: 23ea 23be 101b ccbd f455 0e3e bc47 dbbd
00000140: 5be9 d6bd 0c10 0a3e 38b4 d83d b02b 27be
00000150: 7969 703e 1373 d3bd 1df7 173e 1773 083e
00000160: 5160 03be 0cba b93d a42b 2b3e 88d5 1e3d
00000170: 97ec e23d dfe2 283c ccb8 d53d 1645 ed3c
00000180: 96ba 3fbe 23c1 c33d d1f2 cd3d 6b66 ffbd
00000190: ebe4 35bc c413 4bbe ce86 333e e1d2 843e
000001a0: b38d 10be 6a8a 843e c89c c93d 69fe 5cbd
000001b0: cdbb 9c3d 83af c3bd c0a7 253e 2fe7 243d
000001c0: ccc6 0a3e 8182 3fbe b274 32bd c0db 053e
000001d0: 8857 693e 2c5a fd3d 080f e93d 6cfa 503d
000001e0: b8ed a5bd dce4 123e 44d7 723e 6ab9 9fbe
000001f0: 390d 213d 198c d9bd d444 583e 6e40 2ebe
00000200: 2cff 4e3d 6f35 18be afc6 cd3b 4597 8cbe
00000210: 6535 ba3d 5e8f 24be a220 d5bd 83b2 a6bd
00000220: 684c bfbe 56ca 033e e60e 0d3e b3ec 4d3e
00000230: bbc8 54bc 233e 80be 8f5b fd3c a46f 2ebe
00000240: 82c1 29bc eb08 eb3d 748f 61be 0860 12be
00000250: 826e a43d 466e 113c d0dc 2dbe 18cb 283e
00000260: fbe6 523e 2db2 603d 83d7 233d 6090 813d
00000270: 6513 643e 5533 3c3d 54c4 103e f733 323e
00000280: e6c5 ebbc 1588 353e b0a4 df3d 723e 823d
00000290: 4d61 76bd 377c e83d 57e4 4b3e 7b18 653e
000002a0: a186 71bd 67e4 433e 32be 8cbc fcc3 883d
000002b0: d632 8fbe 917c 4ebe 2408 193d 2da5 0e3e
000002c0: 2847 90be b94f 223e bcf1 31bd 5fde ce3c
000002d0: aefd 0bbe c260 6c3d 7231 753e 002e 693e
000002e0: aa19 423d b3e4 28be d415 0a3e 5d27 ba3d
000002f0: 89d1 20be e858 44be 487e 9c3d da2c c8bd
00000300: 2cbe 1bbe b120 363b ae5a 8dbe 705e 273e
00000310: bb27 10bd 4108 1ebc 7265 fbbc 7c56 2dbd
00000320: 66d5 86bd a02c df3d 99f5 6a3e 0e6c 0e3e
00000330: c903 05bd 2eb2 a43d b485 343e 03b5 873e
00000340: 0887 22be 3538 893c 33e9 523e 4485 e5bc
00000350: be60 7cbe 743e 3d3d 1265 c23c ab23 4f3e
00000360: e770 0e3e f471 bc3c 6fb3 693d a946 53bd
00000370: c7d5 aabd 062b ff3c 342a 763e e5cc a3be
00000380: b0f2 39bd f64e 1fbe 9bb6 15be 31eb cbbc
00000390: 0196 46bd 2d74 843e 4cb6 6dbe 1bd3 6bbe
000003a0: 3add ad3d e712 28be 95d7 c83d 0eb5 e3bd
000003b0: 0f94 4a3e 2c7a 2abd 23bc e63d 6a49 f33d
000003c0: 5d26 933e 4113 2bbe 528c 6ebd c900 4c3e
000003d0: 4f38 9b3b 19b2 193e 5fe3 833d 2270 66bd
000003e0: 8f70 8a3d b303 3dbe e594 25be 84e4 833c
000003f0: 3547 023e 4121 4f3e 2dbb 67be d40f 9a3d

1.bias f4 [32]
-0.00011039122 0.00028515715 -0.0002175138 -0.00037408827 0.00031626353 0.00021094781 -0.00019854464 -0.00024197041
-0.00022140506 0.00034471203 0.0006813828 0.00029993575 0.00025046614 -0.0005215452 0.00018705176 0.0004934713
9.386226e-05 -0.00027432098 -0.00057036884 0.0012820297 -0.00031488447 0.00081379 2.1206597e-06 -0.0007495672
0.0003549599 0.0002728425 -0.0002498147 0.0004391139 0.00018502267 -0.00025068474 -2.6288892e-05 -0.00080161344
00000000: d681 e7b8 2581 9539 6b14 64b9 4721 c4b9
00000010: 2cd0 a539 df31 5d39 6c30 50b9 70b9 7db9
00000020: f828 68b9 77ba b439 d39e 323a b240 9d39
00000030: ff50 8339 4eb8 08ba 5323 4439 4c5c 013a
00000040: ebd7 c438 bdd2 8fb9 ce84 15ba c709 a83a
00000050: 1417 a5b9 8654 553a a850 0e36 9a7e 44ba
00000060: e919 ba39 4d0c 8f39 90f9 82b9 df38 e639
00000070: a502 4239 566e 83b9 f786 dcb7 5e23 52ba

2.weight f4 [32]
0.968374 0.9157257 0.88314784 0.99369556 0.96438843 1.0439019 1.091219 0.9975965
0.9671578 0.941791 1.0889152 0.98485285 0.999287 0.9789982 1.084378 1.113726
1.010056 1.0373603 1.086211 1.0708452 1.0509673 0.97528535 0.9356759 0.97842056
0.9766612 0.8949997 0.8838602 1.0400277 0.94434595 0.9689342 0.88355017 1.0000263
00000000: 5ce7 773f 006d 6a3f fa15 623f d562 7e3f
00000010: 29e2 763f 949e 853f 10ad 8b3f 7c62 7f3f
00000020: a797 773f 3719 713f 9361 8b3f 511f 7c3f
00000030: 46d1 7f3f a09f 7a3f e6cc 8a3f 938e 8e3f
00000040: 8449 813f 39c8 843f f608 8b3f 7511 893f
00000050: 1986 863f 4dac 793f 7588 6f3f c579 7a3f
00000060: 7806 7a3f b31e 653f a944 623f a11f 853f
00000070: a8c0 713f 120c 783f 5830 623f dd00 803f

2.bias f4 [32]
-0.029439177 -0.051343128 0.024338808 -0.14621063 -0.015065282 0.12346105 0.17046611 -0.10396824
-0.02445335 -0.030591734 0.13188273 0.03779291 0.081937544 0.006654966 0.11770139 0.07354005
0.046384253 0.012243579 0.061257984 0.083621144 -0.030128509 -0.12918894 -0.053387064 0.0011379066
-0.002763772 -0.100468375 -0.05104794 0.06779396 0.07966697 -0.093722515 -0.07833239 -0.06395554
00000000: 6e2a f1bc 2c4d 52bd 2e62 c73c 3db8 15be
00000010: 5fd4 76bc 26d9 fc3d ab8e 2e3e 4ded d4bd
00000020: 6452 c8bc 849b fabc 440c 073e bdcc 1a3d
00000030: dfce a73d e711 da3b 6d0d f13d 2a9c 963d
00000040: 6afd 3d3d 4b99 483c a7e9 7a3d 9041 ab3d
00000050: 10d0 f6bc 1b4a 04be 65ac 5abd cf25 953a
00000060: 6620 35bb 5dc2 cdbd a517 51bd 8fd7 8a3d
00000070: 7028 a33d 97f1 bfbd bb6c a0bd 1ffb 82bd

2.running_mean f4 [32]
-0.009295059 -0.016834883 0.00063209835 0.022850927 -0.048861694 -0.029431216 -0.027712522 0.017116074
-0.037906602 0.0037099917 -0.03268879 -0.028548004 0.025173588 -0.038008004 0.026094621 0.06619858
0.026415532 0.034711774 0.020970626 0.04094201 0.03812631 -0.03591621 -0.020838436 -0.027097277
0.0073983367 0.0057826457 -0.016220564 0.03128733 0.024945894 -0.0072357585 -0.021243183 0.01055521
00000000: 4e4a 18bc 4fe9 89bc 67b3 253a de31 bb3c
00000010: 3323 48bd bc19 f1bc 5f05 e3bc 0237 8c3c
00000020: f443 1bbd 5523 733b aee4 05bd 81dd e9bc
00000030: d738 ce3c 48ae 1bbd 63c4 d53c 1f93 873d
00000040: 6365 d83c ef2d 0e3d 97ca ab3c cfb2 273d
00000050: 552a 1c3d e01c 13bd 5eb5 aabc 1cfb ddbc
00000060: bf6d f23b 597c bd3b fde0 84bc 2527 003d
00000070: 555b cc3c f119 edbb 2f06 aebc c2ef 2c3c

2.running_var f4 [32]
0.28604126 0.39381596 0.3580199 0.19219853 0.24424131 0.23024559 0.27730882 0.52985966
0.39287874 0.2629313 0.21204077 0.26932463 0.3826637 0.33824733 0.27337202 0.3228594
0.22373286 0.34179914 0.35856092 0.3836169 0.24509513 0.23122372 0.26257625 0.21657617
0.23504917 0.25766128 0.60462976 0.35039496 0.27896124 0.39341238 0.23689516 0.23735592
00000000: 0074 923e 3fa2 c93e 624e b73e b1cf 443e
00000010: 651a 7a3e 80c5 6b3e 6cfb 8d3e e2a4 073f
00000020: 6727 c93e ee9e 863e 3721 593e ebe4 893e
00000030: 7fec c33e c12e ad3e 6bf7 8b3e d44d a53e
00000040: 3a1a 653e 4c00 af3e 4c95 b73e 6f69 c43e
00000050: 38fa 7a3e e9c5 6c3e 6570 863e 25c6 5d3e
00000060: bbb0 703e 2eec 833e 04c9 1a3f f866 b33e
00000070: 02d4 8e3e 596d c93e a594 723e 6e0d 733e

4.weight f4 [64, 32]
-0.030621734 0.106214225 0.07527026 0.19259427 0.12720047 -0.06599934 -0.0022667034 0.23099753
0.1631938 -0.04631891 -0.1149726 -0.11542904 -0.07230453 -0.04238092 -0.030423978 0.03674952
-0.108295515 0.11281626 0.18036266 0.053578056 -0.014720471 -0.01886586 -0.025525432 0.122303165
0.19161001 0.15231979 0.10618598 -0.081673145 0.07317875 -0.039179783 -0.079323694 -0.026435433
-0.050248455 0.07450266 0.07009993 -0.080446415 0.06692846 -0.1702421 0.016618242 -0.07682041
-0.034627393 -0.05158582 0.041838102 0.16369948 -0.1242534 0.008723513 -0.16285528 -0.17410918
0.08202361 -0.09833801 -0.16591148 -0.08135145 -0.16196866 0.1488816 0.1754793 -0.04507684
-0.10396011 -0.12554315 -0.08488 -0.12035473 -0.117925 0.0024983936 -0.031092372 -0.10349731
0.056937594 -0.06398204 -0.020263903 0.1645193 0.074357815 0.00059275323 0.04602961 0.06778916
-0.052661266 0.14293481 -0.26024255 0.00119243 -0.096678786 -0.15879764 0.18751538 -0.03311667
0.05986295 -0.0066939658 0.14246404 0.2607468 0.07135255 -0.15714873 0.07346048 0.03934549
0.07453659 0.17640615 0.10989831 0.08734703 -0.038531624 0.024530653 0.110809736 0.040184934
0.095430195 -0.041805413 -0.036767438 0.022218954 -0.027479513 -0.15588379 -0.13879025 0.09450805
-0.11996791 -0.16317393 -0.17330313 0.12352853 0.1592167 0.08699579 0.0071774856 0.080053754
0.13246816 0.17540273 0.17517075 0.04515764 -0.010994441 -0.15292345 0.04958184 -0.1461566
-0.008152249 0.08135544 0.01159965 0.17883934 0.1374359 -0.11984756 0.019752037 -0.025645124
0.10435031 0.09429597 0.010761195 0.03090175 0.08767689 0.083629295 -0.08128608 0.07688338
-0.12151544 -0.1849978 0.086520195 0.06360238 -0.11549549 0.104344904 0.05208805 -0.037334353
-0.090774216 -0.015566629 -0.0152728595 -0.12766182 -0.10439814 0.17503259 0.102764405 0.1044393
0.113247946 -0.114300065 -0.069843076 -0.01909179 -0.06450349 0.19260785 -0.11352156 0.015018734
0.119491905 0.00033934764 0.12033557 0.06646623 -0.104359336 -0.03666915 -0.2444912 0.08252463
-0.05472941 -0.06067278 0.008891728 -0.063216716 -0.09665146 0.16063875 0.228667 0.08758872
0.062379804 0.13725577 -0.048589382 0.049767364 -0.016863108 0.12937272 0.034385227 -0.123487756
0.078664824 -0.034275845 -0.12811777 0.043750193 0.16427732 0.16759537 0.09507371 -0.07071656
-0.012657812 -0.07321741 -0.15796797 0.16816588 0.024564076 -0.18326142 -0.16949609 0.124501444
-0.07101705 -0.13402297 -0.17009139 -0.10200265 0.059623923 0.03889687 -0.024624739 -0.15510799
-0.08414081 -0.035579532 0.12587392 0.17327961 -0.07851567 -0.039173413 -0.11018545 -0.034204356
0.09750194 0.02379117 -0.096767426 0.09507131 0.0071266335 0.034041356 0.007832387 0.030139389
-0.077862166 -0.07990476 -0.014965752 0.06678471 0.17881316 0.1603907 0.19558722 0.18080643
0.09002114 -0.006380615 -0.054956183 0.051498972 -0.02602135 0.10158779 -0.052805707 0.09665965
-0.08626692 0.07199637 0.083232105 -0.18382728 -0.090289146 0.09835897 0.1957082 0.009747404
0.2108626 0.01440149 -0.11748958 -0.23721921 -0.03619218 0.12492696 -0.012680726 -0.15152451
00000000: 6eda fabc d886 d93d 4b27 9a3d 6f37 453e
00000010: d740 023e a92a 87bd f98c 14bb 9e8a 6c3e
00000020: 471c 273e e6b8 3dbd c176 ebbd 0f66 ecbd
00000030: 6614 94bd 9e97 2dbd b53b f9bc aa86 163d
00000040: 0aca ddbd 360c e73d fdb0 383e aa74 5b3d
00000050: 212e 71bc 938c 9abc b61a d1bc 157a fa3d
00000060: 6a35 443e b8f9 1b3e 0978 d93d 4044 a7bd
00000070: bede 953d fb7a 20bd 7674 a2bd 1f8f d8bc
00000080: 53d1 4dbd da94 983d 8d90 8f3d 17c1 a4bd
00000090: ca11 893d f253 2ebe fb22 883c 0554 9dbd
000000a0: 74d5 0dbd a74b 53bd 6e5e 2b3d d6a0 273e
000000b0: 9178 febd 11ed 0e3c 89c3 26be ad49 32be
000000c0: fffb a73d 7065 c9bd b3e4 29be 979b a6bd
000000d0: 1ddb 25be 6b74 183e d8b0 333e 7ea2 38bd
000000e0: 0ae9 d4bd 628e 00be 91d5 adbd 8a7c f6bd
000000f0: aa82 f1bd 17bc 233b 6eb5 febc 66f6 d3bd
00000100: 6537 693d 0409 83bd 7c00 a6bc bf77 283e
00000110: e948 983d ff62 1b3a 8b89 3c3d 0bd5 8a3d
00000120: 57b3 57bd 815d 123e 833e 85be 504b 9c3a
00000130: 87ff c5bd d99b 22be 0804 403e 58a5 07bd
00000140: da32 753d 0e59 dbbb 18e2 113e 9b80 853e
00000150: 4921 923d 99eb 20be 7372 963d bd28 213d
00000160: a4a6 983d d0a3 343e 5d12 e13d 00e3 b23d
00000170: 56d3 1dbd 82f4 c83c 37f0 e23d f598 243d
00000180: e870 c33d 273c 2bbd 7499 16bd 8604 b63c
00000190: b71c e1bc 00a0 1fbe 081f 0ebe 708d c13d
000001a0: bcb1 f5bd 1117 27be 6076 31be 87fc fc3d
000001b0: b409 233e d92a b23d 1d31 eb3b 39f3 a33d
000001c0: bca5 073e c69c 333e f65f 333e 38f7 383d
000001d0: 0722 34bc f797 1cbe 5416 4b3d 13aa 15be
000001e0: 0391 05bc ae9d a63d 750c 3e3c a921 373e
000001f0: ffbb 0c3e a372 f5bd 06cf a13c b915 d2bc
00000200: 9eb5 d53d 3f1e c13d b94f 303c ab25 fd3c
00000210: f18f b33d d645 ab3d 5179 a6bd 0975 9d3d
00000220: 16dd f8bd 1070 3dbe 8031 b13d f741 823d
00000230: e688 ecbd c8b2 d53d 475a 553d e8eb 18bd
00000240: d5e7 b9bd 2d0b 7fbc 043b 7abc c8b9 02be
00000250: b1ce d5bd be3b 333e 2576 d23d 46e4 d53d
00000260: 8aee e73d 2716 eabd e309 8fbd 6366 9cbc
00000270: 681a 84bd fe3a 453e fe7d e8bd 2311 763c
00000280: 2cb8 f43d 78ea b139 7f72 f63d 721f 883d
00000290: 59ba d5bd 6432 16bd e75b 7abe ac02 a93d
000002a0: f22b 60bd 0584 78bd 9cae 113c c477 81bd
000002b0: 33f1 c5bd 7c7e 243e af27 6a3e b761 b33d
000002c0: f781 7f3d c78c 0c3e a905 47bd ddd8 4b3d
000002d0: 8024 8abc 487a 043e 86d7 0c3d 26e7 fcbd
000002e0: 061b a13d d464 0cbd 4e31 03be 6733 333d
000002f0: 5038 283e 1f9e 2b3e 01b6 c23d d8d3 90bd
00000300: b662 4fbc 02f3 95bd 5bc2 21be ad33 2c3e
00000310: 9a3a c93c e2a8 3bbe 6290 2dbe 9dfa fe3d
00000320: 6371 91bd 513d 09be 702c 2ebe c4e6 d0bd
00000330: 3738 743d 5352 1f3d d2b9 c9bc a1d4 1ebe
00000340: 0452 acbd d8bb 11bd 18e5 003e 3670 313e
00000350: d3cc a0bd 4d74 20bd e9a8 e1bd de19 0cbd
00000360: 19af c73d b3e5 c23c 002e c6bd bfb4 c23d
00000370: 8986 e93b f36e 0b3d 6a53 003c e1e6 f63c
00000380: 3376 9fbd 1ba5 a3bd ea32 75bc 6cc6 883d
00000390: cc1a 373e 763d 243e 0448 483e 5225 393e
000003a0: 015d b83d 7a14 d1bb bc19 61bd 96f0 523d
000003b0: ba2a d5bc 420d d03d cc4a 58bd 7ff5 c53d
000003c0: b6ac b0bd d572 933d 9875 aa3d 383d 3cbe
000003d0: 84e9 b8bd 6d70 c93d bb67 483e 93b3 1f3c
000003e0: 5eec 573e 3af4 6b3c 609e f0bd 98e9 72be
000003f0: 403e 14bd b5d9 ff3d d2c2 4fbc 3e29 1bbe

4.bias f4 [64]
1.1051329e-05 -0.00014709904 -0.00010509841 -0.00038659584 -0.00012751484 0.00019522877 -0.00014663082 -1.4762784e-05
-0.00015042204 -0.00010573563 -0.00014641442 3.081836e-05 0.0001772767 -8.051171e-05 0.0001396122 -3.984409e-05
0.00013701178 -5.753505e-05 8.709026e-05 -0.00021377012 8.375933e-05 3.9874692e-05 -6.539414e-05 -0.00013597461
0.0001715726 8.844368e-05 0.00028080094 0.00011886512 7.172855e-05 0.0004643476 9.811838e-05 -0.0001095432
2.4298539e-05 4.8707614e-05 -0.00039889128 -4.8170776e-05 -5.563203e-05 8.0435035e-05 0.00030475442 0.00020848401
-4.012796e-05 -4.3740165e-06 0.00021235153 0.00022307917 -0.00012370627 4.7004112e-05 -0.00023675575 5.6306875e-05
7.252677e-05 -2.4308507e-05 0.00018413913 8.1668426e-05 -0.000612825 2.373376e-05 8.0803926e-05 -5.8469468e-05
-6.879882e-06 0.00017577915 -9.372106e-05 0.00019081288 -4.1060207e-06 3.7262624e-05 -9.520003e-05 -5.9475315e-05
00000000: 1969 3937 993e 1ab9 4768 dcb8 04b0 cab9
00000010: 81b5 05b9 53b6 4c39 e9c0 19b9 adad 77b7
00000020: 9cba 1db9 62be ddb8 d286 19b9 f642 0138
00000030: 5ae3 3939 65d8 a8b8 dd64 1239 441e 27b8
00000040: d2aa 0f39 ca51 71b8 3aa4 b638 7b27 60b9
00000050: f3a7 af38 203f 2738 3624 89b8 6894 0eb9
00000060: 2be8 3339 d77a b938 7738 9339 3a47 f938
00000070: f96c 9638 ae73 f339 e7c4 cd38 8fba e5b8
00000080: b7d4 cb37 674b 4c38 4822 d1b9 fa0a 4ab8
00000090: 7056 69b8 3baf a838 72c7 9f39 809c 5a39
000000a0: 124f 28b8 84c4 92b6 aeaa 5e39 5cea 6939
000000b0: 26b7 01b9 4826 4538 a341 78b9 0c2b 6c38
000000c0: 8319 9838 1fea cbb7 7915 4139 6745 ab38
000000d0: fda5 20ba dd17 c737 4775 a938 1d3d 75b8
000000e0: bdd9 e6b6 5b51 3839 1c8c c4b8 f114 4839
000000f0: 73c6 89b6 704a 1c38 20a6 c7b8 2275 79b8

5.weight f4 [64]
0.8629216 0.9664893 0.9505481 1.1203493 0.84062636 0.96463406 0.975405 1.0310212
0.9368479 0.9149907 0.91757286 0.9103652 1.031476 0.9596342 0.9709996 1.0066651
0.969457 0.9632287 0.90933156 0.9739108 0.9285714 1.2182863 0.9832886 0.9894383
0.8947121 1.1090877 0.9554252 1.1129599 0.8947251 1.069667 0.9289035 0.9668365
0.9172738 0.9825809 1.2327198 1.1430725 1.1060703 0.9833635 0.9204617 0.98205626
0.98570293 0.92790127 1.1022576 0.86772287 0.8348071 0.965437 1.1368929 1.139833
0.8814621 0.90576315 0.93022376 0.94938076 1.088313 0.9486092 1.0154288 0.9381472
0.92450196 0.9032124 0.8702696 0.95181274 0.9484362 1.1449858 0.8422913 0.8902265
00000000: 6ee8 5c3f d86b 773f 1f57 733f 9b67 8f3f
00000010: 4a33 573f 42f2 763f 24b4 793f 81f8 833f
00000020: 44d5 6f3f d53c 6a3f 0ee6 6a3f b20d 693f
00000030: 6807 843f 96aa 753f 6e93 783f 67da 803f
00000040: 552e 783f 2896 763f f4c9 683f 3852 793f
00000050: dbb6 6d3f cef0 9b3f cdb8 7b3f d44b 7d3f
00000060: da0b 653f 96f6 8d3f bf96 743f 7875 8e3f
00000070: b40c 653f d9ea 883f 9fcc 6d3f 9982 773f
00000080: 75d2 6a3f 6c8a 7b3f c3c9 9d3f 3350 923f
00000090: b693 8d3f b6bd 7b3f 61a3 6b3f 0a68 7b3f
000000a0: 0757 7c3f f08a 6d3f c716 8d3f 1623 5e3f
000000b0: ebb5 553f e126 773f b585 913f 0ce6 913f
000000c0: 80a7 613f 18e0 673f 2523 6e3f 9e0a 733f
000000d0: d74d 8b3f 0dd8 723f 92f9 813f 6a2a 703f
000000e0: 29ac 6c3f ee38 673f fdc9 5e3f 00aa 733f
000000f0: b7cc 723f e58e 923f 67a0 573f e2e5 633f

5.bias f4 [64]
-0.11984687 0.22388232 0.009468967 0.05552842 -0.14837886 -0.121288694 -0.009581381 0.061709154
-0.064537264 -0.09568245 -0.028007872 -0.07437732 -0.014440217 0.08489817 -0.09598769 -0.0017257717
-0.0430305 -0.17033699 -0.21532418 -0.053354412 -0.08497217 0.16150624 0.0691863 -0.009085289
-0.08697625 0.043865338 -0.025877075 0.11342796 -0.094708204 0.047442477 -0.0025309331 -0.036114417
-0.103433006 0.02841923 0.18119535 -0.3902384 -0.08017989 -0.005078144 -0.054887988 -0.05165792
-0.0912741 -0.035853952 -0.15060727 -0.09364941 -0.08006226 -0.06271912 -0.04647454 -0.008887105
0.0015408364 -0.050542153 -0.02652009 -0.12610997 -0.02430239 0.0057120975 -0.08294004 -0.041242562
-0.07393768 -0.067504816 -0.06469097 -0.074358284 -0.02827785 0.14134343 -0.15388756 -0.084520675
00000000: 4772 f5bd 6841 653e ba23 1b3c c571 633d
00000010: a1f0 17be 3566 f8bd 3afb 1cbc bdc2 7c3d
00000020: 1d2c 84bd 29f5 c3bd c470 e5bc 2353 98bd
00000030: a996 6cbc 17df ad3d 3295 c4bd 4a33 e2ba
00000040: c040 30bd d26c 2ebe f17d 5cbe 288a 5abd
00000050: e405 aebd e461 253e 8cb1 8d3d 77da 14bc
00000060: 9b20 b2bd 24ac 333d 29fc d3bc eb4c e83d
00000070: 60f6 c1bd 0b53 423d 03de 25bb b6ec 13bd
00000080: afd4 d3bd 72cf e83c 468b 393e 54cd c7be
00000090: 5b35 a4bd 8f66 a6bb 3ad2 60bd 4197 53bd
000000a0: eaed babd 98db 12bd cb38 1abe 43cb bfbd
000000b0: aff7 a3bd e272 80bd 165c 3ebd 389b 11bc
000000c0: e4f5 c93a 4a05 4fbd a940 d9bc f922 01be
000000d0: ce15 c7bc 8c2c bb3b 78dc a9bd f6ed 28bd
000000e0: a36c 97bd f73f 8abd b37c 84bd 2849 98bd
000000f0: f3a6 e7bc 55bc 103e b394 1dbe 2d19 adbd

5.running_mean f4 [64]
0.2682263 -0.47952166 0.34521025 0.12773895 0.03127151 0.20815268 -0.27938965 0.21841091
-0.12093948 0.00050691736 -0.26496914 0.16973539 -0.042928096 -0.56324786 0.24624063 0.06945847
-0.1283312 0.22466543 0.27380842 -0.034442164 -0.10801438 -0.0037915744 -0.53868115 0.038782932
-0.30756697 -0.36821133 0.09847621 0.3555567 0.009008076 0.26381254 0.023948288 0.074179076
-0.2438456 0.23357801 0.13028738 0.2066755 0.0077248723 -0.22097568 -0.009575461 0.052308474
0.1840856 -0.1711555 -0.4305896 -0.40377486 0.008109075 0.04926245 0.20651922 0.2366883
-0.12590517 -0.020639868 -0.24811137 -0.13304459 -0.18486322 -0.25003856 0.301217 -0.11743542
0.08464172 -0.38692114 0.074846506 0.1300275 0.18114007 0.36976093 0.39362848 0.08536622
00000000: f554 893e dd83 f5be 66bf b03e 00ce 023e
00000010: 8e16 003d fa25 553e 290c 8fbe 1ca7 5f3e
00000020: 1eaf f7bd a6e2 043a 09aa 87be 1dcf 2d3e
00000030: 5fd5 2fbd 0331 10bf 8126 7c3e 3e40 8e3d
00000040: 4169 03be b20e 663e 9e30 8c3e 3a13 0dbd
00000050: a536 ddbd 107c 78bb 02e7 09bf dada 1e3d
00000060: 6b79 9dbe 3286 bcbe e5ad c93d 870b b63e
00000070: 9c96 133c 7012 873e 332f c43c 33eb 973d
00000080: a9b2 79be 132f 6f3e 0e6a 053e bea2 533e
00000090: ed20 fd3b 7347 62be 65e2 1cbc 6941 563d
000000a0: ef80 3c3e 6343 2fbe 3d76 dcbe 94bb cebe
000000b0: eddb 043c 6cc7 493d c679 533e 6b5e 723e
000000c0: 49ed 00be f114 a9bc e810 7ebe d73c 08be
000000d0: c94c 3dbe 0e05 80be 1d39 9a3e fb81 f0bd
000000e0: a358 ad3d 871a c6be 2049 993d ee25 053e
000000f0: c87c 393e 4e51 bd3e ac89 c93e 7cd4 ae3d

5.running_var f4 [64]
0.38933438 0.33496654 0.32141018 0.37333518 0.18331149 0.15910171 0.16263716 0.3453389
0.26973024 0.19420306 0.28840226 0.18468697 0.33498064 0.2690783 0.22043154 0.282884
0.31185848 0.1445886 0.1421575 0.1936361 0.42645887 0.36364248 0.3404073 0.30491033
0.36604273 0.370052 0.098241396 0.3904181 0.20790178 0.23779273 0.2645262 0.25500268
0.24370088 0.22344932 0.41954976 0.23762776 0.23349178 0.35197714 0.18004447 0.26309973
0.1303826 0.24457492 0.12087591 0.12940238 0.15943359 0.18628383 0.33331403 0.25136927
0.2999881 0.18866009 0.3106726 0.34666827 0.17869253 0.32008204 0.16524345 0.22834457
0.20809895 0.17754653 0.17886806 0.32618436 0.281843 0.35677105 0.1100356 0.14380962
00000000: d656 c73e bc80 ab3e e08f a43e ca25 bf3e
00000010: 02b6 3b3e 8feb 223e 5b8a 263e 43d0 b03e
00000020: 151a 8a3e 2bdd 463e 76a9 933e 951e 3d3e
00000030: 9582 ab3e a2c4 893e ceb8 613e 2cd6 903e
00000040: eaab 9f3e 090f 143e bc91 113e 8b48 463e
00000050: d158 da3e 592f ba3e de49 ae3e 351d 9c3e
00000060: f469 bb3e 7577 bd3e c932 c93d e2e4 c73e
00000070: 34e4 543e f07f 733e fa6f 873e b68f 823e
00000080: b98c 793e e6cf 643e 3acf d63e b154 733e
00000090: 7818 6f3e 5936 b43e 945d 383e 02b5 863e
000000a0: 0483 053e d971 7a3e ca8d f73d 0f82 043e
000000b0: 8f42 233e 30c1 3e3e 23a8 aa3e 79b3 803e
000000c0: 0a98 993e 1c30 413e 7b10 9f3e 817e b13e
000000d0: 2dfb 363e cbe1 a33e 9435 293e 29d3 693e
000000e0: e417 553e c2ce 353e 3029 373e a301 a73e
000000f0: ba4d 903e b2aa b63e 585a e13d d442 133e

7.weight f4 [128, 64]
0.009506743 -0.022655087 -0.058758486 -0.0011606925 -0.0045911255 -0.1144464 0.1392539 -0.013089981
-0.04829341 0.0901557 0.12396496 -0.07935614 -0.07770609 -0.040282182 -0.060344614 0.100733496
0.089675546 0.06855247 -7.8587895e-05 -0.065952875 -0.04775038 0.101788804 0.02469882 0.09349848
0.06881437 0.16568983 -0.14083233 0.096029356 0.14390637 0.009347197 0.02603911 -0.011976231
0.011834708 -0.008642969 -0.0029110906 -0.06754415 5.1366405e-05 -0.0318524 0.13062248 -0.098908864
0.06465339 0.02867266 0.023850072 -0.104143724 -0.09157442 -0.12216958 -0.07272237 0.11871589
-0.08304327 -0.023564763 -0.13841987 -0.076451845 0.09521168 -0.13525979 0.07571101 -0.057221796
-0.035043146 -0.006854047 0.029087203 -0.033015076 0.091721445 -0.02677022 -0.06127778 -0.04668167
-0.061344102 0.06429486 0.055523902 0.16500092 -0.00022188298 0.082596324 -0.03221053 -0.16470407
-0.01601858 0.009148353 0.06542621 0.055185903 -0.03694916 -0.06638394 -0.101047695 -0.07766066
-0.09561156 -0.13782038 0.03018911 -0.035140008 0.007283955 0.101600304 0.050882183 0.012404553
0.11853666 -0.030196391 -0.044334557 0.08372823 -0.03230467 0.14290243 0.08371251 0.11078483
-0.014480248 0.14849655 0.020948116 -0.058733054 -0.09392084 0.02572208 -0.10884621 0.15342285
0.052542284 -0.06977514 -0.13899098 0.01439241 0.005004008 -0.008641134 0.007078537 0.05872422
0.06901874 0.04471584 -0.022896562 -0.0116084535 -0.07929672 0.10820081 0.015602926 0.013981682
0.13604376 -0.031816848 -0.028185828 0.1400465 0.053654782 0.13052025 -0.0051244055 0.077720374
-0.0037218656 -0.12677604 -0.10297526 -0.07271105 0.026889022 -0.03362891 -0.0832708 -0.07205426
-0.14169815 0.08513625 0.034401964 0.038087297 0.03961198 -0.08657304 0.040273774 0.17842416
0.108056694 -0.0040307976 0.033169985 0.12711425 -0.019423094 -0.08698079 -0.020871911 -0.0062886146
0.048378024 0.062255364 -0.11789522 0.017694866 -0.0936882 0.044025794 -0.0642214 0.01789045
0.020620262 -0.105690174 0.022801386 0.044687055 0.124976225 0.0154705 -0.07605299 0.0006583852
0.17925255 -0.02220231 0.030233564 -0.038201887 0.12106558 0.11773832 -0.01565387 -0.015248152
0.03360746 -0.058900595 0.07042549 -0.11764306 0.07210373 -0.057731997 -0.110664465 -0.016439464
0.029525539 -0.0154721 -0.017369788 -0.09342588 -0.09504634 -0.10441953 -0.043291535 -0.099113144
0.083539665 -0.10885544 -0.036545176 -0.00080781005 -0.14954306 0.0720976 -0.046229135 -0.009060915
-0.021390364 -0.017713264 0.1203024 0.05079271 -0.067795575 -0.12943055 -0.14486109 0.0011860495
0.053560916 -0.10584871 0.051753845 -0.09212807 -0.003091651 0.0077456837 -0.07319467 0.06652541
-0.14364418 0.094786026 0.03287486 -0.13035677 0.13914852 -0.023751276 -0.087004825 -0.02471133
0.002822407 -0.14609116 0.08525356 -0.02135597 -0.024349663 -0.063223265 -0.019341744 0.06455246
0.11065676 -0.09456097 0.01478818 -0.058716055 -0.108063176 -0.09216831 -0.038559314 0.033703286
-0.06898632 0.0744856 -0.104788706 0.041407023 -0.095785454 0.0008543094 -0.09256164 0.086955704
-0.10489802 0.109028056 -0.050598834 0.025220988 0.04883784 -0.14707384 0.0917799 -0.12962858
00000000: 2cc2 1b3c 2997 b9bc bdac 70bd 6122 98ba
00000010: 2771 96bb e062 eabd 9398 0e3e 5c77 56bc
00000020: 50cf 45bd 8da3 b83d 57e1 fd3d 7985 a2bd
00000030: 5f24 9fbd eefe 24bd ea2b 77bd 5d4d ce3d
00000040: d0a7 b73d 3d65 8c3d 8ecf a4b8 4d12 87bd
00000050: e795 43bd a676 d03d 2e55 ca3c 227c bf3d
00000060: 8cee 8c3d 98aa 293e 5a36 10be 0aab c43d
00000070: 315c 133e fc24 193c f94f d53c f437 44bc
00000080: 5de6 413c 3d9b 0dbc ffc7 3ebb 9654 8abd
00000090: 4272 5738 aa77 02bd e6c1 053e bb90 cabd
000000a0: ff68 843d ede2 ea3c 3a61 c33c 4e49 d5bd
000000b0: 5f8b bbbd 0b34 fabd 77ef 94bd 5121 f33d
000000c0: 9712 aabd e40a c1bc f0bd 0dbe c992 9cbd
000000d0: 57fe c23d 8b81 0abe 600e 9b3d 6761 6abd
000000e0: 6789 0fbd ea97 e0bb 4948 ee3c d13a 07bd
000000f0: 74d8 bb3d 384d dbbc 69fe 7abd 4735 3fbd
00000100: f443 7bbd 06ad 833d 086d 633d 00f6 283e
00000110: 42a9 68b9 4328 a93d 30ef 03bd 2fa8 28be
00000120: 6639 83bc f9e2 153c 2dfe 853d 9d0a 623d
00000130: 0158 17bd 4ef4 87bd 18f2 cebd 8d0c 9fbd
00000140: fecf c3bd c920 0dbe 274f f73c f8ee 0fbd
00000150: 3eae ee3b d213 d03d d669 503d 773c 4b3c
00000160: 59c3 f23d 6c5e f7bc 2798 35bd b579 ab3d
00000170: e751 04bd 0455 123e 7771 ab3d 28e3 e23d
00000180: 903e 6dbc 7b0f 183e 629b ab3c 1292 70bd
00000190: 9259 c0bd 1db7 d23c c3ea debd e11a 1d3e
000001a0: 9436 573d 45e6 8ebd a753 0ebe 25ce 6b3c
000001b0: a9f8 a33b 8b93 0dbc 12f3 e73b cf88 703d
000001c0: b259 8d3d f527 373d 9291 bbbc 6231 3ebc
000001d0: 5266 a2bd 6398 dd3d 6aa3 7f3c 6d13 653c
000001e0: 0e4f 0b3e 6252 02bd f7e5 e6bc 5a68 0f3e
000001f0: 1ec5 5b3d 1aa7 053e a1ea a7bb dc2b 9f3d
00000200: 8bea 73bb 94d1 01be b1e4 d2bd 88e9 94bd
00000210: 5e46 dc3c 78be 09bd e289 aabd 2f91 93bd
00000220: 5219 11be ea5b ae3d 13e9 0c3d 6d01 1c3d
00000230: 2c40 223d 354d b1bd 1df6 243d d3b4 363e
00000240: d44c dd3d c814 84bb 40dd 073d 3d2a 023e
00000250: 2e1d 9fbc fc22 b2bd 92fb aabc b910 cebb
00000260: 0928 463d 7bff 7e3d 0d73 f1bd d3f4 903c
00000270: 99df bfbd 6454 343d 8286 83bd fe8e 923c
00000280: d3eb a83c 1774 d8bd f9c9 ba3c c609 373d
00000290: 89f3 ff3d fb77 7d3c acc1 9bbd 7c97 2c3a
000002a0: fb8d 373e 9ee1 b5bc 61ac f73c 9579 1cbd
000002b0: 3bf1 f73d ca20 f13d 8b3c 80bc 63d3 79bc
000002c0: faa7 093d c041 71bd 3d3b 903d d8ee f0bd
000002d0: 1fab 933d 6378 6cbd 0da4 e2bd 0eac 86bc
000002e0: 8bdf f13c b17e 7dbc 164b 8ebc 1156 bfbd
000002f0: a8a7 c2bd e8d9 d5bd 7752 31bd d5fb cabd
00000300: d816 ab3d 9aef debd 65b0 15bd 37c3 53ba
00000310: d121 19be e8a7 933d c35a 3dbd 3b74 14bc
00000320: d83a afbc 681b 91bc 1b61 f63d 040c 503d
00000330: 68d8 8abd 7189 04be 7756 14be 3875 9b3a
00000340: b162 5b3d 35c7 d8bd d7fb 533d a4ad bcbd
00000350: 4c9d 4abb 81cf fd3b 16e7 95bd 793e 883d
00000360: 7617 13be 2d1f c23d caa7 063d 3f7c 05be
00000370: f37c 0e3e 0992 c2bc 962f b2bd 6a6f cabc
00000380: 22f8 383b ec98 15be 6b99 ae3d b7f2 aebc
00000390: f278 c7bc 337b 81bd 9472 9ebc 1534 843d
000003a0: 03a0 e23d 2fa9 c1bd 1f4a 723c 3f80 70bd
000003b0: 3a50 ddbd bdc2 bcbd 5ff0 1dbd 750c 0a3d
000003c0: b348 8dbd e88b 983d 769b d6bd 699a 293d
000003d0: 2a2b c4bd bcf3 5f3a f590 bdbd d515 b23d
000003e0: c6d4 d6bd 1a4a df3d b940 4fbd 3f9c ce3c
000003f0: 300a 483d 869a 16be 1af7 bb3d 5bbd 04be

7.bias f4 [128]
-4.5643825e-05 -2.6970867e-05 7.216597e-05 -6.342866e-05 0.00013633809 -2.4404395e-05 0.000110689405 8.891009e-05
6.734256e-05 8.157768e-05 -8.634629e-05 -0.0001360624 0.0001769207 2.027717e-06 -9.667046e-05 4.3276395e-05
6.537573e-05 -3.7388283e-05 -9.166457e-05 2.7877153e-05 6.3700345e-06 -0.00011017333 3.4909663e-05 -7.518491e-05
0.00015894484 8.7302156e-05 -6.491107e-05 0.00012295386 5.9218546e-05 7.146993e-05 9.421654e-05 7.7835684e-05
0.0001264002 2.6862604e-05 -0.00011015014 -8.417271e-05 -7.722898e-05 0.0001340716 -8.494238e-05 4.1805724e-05
8.638452e-06 0.000103842875 0.00010798062 -4.028069e-05 -0.00013943599 -1.0950166e-05 9.518781e-05 9.196625e-05
-7.559165e-05 -0.00012634866 0.00013017358 -7.272598e-05 -0.00010410643 -3.6530215e-05 -9.460686e-05 -9.003796e-06
-7.622454e-05 3.6426945e-06 -8.640609e-05 0.00016331938 -3.8144324e-05 -5.3206672e-06 0.00016870046 -0.00011441997
2.3806047e-05 -4.3085383e-05 8.764217e-06 -8.975963e-06 6.733924e-05 8.6868175e-05 9.221153e-06 -0.0002112638
6.273759e-05 9.330288e-06 -0.00015686546 -6.799099e-05 9.7357486e-05 0.00010509908 7.982598e-06 -6.8838766e-05
-6.6150324e-06 -8.230855e-05 7.6168275e-05 2.639195e-05 -0.00011144477 0.00012123324 4.553398e-05 -5.5254844e-05
3.6413338e-05 -0.00015298826 -2.4100864e-06 -3.651553e-05 0.000114808376 0.00011317077 0.000116893076 6.7143264e-05
-4.1860832e-05 -1.3426322e-05 4.6032834e-05 5.1557927e-05 1.6167895e-05 -1.9461884e-05 2.6935051e-05 3.8868264e-05
5.668192e-05 -0.00010204502 5.0741077e-05 4.824344e-06 -8.9156085e-05 -0.00016485118 4.3419797e-05 3.2242253e-06
-0.00012181784 -2.5529243e-05 4.01599e-05 2.5210333e-05 6.2545514e-05 4.852907e-05 -0.000148963 -1.6294063e-05
0.000105345775 0.00010454501 -2.1115196e-05 5.988926e-05 -1.3711192e-05 -0.00014087398 5.9066006e-05 1.0597064e-05
00000000: af71 3fb8 7f3f e2b7 cf57 9738 0105 85b8
00000010: faf5 0e39 0ab8 ccb7 ec21 e838 3e75 ba38
00000020: 433a 8d38 af14 ab38 d014 b5b8 f9ab 0eb9
00000030: ca83 3939 ea13 0836 8fbb cab8 ad83 3538
00000040: 541a 8938 5dd1 1cb8 0b3c c0b8 bbd9 e937
00000050: 2ebe d536 db0c e7b8 f76b 1238 97ac 9db8
00000060: 6eaa 2639 fd15 b738 de20 88b8 2ded 0039
00000070: 6e61 7838 20e2 9538 1f96 c538 b73b a338
00000080: 4c8a 0439 0157 e137 6800 e7b8 e185 b0b8
00000090: fef5 a1b8 9295 0c39 1823 b2b8 8e58 2f38
000000a0: deed 1037 38c6 d938 a773 e238 10f3 28b8
000000b0: 9035 12b9 9bb6 37b7 919f c738 01de c038
000000c0: f586 9eb8 767c 04b9 347f 0839 7784 98b8
000000d0: b753 dab8 0538 19b8 ac67 c6b8 020f 17b7
000000e0: bdda 9fb8 0475 7436 eb34 b5b8 b640 2b39
000000f0: 28fd 1fb8 2f88 b2b6 2fe5 3039 c1f4 efb8
00000100: 19b3 c737 94b6 34b8 060a 1337 7897 16b7
00000110: 7b38 8d38 ff2c b638 8db4 1a37 b286 5db9
00000120: fd91 8338 4889 1c37 407c 24b9 6396 8eb8
00000130: 672c cc38 a468 dc38 ffec 0537 885d 90b8
00000140: b2f6 ddb6 119d acb8 88bc 9f38 4864 dd37
00000150: 75b7 e9b8 9a3e fe38 bdfb 3e38 70c1 67b8
00000160: 86ba 1838 796b 20b9 f8bc 21b6 4028 19b8
00000170: 47c5 f038 1856 ed38 7e24 f538 44cf 8c38
00000180: ba93 2fb8 9d41 61b7 6113 4138 e73f 5838
00000190: 4aa0 8737 1442 a3b7 95f2 e137 7b06 2338
000001a0: c0bd 6d38 0101 d6b8 d1d2 5438 cde0 a136
000001b0: 4ff9 bab8 e7db 2cb9 a71d 3638 c55f 5836
000001c0: 7478 ffb8 a227 d6b7 5d71 2838 c77a d337
000001d0: de2a 8338 b18b 4b38 f332 1cb9 3caf 88b7
000001e0: 15ed dc38 2d3f db38 8a20 b1b7 9a31 7b38
000001f0: 1f09 66b7 92b7 13b9 a4bd 7738 0bca 3137

8.weight f4 [128]
0.85386705 1.0641435 0.82792836 0.83825475 0.9813855 0.7769168 0.8947316 1.0314515
0.8206922 0.9528896 0.926574 0.98953336 0.89412326 1.0322629 0.93795276 0.84958935
0.96438223 1.1700993 0.95085263 0.92342955 1.0089369 1.108279 1.0719156 1.1548663
0.9832214 1.0068659 1.1874256 0.8236329 0.92032665 0.97853655 1.0636625 1.0208681
0.9203124 1.0038459 0.982956 0.8877857 0.8421391 0.94939995 1.0668141 1.1495881
1.0792379 0.99119234 1.0374103 1.0093269 0.9638419 0.8720658 1.0074128 0.86850876
0.90384156 1.0579798 1.0716611 0.97160393 0.86069655 1.1019006 0.91431284 0.92924106
0.89245605 0.9879704 0.83310145 0.894059 0.8796367 1.0204504 1.0499103 1.0104603
0.89131665 1.0075916 0.96634626 0.77435285 1.0084293 0.9111881 1.0624648 1.1671358
0.8805798 1.0545207 1.0302982 0.8902212 0.85179955 0.83019364 0.97496176 0.9301307
0.8975577 0.8410717 0.8531113 0.8691464 0.9265443 0.74062926 1.0727983 1.075782
1.1763083 0.8736272 0.7920446 0.8262262 0.8739671 1.0396305 0.90859705 1.0513471
0.8860573 1.1425438 0.9274735 0.90286124 1.1001519 1.1164385 1.0815568 0.92386794
1.1680697 0.9153812 0.8400465 0.8513294 1.0124762 0.9966267 0.9324383 0.77650803
1.0126747 0.929823 0.98113996 1.0209312 1.0186735 0.7467603 1.0006124 0.9578238
1.0130804 0.89940816 0.9227533 1.0703402 0.961948 0.9128239 0.98691577 0.95731413
00000000: 0897 5a3f db35 883f 1df3 533f dd97 563f
00000010: 153c 7b3f 05e4 463f 210d 653f 9a06 843f
00000020: e218 523f 93f0 733f f433 6d3f 0f52 7d3f
00000030: 43e5 643f 3121 843f ac1d 703f b07e 593f
00000040: c1e1 763f d0c5 953f 146b 733f e165 6c3f
00000050: d824 813f 16dc 8d3f 8834 893f a9d2 933f
00000060: 66b4 7b3f fbe0 803f 90fd 973f 9bd9 523f
00000070: 879a 6b3f 5f81 7a3f 1826 883f ceab 823f
00000080: 9899 6b3f 067e 803f 01a3 7b3f ec45 633f
00000090: 6e96 573f e00b 733f 5d8d 883f b425 933f
000000a0: 7824 8a3f c8be 7d3f dcc9 843f a031 813f
000000b0: 58be 763f b43f 5f3f e7f2 803f 9756 5e3f
000000c0: 2962 673f e26b 873f 312c 893f 09bb 783f
000000d0: 9c56 5c3f 140b 8d3f 6810 6a3f bee2 6d3f
000000e0: 0078 643f a1eb 7c3f 2346 553f 0de1 643f
000000f0: df2f 613f 1e9e 823f 7663 863f c356 813f
00000100: 542d 643f c3f8 803f 7862 773f fd3b 463f
00000110: 3614 813f a043 693f d9fe 873f b564 953f
00000120: ae6d 613f 89fa 863f d0e0 833f 89e5 633f
00000130: 890f 5a3f 9287 543f 1897 793f 0c1d 6e3f
00000140: 57c6 653f 7a50 573f 8165 5a3f 6180 5e3f
00000150: 0232 6d3f e199 3d3f 7451 893f 39b3 893f
00000160: 4591 963f 08a6 5f3f 6fc3 4a3f 8f83 533f
00000170: 4fbc 5f3f 9d12 853f d199 683f 8b92 863f
00000180: a7d4 623f e03e 923f e76e 6d3f ea21 673f
00000190: c7d1 8c3f 75e7 8e3f 7470 8a3f 9c82 6c3f
000001a0: 4f83 953f 6c56 6a3f 4a0d 573f b9f0 593f
000001b0: d298 813f ed22 7f3f 47b4 6e3f 3bc9 463f
000001c0: 539f 813f e108 6e3f fd2b 7b3f e0ad 823f
000001d0: e563 823f af2b 3f3f 1114 803f f133 753f
000001e0: 9eac 813f 9d3f 663f 8f39 6c3f e800 893f
000001f0: 3942 763f d4ae 693f 83a6 7c3f 8a12 753f

8.bias f4 [128]
-0.17742975 -0.15203711 -0.14029005 -0.052708242 0.013993952 -0.20718752 -0.029772062 -0.119598396
-0.10240007 -0.21103787 -0.05935264 0.025604911 -0.2446155 -0.10156232 -0.022543846 -0.27826232
0.08274389 0.0076464843 -0.07594473 -0.054193392 -0.11828197 0.042067435 0.057298742 0.0502122
0.0010978612 -0.17198516 0.037333548 -0.105904765 -0.03070382 -0.23491815 -0.60080034 -0.25599828
-0.2265448 -0.46057796 -0.27812052 -0.06410533 -0.14820097 -0.10907489 -0.61186606 0.077063166
-0.48286745 -0.311755 -0.17190775 -0.126483 -0.15080753 -0.05490643 -0.08457923 -0.17362209
-0.026823582 -0.1257033 0.04418281 -0.18394615 -0.18404503 -0.66708446 -0.14892301 -0.10974422
-0.03019262 -0.35828558 -0.07115614 -0.06360235 -0.1464442 -0.1220875 0.13913237 0.01560419
-0.035101227 0.05921813 -0.33264646 -0.14542904 0.10467561 -0.17883487 -0.19287373 0.08701841
-0.0022886295 0.040111966 -0.19665259 -0.07176995 0.032782868 -0.17927805 0.028500678 -0.032743637
-0.23237145 -0.17704523 -0.11099975 -0.226141 -0.14977953 -0.19749889 -0.4948511 -0.21512574
0.053221386 -0.11611966 -0.18172386 -0.18218525 0.047012676 -0.48047507 -0.13731243 -0.500695
-0.08793883 -0.6815157 -0.21713378 4.041608e-05 0.06243248 0.011304214 0.0865816 -0.09754736
0.01113092 -0.30823538 -0.00090524385 -0.14039229 -0.26910186 -0.3113289 0.012046256 -0.14177401
-0.2207825 -0.27803874 -0.31743672 -0.17420848 -0.44204667 -0.18461698 -0.407722 -0.070995815
-0.10787649 -0.14971231 -0.028747328 0.007759633 -0.1701101 -0.118966326 0.044772506 -0.17843953
00000000: 25b0 35be 9eaf 1bbe 32a8 0fbe 99e4 57bd
00000010: e446 653c f728 54be 8ae4 f3bc 01f0 f4bd
00000020: 21b7 d1bd 501a 58be c11b 73bd 64c1 d13c
00000030: 7c7c 7abe e8ff cfbd dfad b8bc 6678 8ebe
00000040: a175 a93d 5c8f fa3b e988 9bbd e4f9 5dbd
00000050: d13d f2bd e74e 2c3d 16b2 6a3d 4fab 4d3d
00000060: 1ce6 8f3a e11c 30be 10eb 183d 99e4 d8bd
00000070: 9486 fbbc 628e 70be 0dce 19bf 3512 83be
00000080: 5cfb 67be e0d0 ebbe d065 8ebe a849 83bd
00000090: ffc1 17be a862 dfbd 41a3 1cbf 4bd3 9d3d
000000a0: 673a f7be 5a9e 9fbe 9608 30be c284 01be
000000b0: 4a6d 1abe 91e5 60bd e037 adbd fdc9 31be
000000c0: 21bd dbbc 5eb8 00be 09f9 343d 615c 3cbe
000000d0: 4d76 3cbe 0cc6 2abf 467f 18be 94c1 e0bd
000000e0: 8356 f7bc 3571 b7be 4fba 91bd f341 82bd
000000f0: 78f5 15be 0309 fabd b778 0e3e b7a8 7f3c
00000100: 4ec6 0fbd b68e 723d a350 aabe 5aeb 14be
00000110: 2b60 d63d 7d20 37be b180 45be b536 b23d
00000120: d5fc 15bb 724c 243d 4c5f 49be 20fc 92bd
00000130: 5447 063d aa94 37be 417a e93c 311e 06bd
00000140: c8f2 6dbe 584b 35be d653 e3bd 8291 67be
00000150: ce5f 19be 263d 4abe 205d fdbe ec49 5cbe
00000160: abfe 593d 25d0 edbd d215 3abe c58e 3abe
00000170: 5d90 403d d400 f6be a19b 0cbe 8c2d 00bf
00000180: 4619 b4bd d077 2ebf 5158 5ebe 6f84 2938
00000190: 33b9 7f3d 4f35 393c b251 b13d e9c6 c7bd
000001a0: 765e 363c 07d1 9dbe e34d 6dba ffc2 0fbe
000001b0: b8c7 89be 8066 9fbe a95d 453c 352d 11be
000001c0: cf14 62be 185b 8ebe 1187 a2be b563 32be
000001d0: f153 e2be 3c0c 3dbe f0c0 d0be 4166 91bd
000001e0: 59ee dcbd 2f4e 19be 847f ebbc 8544 fe3b
000001f0: 5831 2ebe 9ea4 f3bd 6063 373d dab8 36be

8.running_mean f4 [128]
0.044658832 0.34618822 -0.19847514 -0.434817 -0.8501991 -0.6865714 -0.07639043 0.18797675
0.38793012 0.36766347 -0.16295838 -0.51485157 0.13662618 0.12779261 -0.19479364 0.41746366
-0.7633191 -0.7173611 0.20887506 -0.029746197 -0.0020036309 -0.68432564 -0.68901116 -0.73360443
-0.3728923 -0.30737367 -0.8035972 0.028956281 -0.36150318 0.19490586 0.20690903 0.08670088
0.28245738 -0.1036778 0.26645136 -0.10300769 -0.22556531 0.2234925 -0.15086402 -0.6619917
-0.03950718 0.019856801 0.09338454 0.4009247 0.5387473 -0.15207046 -0.87772703 0.07161674
-0.3690428 0.14879757 -0.638536 0.60115546 -0.037398793 -0.20364876 0.07022342 -0.012353822
-0.048875824 0.20874445 -0.08289462 -0.18643698 -0.13368891 0.32568964 -0.42811197 -0.18885863
-0.18573382 -0.81435657 0.12230365 0.20899989 -0.66435677 0.3972564 0.19855577 -0.804777
-0.40335327 -0.752153 0.4486614 -0.09769507 -0.40954193 0.024422701 -0.79549634 -0.35112175
0.4496273 0.354202 0.16551962 0.28802222 0.17376529 0.19414377 -0.20391098 0.2014642
-0.8202905 -0.0891076 0.28511766 0.34639272 -0.49193984 -0.021467911 0.13580653 0.007233647
-0.22451727 -0.10702376 0.114921756 -0.57577974 -0.91691536 -0.99544847 -0.7480288 -0.060118206
-0.8491586 -0.24542429 -0.62101245 0.038789168 -0.1102357 0.5947574 -0.6658593 -0.2979359
0.12885208 0.17778988 0.15948859 0.28951353 -0.04519058 -0.016342225 -0.06035526 0.18991245
0.13781525 0.257518 -0.41747406 -0.87580734 0.269598 -0.050626285 -0.824863 0.29123297
00000000: 2eec 363d 953f b13e 113d 4bbe 55a0 debe
00000010: a6a6 59bf 25c3 2fbf 9672 9cbd fa7c 403e
00000020: c79e c63e 633e bc3e 90de 26be 50cd 03bf
00000030: bce7 0b3e 11dc 023e fc77 47be ccbd d53e
00000040: e168 43bf faa4 37bf 58e3 553e 4cae f3bc
00000050: 594f 03bb f72f 2fbf 0963 30bf 80cd 3bbf
00000060: bdeb bebe 1560 9dbe 8cb8 4dbf b935 ed3c
00000070: f216 b9be 6795 473e f6df 533e 3b90 b13d
00000080: 419e 903e 0755 d4bd 506c 883e b2f5 d2bd
00000090: 98fa 66be 38db 643e 197c 1abe 4a78 29bf
000000a0: 48d2 21bd bbaa a23c 6540 bf3d 0146 cd3e
000000b0: 58eb 093f 5cb8 1bbe b8b2 60bf ccab 923d
000000c0: 2ef3 bcbe 645e 183e 1877 23bf 53e5 193f
000000d0: 7a2f 19bd 4d89 50be 4cd1 8f3d af67 4abc
000000e0: 0432 48bd 1bc1 553e a8c4 a9bd 56e9 3ebe
000000f0: bfe5 08be cbc0 a63e 7e31 dbbe 2864 41be
00000100: 0231 3ebe ac79 50bf 567a fa3d 1104 563e
00000110: 4913 2abf 3165 cb3e 3452 4b3e de05 4ebf
00000120: 5284 cebe 198d 40bf f2b6 e53e 5a14 c8bd
00000130: 7baf d1be 1e12 c83c a6a5 4bbf 3bc6 b3be
00000140: 8d35 e63e f759 b53e fa7d 293e a677 933e
00000150: 87ef 313e a0cd 463e 0ace 50be a24c 4e3e
00000160: 8ffe 51bf 0c7e b6bd f1fa 913e 635a b13e
00000170: 8adf fbbe 79dd afbc de10 0b3e 3b08 ed3b
00000180: dbe7 65be 462f dbbd 195c eb3d 4d66 13bf
00000190: f7ba 6abf b6d5 7ebf d17e 3fbf 823e 76bd
000001a0: 7562 59bf 8150 7bbe acfa 1ebf 64e1 1e3d
000001b0: 41c3 e1bd 0542 183f c175 2abf 0e8b 98be
000001c0: cdf1 033e 8d0e 363e fa50 233e 1e3b 943e
000001d0: c219 39bd 21e0 85bc 1437 77bd 6978 423e
000001e0: 711f 0d3e 66d9 833e 29bf d5be e934 60bf
000001f0: c008 8a3e 825d 4fbd 392a 53bf 7d1c 953e

8.running_var f4 [128]
0.7258613 0.88311434 0.1732934 0.46271494 1.1539677 1.2623035 1.0389162 0.8068054
0.24152212 0.28304386 0.5100295 0.45640436 0.16191532 0.39405406 0.5034183 0.16565426
0.77571315 1.3336036 0.44311115 0.4058108 0.5935885 1.2829328 0.32135695 1.0902832
0.48226622 0.46106985 0.94674677 0.94521093 0.6957885 0.7831786 0.37022728 0.34832856
1.3652426 0.4108472 0.41565892 0.6238136 0.47678253 0.24410984 0.3445913 0.83276874
0.31500173 0.82930416 0.4820023 0.842938 0.8564402 0.43779448 0.6691661 0.4124088
0.71974885 0.81478333 1.3116945 0.8309423 0.7209952 0.28312138 0.8755723 0.64697874
0.511016 0.5548487 0.88703823 0.43636128 0.3507042 1.3961636 0.29448244 0.32820252
0.70286924 1.282 0.43342537 0.33366695 1.2712824 0.65405685 0.8575084 1.7741185
1.0288692 1.2817034 0.61340106 0.48932356 0.65293694 0.23967512 0.8924524 0.92371523
0.4200122 0.23979712 0.3660381 0.53270423 0.68227065 0.79277337 0.2892121 0.66384226
1.2395128 0.28883982 0.207832 0.81828177 0.70459366 0.32353622 0.23476723 0.38466522
0.49302384 0.21582837 0.7744792 1.350339 0.57735455 1.0984032 1.2046189 0.2305189
0.98987305 0.35587785 1.2566891 0.29135752 0.538307 0.3163602 0.6525837 0.6646808
0.9136004 0.7541655 0.47181737 1.5204234 0.5224655 0.6684055 0.2874396 0.29494873
0.9400394 0.5574211 0.26077026 1.3082402 0.29208583 0.39263842 1.0389832 0.45392707
00000000: 0cd2 393f c813 623f d373 313e f9e8 ec3e
00000010: 37b5 933f 2993 a13f 35fb 843f cc8a 4e3f
00000020: 9351 773e 20eb 903e 4b91 023f d5ad e93e
00000030: 21cd 253e 74c1 c93e 06e0 003f 45a1 293e
00000040: 2395 463f 86b3 aa3f 77df e23e 6fc6 cf3e
00000050: 6af5 173f 2437 a43f e688 a43e 668e 8b3f
00000060: 99eb f63e 5911 ec3e ff5d 723f 58f9 713f
00000070: 321f 323f 657e 483f 6e8e bd3e 1f58 b23e
00000080: 45c0 ae3f 905a d23e 3fd1 d43e 40b2 1f3f
00000090: d71c f43e eef7 793e 456e b03e 5530 553f
000000a0: e847 a13e 474d 543f 01c9 f63e c9ca 573f
000000b0: aa3f 5b3f 9926 e03e 784e 2b3f 3f27 d33e
000000c0: 7641 383f a495 503f 9be5 a73f a2b8 543f
000000d0: 2493 383f 49f5 903e 8225 603f 66a0 253f
000000e0: f2d1 023f 900a 0e3f f014 633f bf6a df3e
000000f0: 808f b33e 7db5 b23f 67c6 963e 290a a83e
00000100: 3def 333f 9318 a43f eee9 dd3e 65d6 aa3e
00000110: 62b9 a23f 4570 273f ac85 5b3f 5116 e33f
00000120: fcb1 833f db0e a43f da07 1d3f 9e88 fa3e
00000130: e026 273f 656d 753e c377 643f 9a78 6c3f
00000140: d70b d73e 608d 753e 5969 bb3e 4e5f 083f
00000150: 4aa9 2e3f 32f3 4a3f 9c13 943e 91f1 293f
00000160: 5ba8 9e3f d0e2 933e e9d1 543e ea7a 513f
00000170: 4060 343f 8aa6 a53e d266 703e d7f2 c43e
00000180: 9f6d fc3e 1d02 5d3e 4544 463f e9d7 ac3f
00000190: 82cd 133f 7a98 8c3f f430 9a3f 260d 6c3e
000001a0: 5268 7d3f 9f35 b63e 30db a03f d02c 953e
000001b0: 7dce 093f f7f9 a13e ba0f 273f 8528 2a3f
000001c0: b7e1 693f fd10 413f 0c92 f13e 3c9d c23f
000001d0: 4dc0 053f 9f1c 2b3f 492b 933e 8503 973e
000001e0: 6ca6 703f 26b3 0e3f ae83 853e 6a74 a73f
000001f0: 468c 953e e707 c93e 67fd 843f 2169 e83e
